// -----// IR Dump After Canonicalizer (canonicalize) //----- //
cherry.func private @llama_forward(%arg0: i64, %arg1: i64, %arg2: !cherry.cherry_tensor<[?xf32]>, %arg3: !cherry.cherry_tensor<[?xf32]>, %arg4: !cherry.cherry_tensor<[32000x768xf32]>, %arg5: !cherry.cherry_tensor<[12x768xf32]>, %arg6: !cherry.cherry_tensor<[12x768x768xf32]>, %arg7: !cherry.cherry_tensor<[12x768x768xf32]>, %arg8: !cherry.cherry_tensor<[12x768x768xf32]>, %arg9: !cherry.cherry_tensor<[12x768x768xf32]>, %arg10: !cherry.cherry_tensor<[12x768xf32]>, %arg11: !cherry.cherry_tensor<[12x768x2048xf32]>, %arg12: !cherry.cherry_tensor<[12x2048x768xf32]>, %arg13: !cherry.cherry_tensor<[12x768x2048xf32]>, %arg14: !cherry.cherry_tensor<[768xf32]>, %arg15: !cherry.cherry_tensor<[768x32000xf32]>) -> (!cherry.cherry_tensor<[?xf32]>, !cherry.cherry_tensor<[?xf32]>, !cherry.cherry_tensor<[?xf32]>) {
  %c1 = arith.constant 1 : index
  %c12 = arith.constant 12 : index
  %c0 = arith.constant 0 : index
  %0 = cherry.constant(0 : i64) : i64
  %1 = cherry.constant(1 : i64) : i64
  %2 = cherry.constant(64 : i64) : i64
  %3 = cherry.constant(1.250000e-01 : f32) : f32
  %4 = cherry.scalar_add %arg1, %1 : (i64, i64) -> i64
  %5 = cherry.tensor_slice %arg4[%arg0, %0] sizes [1, 768] {squeeze = false} : (!cherry.cherry_tensor<[32000x768xf32]>, i64, i64) -> !cherry.cherry_tensor<[?xf32]>
  %6:3 = scf.for %arg16 = %c0 to %c12 step %c1 iter_args(%arg17 = %5, %arg18 = %arg2, %arg19 = %arg3) -> (!cherry.cherry_tensor<[?xf32]>, !cherry.cherry_tensor<[?xf32]>, !cherry.cherry_tensor<[?xf32]>) {
    %9 = arith.index_cast %arg16 : index to i64
    %10 = cherry.tensor_slice %arg5[%9, %0] sizes [1, 768] : (!cherry.cherry_tensor<[12x768xf32]>, i64, i64) -> !cherry.cherry_tensor<[?xf32]>
    %11 = cherry.rmsnorm %arg17 scale %10 eps 9.99999974E-6 : !cherry.cherry_tensor<[?xf32]>, !cherry.cherry_tensor<[?xf32]> -> !cherry.cherry_tensor<[?xf32]>
    %12 = cherry.tensor_slice %arg6[%9, %0, %0] sizes [1, 768, 768] : (!cherry.cherry_tensor<[12x768x768xf32]>, i64, i64, i64) -> !cherry.cherry_tensor<[?xf32]>
    %13 = cherry.tensor_slice %arg7[%9, %0, %0] sizes [1, 768, 768] : (!cherry.cherry_tensor<[12x768x768xf32]>, i64, i64, i64) -> !cherry.cherry_tensor<[?xf32]>
    %14 = cherry.tensor_slice %arg8[%9, %0, %0] sizes [1, 768, 768] : (!cherry.cherry_tensor<[12x768x768xf32]>, i64, i64, i64) -> !cherry.cherry_tensor<[?xf32]>
    %15 = cherry.matmul %11, %12 : (!cherry.cherry_tensor<[?xf32]>, !cherry.cherry_tensor<[?xf32]>) -> !cherry.cherry_tensor<[?xf32]>
    %16 = cherry.matmul %11, %13 : (!cherry.cherry_tensor<[?xf32]>, !cherry.cherry_tensor<[?xf32]>) -> !cherry.cherry_tensor<[?xf32]>
    %17 = cherry.matmul %11, %14 : (!cherry.cherry_tensor<[?xf32]>, !cherry.cherry_tensor<[?xf32]>) -> !cherry.cherry_tensor<[?xf32]>
    %18 = cherry.reshape %15 shape [1, 12, 64] : (!cherry.cherry_tensor<[?xf32]>) -> !cherry.cherry_tensor<[?xf32]>
    %19 = cherry.rope %18, %arg1 : (!cherry.cherry_tensor<[?xf32]>, i64) -> !cherry.cherry_tensor<[?xf32]>
    %20 = cherry.reshape %19 shape [1, 768] : (!cherry.cherry_tensor<[?xf32]>) -> !cherry.cherry_tensor<[?xf32]>
    %21 = cherry.reshape %16 shape [1, 12, 64] : (!cherry.cherry_tensor<[?xf32]>) -> !cherry.cherry_tensor<[?xf32]>
    %22 = cherry.rope %21, %arg1 : (!cherry.cherry_tensor<[?xf32]>, i64) -> !cherry.cherry_tensor<[?xf32]>
    %23 = cherry.reshape %22 shape [1, 768] : (!cherry.cherry_tensor<[?xf32]>) -> !cherry.cherry_tensor<[?xf32]>
    %24 = cherry.reshape %23 shape [1, 1, 768] : (!cherry.cherry_tensor<[?xf32]>) -> !cherry.cherry_tensor<[?xf32]>
    %25 = cherry.tensor_set_slice %arg18[%9, %arg1], %24 : (!cherry.cherry_tensor<[?xf32]>, !cherry.cherry_tensor<[?xf32]>, i64, i64) -> !cherry.cherry_tensor<[?xf32]>
    %26 = cherry.reshape %17 shape [1, 1, 768] : (!cherry.cherry_tensor<[?xf32]>) -> !cherry.cherry_tensor<[?xf32]>
    %27 = cherry.tensor_set_slice %arg19[%9, %arg1], %26 : (!cherry.cherry_tensor<[?xf32]>, !cherry.cherry_tensor<[?xf32]>, i64, i64) -> !cherry.cherry_tensor<[?xf32]>
    %28 = cherry.tensor_slice %25[%9, %0, %0] sizes [1, 1024, 768] : (!cherry.cherry_tensor<[?xf32]>, i64, i64, i64) -> !cherry.cherry_tensor<[?xf32]>
    %29 = cherry.tensor_slice %27[%9, %0, %0] sizes [1, 1024, 768] : (!cherry.cherry_tensor<[?xf32]>, i64, i64, i64) -> !cherry.cherry_tensor<[?xf32]>
    %30 = cherry.create_tensor dense<0.000000e+00> : tensor<1x12x64xf32> -> !cherry.cherry_tensor<[?xf32]>
    %31 = scf.for %arg20 = %c0 to %c12 step %c1 iter_args(%arg21 = %30) -> (!cherry.cherry_tensor<[?xf32]>) {
      %47 = arith.index_cast %arg20 : index to i64
      %48 = cherry.scalar_mul %47, %2 : (i64, i64) -> i64
      %49 = cherry.tensor_slice %20[%0, %48] sizes [1, 64] {squeeze = false} : (!cherry.cherry_tensor<[?xf32]>, i64, i64) -> !cherry.cherry_tensor<[?xf32]>
      %50 = cherry.tensor_slice %28[%0, %48] sizes [1024, 64] {squeeze = false} : (!cherry.cherry_tensor<[?xf32]>, i64, i64) -> !cherry.cherry_tensor<[?xf32]>
      %51 = cherry.transpose %50 perm [1, 0] : (!cherry.cherry_tensor<[?xf32]>) -> !cherry.cherry_tensor<[?xf32]>
      %52 = cherry.masked_matmul %49, %51, %4 : (!cherry.cherry_tensor<[?xf32]>, !cherry.cherry_tensor<[?xf32]>, i64) -> !cherry.cherry_tensor<[?xf32]>
      %53 = cherry.tensor_mul_scalar %52, %3 : (!cherry.cherry_tensor<[?xf32]>, f32) -> !cherry.cherry_tensor<[?xf32]>
      %54 = cherry.softmax %53 axis 1 : (!cherry.cherry_tensor<[?xf32]>) -> !cherry.cherry_tensor<[?xf32]>
      %55 = cherry.tensor_slice %29[%0, %48] sizes [1024, 64] {squeeze = false} : (!cherry.cherry_tensor<[?xf32]>, i64, i64) -> !cherry.cherry_tensor<[?xf32]>
      %56 = cherry.matmul %54, %55 : (!cherry.cherry_tensor<[?xf32]>, !cherry.cherry_tensor<[?xf32]>) -> !cherry.cherry_tensor<[?xf32]>
      %57 = cherry.reshape %56 shape [1, 1, 64] : (!cherry.cherry_tensor<[?xf32]>) -> !cherry.cherry_tensor<[?xf32]>
      %58 = cherry.tensor_set_slice %arg21[%0, %47], %57 : (!cherry.cherry_tensor<[?xf32]>, !cherry.cherry_tensor<[?xf32]>, i64, i64) -> !cherry.cherry_tensor<[?xf32]>
      scf.yield %58 : !cherry.cherry_tensor<[?xf32]>
    }
    %32 = cherry.reshape %31 shape [1, 768] : (!cherry.cherry_tensor<[?xf32]>) -> !cherry.cherry_tensor<[?xf32]>
    %33 = cherry.tensor_slice %arg9[%9, %0, %0] sizes [1, 768, 768] : (!cherry.cherry_tensor<[12x768x768xf32]>, i64, i64, i64) -> !cherry.cherry_tensor<[?xf32]>
    %34 = cherry.matmul %32, %33 : (!cherry.cherry_tensor<[?xf32]>, !cherry.cherry_tensor<[?xf32]>) -> !cherry.cherry_tensor<[?xf32]>
    %35 = cherry.tensor_add %arg17, %34 : (!cherry.cherry_tensor<[?xf32]>, !cherry.cherry_tensor<[?xf32]>) -> !cherry.cherry_tensor<[?xf32]>
    %36 = cherry.tensor_slice %arg10[%9, %0] sizes [1, 768] : (!cherry.cherry_tensor<[12x768xf32]>, i64, i64) -> !cherry.cherry_tensor<[?xf32]>
    %37 = cherry.rmsnorm %35 scale %36 eps 9.99999974E-6 : !cherry.cherry_tensor<[?xf32]>, !cherry.cherry_tensor<[?xf32]> -> !cherry.cherry_tensor<[?xf32]>
    %38 = cherry.tensor_slice %arg11[%9, %0, %0] sizes [1, 768, 2048] : (!cherry.cherry_tensor<[12x768x2048xf32]>, i64, i64, i64) -> !cherry.cherry_tensor<[?xf32]>
    %39 = cherry.tensor_slice %arg13[%9, %0, %0] sizes [1, 768, 2048] : (!cherry.cherry_tensor<[12x768x2048xf32]>, i64, i64, i64) -> !cherry.cherry_tensor<[?xf32]>
    %40 = cherry.matmul %37, %38 : (!cherry.cherry_tensor<[?xf32]>, !cherry.cherry_tensor<[?xf32]>) -> !cherry.cherry_tensor<[?xf32]>
    %41 = cherry.matmul %37, %39 : (!cherry.cherry_tensor<[?xf32]>, !cherry.cherry_tensor<[?xf32]>) -> !cherry.cherry_tensor<[?xf32]>
    %42 = cherry.tensor_silu %40 : (!cherry.cherry_tensor<[?xf32]>) -> !cherry.cherry_tensor<[?xf32]>
    %43 = cherry.tensor_mul %42, %41 : (!cherry.cherry_tensor<[?xf32]>, !cherry.cherry_tensor<[?xf32]>) -> !cherry.cherry_tensor<[?xf32]>
    %44 = cherry.tensor_slice %arg12[%9, %0, %0] sizes [1, 2048, 768] : (!cherry.cherry_tensor<[12x2048x768xf32]>, i64, i64, i64) -> !cherry.cherry_tensor<[?xf32]>
    %45 = cherry.matmul %43, %44 : (!cherry.cherry_tensor<[?xf32]>, !cherry.cherry_tensor<[?xf32]>) -> !cherry.cherry_tensor<[?xf32]>
    %46 = cherry.tensor_add %35, %45 : (!cherry.cherry_tensor<[?xf32]>, !cherry.cherry_tensor<[?xf32]>) -> !cherry.cherry_tensor<[?xf32]>
    scf.yield %46, %25, %27 : !cherry.cherry_tensor<[?xf32]>, !cherry.cherry_tensor<[?xf32]>, !cherry.cherry_tensor<[?xf32]>
  }
  %7 = cherry.rmsnorm %6#0 scale %arg14 eps 9.99999974E-6 : !cherry.cherry_tensor<[?xf32]>, !cherry.cherry_tensor<[768xf32]> -> !cherry.cherry_tensor<[?xf32]>
  %8 = cherry.matmul %7, %arg15 : (!cherry.cherry_tensor<[?xf32]>, !cherry.cherry_tensor<[768x32000xf32]>) -> !cherry.cherry_tensor<[?xf32]>
  cherry.return %8, %6#1, %6#2 : !cherry.cherry_tensor<[?xf32]>, !cherry.cherry_tensor<[?xf32]>, !cherry.cherry_tensor<[?xf32]>
}

// -----// IR Dump After Canonicalizer (canonicalize) //----- //
cherry.func @host() {
  %0 = cherry.constant(32000 : i64) : i64
  cherry.runtime_call "build_tokenizer"(%0) {str_args = ["/home/nx/ycy/pb/cherry/tests/llama/tokenizer.bin"]} : (i64) -> ()
  %1 = cherry.weight "/home/nx/ycy/pb/cherry/utils/stories110M/token_embeddings.bin" shape [32000, 768] type f32 -> !cherry.cherry_tensor<[32000x768xf32]>
  %2 = cherry.weight "/home/nx/ycy/pb/cherry/utils/stories110M/layers_rms_att_weight.bin" shape [12, 768] type f32 -> !cherry.cherry_tensor<[12x768xf32]>
  %3 = cherry.weight "/home/nx/ycy/pb/cherry/utils/stories110M/layers_wq.bin" shape [12, 768, 768] type f32 -> !cherry.cherry_tensor<[12x768x768xf32]>
  %4 = cherry.weight "/home/nx/ycy/pb/cherry/utils/stories110M/layers_wk.bin" shape [12, 768, 768] type f32 -> !cherry.cherry_tensor<[12x768x768xf32]>
  %5 = cherry.weight "/home/nx/ycy/pb/cherry/utils/stories110M/layers_wv.bin" shape [12, 768, 768] type f32 -> !cherry.cherry_tensor<[12x768x768xf32]>
  %6 = cherry.weight "/home/nx/ycy/pb/cherry/utils/stories110M/layers_wo.bin" shape [12, 768, 768] type f32 -> !cherry.cherry_tensor<[12x768x768xf32]>
  %7 = cherry.weight "/home/nx/ycy/pb/cherry/utils/stories110M/layers_rms_ffn_weight.bin" shape [12, 768] type f32 -> !cherry.cherry_tensor<[12x768xf32]>
  %8 = cherry.weight "/home/nx/ycy/pb/cherry/utils/stories110M/layers_w1.bin" shape [12, 768, 2048] type f32 -> !cherry.cherry_tensor<[12x768x2048xf32]>
  %9 = cherry.weight "/home/nx/ycy/pb/cherry/utils/stories110M/layers_w2.bin" shape [12, 2048, 768] type f32 -> !cherry.cherry_tensor<[12x2048x768xf32]>
  %10 = cherry.weight "/home/nx/ycy/pb/cherry/utils/stories110M/layers_w3.bin" shape [12, 768, 2048] type f32 -> !cherry.cherry_tensor<[12x768x2048xf32]>
  %11 = cherry.weight "/home/nx/ycy/pb/cherry/utils/stories110M/final_rms_norm.bin" shape [768] type f32 -> !cherry.cherry_tensor<[768xf32]>
  %12 = cherry.weight "/home/nx/ycy/pb/cherry/utils/stories110M/output_wcls.bin" shape [768, 32000] type f32 -> !cherry.cherry_tensor<[768x32000xf32]>
  %13 = cherry.create_tensor dense<0.000000e+00> : tensor<12x1024x768xf32> -> !cherry.cherry_tensor<[?xf32]>
  %14 = cherry.create_tensor dense<0.000000e+00> : tensor<12x1024x768xf32> -> !cherry.cherry_tensor<[?xf32]>
  %15 = cherry.constant(1 : i64) : i64
  %16 = cherry.constant(0 : i64) : i64
  %17 = cherry.constant(128 : i64) : i64
  cherry.runtime_call "start"() : () -> ()
  %18:4 = scf.while (%arg0 = %15, %arg1 = %16, %arg2 = %13, %arg3 = %14) : (i64, i64, !cherry.cherry_tensor<[?xf32]>, !cherry.cherry_tensor<[?xf32]>) -> (i64, i64, !cherry.cherry_tensor<[?xf32]>, !cherry.cherry_tensor<[?xf32]>) {
    %19 = arith.cmpi slt, %arg1, %17 : i64
    scf.condition(%19) %arg0, %arg1, %arg2, %arg3 : i64, i64, !cherry.cherry_tensor<[?xf32]>, !cherry.cherry_tensor<[?xf32]>
  } do {
  ^bb0(%arg0: i64, %arg1: i64, %arg2: !cherry.cherry_tensor<[?xf32]>, %arg3: !cherry.cherry_tensor<[?xf32]>):
    %19 = cherry.constant(1 : i64) : i64
    %20 = cherry.scalar_add %arg1, %19 : (i64, i64) -> i64
    %21:3 = cherry.call @llama_forward(%arg0, %arg1, %arg2, %arg3, %1, %2, %3, %4, %5, %6, %7, %8, %9, %10, %11, %12) : (i64, i64, !cherry.cherry_tensor<[?xf32]>, !cherry.cherry_tensor<[?xf32]>, !cherry.cherry_tensor<[32000x768xf32]>, !cherry.cherry_tensor<[12x768xf32]>, !cherry.cherry_tensor<[12x768x768xf32]>, !cherry.cherry_tensor<[12x768x768xf32]>, !cherry.cherry_tensor<[12x768x768xf32]>, !cherry.cherry_tensor<[12x768x768xf32]>, !cherry.cherry_tensor<[12x768xf32]>, !cherry.cherry_tensor<[12x768x2048xf32]>, !cherry.cherry_tensor<[12x2048x768xf32]>, !cherry.cherry_tensor<[12x768x2048xf32]>, !cherry.cherry_tensor<[768xf32]>, !cherry.cherry_tensor<[768x32000xf32]>) -> (!cherry.cherry_tensor<[?xf32]>, !cherry.cherry_tensor<[?xf32]>, !cherry.cherry_tensor<[?xf32]>)
    %22 = cherry.argmax %21#0 dim 1 : (!cherry.cherry_tensor<[?xf32]>) -> !cherry.cherry_tensor<[?xi64]>
    %23 = cherry.constant(0 : i64) : i64
    %24 = cherry.tensor_get %22[%23] : (!cherry.cherry_tensor<[?xi64]>, i64) -> i64
    cherry.runtime_call "decode"(%arg0, %24) : (i64, i64) -> ()
    scf.yield %24, %20, %21#1, %21#2 : i64, i64, !cherry.cherry_tensor<[?xf32]>, !cherry.cherry_tensor<[?xf32]>
  }
  cherry.runtime_call "end"(%17) : (i64) -> ()
  cherry.runtime_call "free_tokenizer"() : () -> ()
  cherry.return
}

// -----// IR Dump After Canonicalizer (canonicalize) //----- //
cherry.func @host() {
  %c0 = arith.constant 0 : index
  %c12 = arith.constant 12 : index
  %c1 = arith.constant 1 : index
  %0 = cherry.constant(32000 : i64) : i64
  cherry.runtime_call "build_tokenizer"(%0) {str_args = ["/home/nx/ycy/pb/cherry/tests/llama/tokenizer.bin"]} : (i64) -> ()
  %1 = cherry.weight "/home/nx/ycy/pb/cherry/utils/stories110M/token_embeddings.bin" shape [32000, 768] type f32 -> !cherry.cherry_tensor<[32000x768xf32]>
  %2 = cherry.weight "/home/nx/ycy/pb/cherry/utils/stories110M/layers_rms_att_weight.bin" shape [12, 768] type f32 -> !cherry.cherry_tensor<[12x768xf32]>
  %3 = cherry.weight "/home/nx/ycy/pb/cherry/utils/stories110M/layers_wq.bin" shape [12, 768, 768] type f32 -> !cherry.cherry_tensor<[12x768x768xf32]>
  %4 = cherry.weight "/home/nx/ycy/pb/cherry/utils/stories110M/layers_wk.bin" shape [12, 768, 768] type f32 -> !cherry.cherry_tensor<[12x768x768xf32]>
  %5 = cherry.weight "/home/nx/ycy/pb/cherry/utils/stories110M/layers_wv.bin" shape [12, 768, 768] type f32 -> !cherry.cherry_tensor<[12x768x768xf32]>
  %6 = cherry.weight "/home/nx/ycy/pb/cherry/utils/stories110M/layers_wo.bin" shape [12, 768, 768] type f32 -> !cherry.cherry_tensor<[12x768x768xf32]>
  %7 = cherry.weight "/home/nx/ycy/pb/cherry/utils/stories110M/layers_rms_ffn_weight.bin" shape [12, 768] type f32 -> !cherry.cherry_tensor<[12x768xf32]>
  %8 = cherry.weight "/home/nx/ycy/pb/cherry/utils/stories110M/layers_w1.bin" shape [12, 768, 2048] type f32 -> !cherry.cherry_tensor<[12x768x2048xf32]>
  %9 = cherry.weight "/home/nx/ycy/pb/cherry/utils/stories110M/layers_w2.bin" shape [12, 2048, 768] type f32 -> !cherry.cherry_tensor<[12x2048x768xf32]>
  %10 = cherry.weight "/home/nx/ycy/pb/cherry/utils/stories110M/layers_w3.bin" shape [12, 768, 2048] type f32 -> !cherry.cherry_tensor<[12x768x2048xf32]>
  %11 = cherry.weight "/home/nx/ycy/pb/cherry/utils/stories110M/final_rms_norm.bin" shape [768] type f32 -> !cherry.cherry_tensor<[768xf32]>
  %12 = cherry.weight "/home/nx/ycy/pb/cherry/utils/stories110M/output_wcls.bin" shape [768, 32000] type f32 -> !cherry.cherry_tensor<[768x32000xf32]>
  %13 = cherry.create_tensor dense<0.000000e+00> : tensor<12x1024x768xf32> -> !cherry.cherry_tensor<[?xf32]>
  %14 = cherry.create_tensor dense<0.000000e+00> : tensor<12x1024x768xf32> -> !cherry.cherry_tensor<[?xf32]>
  %15 = cherry.constant(1 : i64) : i64
  %16 = cherry.constant(0 : i64) : i64
  %17 = cherry.constant(128 : i64) : i64
  cherry.runtime_call "start"() : () -> ()
  %18:4 = scf.while (%arg0 = %15, %arg1 = %16, %arg2 = %13, %arg3 = %14) : (i64, i64, !cherry.cherry_tensor<[?xf32]>, !cherry.cherry_tensor<[?xf32]>) -> (i64, i64, !cherry.cherry_tensor<[?xf32]>, !cherry.cherry_tensor<[?xf32]>) {
    %19 = arith.cmpi slt, %arg1, %17 : i64
    scf.condition(%19) %arg0, %arg1, %arg2, %arg3 : i64, i64, !cherry.cherry_tensor<[?xf32]>, !cherry.cherry_tensor<[?xf32]>
  } do {
  ^bb0(%arg0: i64, %arg1: i64, %arg2: !cherry.cherry_tensor<[?xf32]>, %arg3: !cherry.cherry_tensor<[?xf32]>):
    %19 = cherry.constant(1 : i64) : i64
    %20 = cherry.scalar_add %arg1, %19 : (i64, i64) -> i64
    %21 = cherry.constant(0 : i64) : i64
    %22 = cherry.constant(1 : i64) : i64
    %23 = cherry.constant(64 : i64) : i64
    %24 = cherry.constant(1.250000e-01 : f32) : f32
    %25 = cherry.scalar_add %arg1, %22 : (i64, i64) -> i64
    %26 = cherry.tensor_slice %1[%arg0, %21] sizes [1, 768] {squeeze = false} : (!cherry.cherry_tensor<[32000x768xf32]>, i64, i64) -> !cherry.cherry_tensor<[?xf32]>
    %27:3 = scf.for %arg4 = %c0 to %c12 step %c1 iter_args(%arg5 = %26, %arg6 = %arg2, %arg7 = %arg3) -> (!cherry.cherry_tensor<[?xf32]>, !cherry.cherry_tensor<[?xf32]>, !cherry.cherry_tensor<[?xf32]>) {
      %33 = arith.index_cast %arg4 : index to i64
      %34 = cherry.tensor_slice %2[%33, %21] sizes [1, 768] : (!cherry.cherry_tensor<[12x768xf32]>, i64, i64) -> !cherry.cherry_tensor<[?xf32]>
      %35 = cherry.rmsnorm %arg5 scale %34 eps 9.99999974E-6 : !cherry.cherry_tensor<[?xf32]>, !cherry.cherry_tensor<[?xf32]> -> !cherry.cherry_tensor<[?xf32]>
      %36 = cherry.tensor_slice %3[%33, %21, %21] sizes [1, 768, 768] : (!cherry.cherry_tensor<[12x768x768xf32]>, i64, i64, i64) -> !cherry.cherry_tensor<[?xf32]>
      %37 = cherry.tensor_slice %4[%33, %21, %21] sizes [1, 768, 768] : (!cherry.cherry_tensor<[12x768x768xf32]>, i64, i64, i64) -> !cherry.cherry_tensor<[?xf32]>
      %38 = cherry.tensor_slice %5[%33, %21, %21] sizes [1, 768, 768] : (!cherry.cherry_tensor<[12x768x768xf32]>, i64, i64, i64) -> !cherry.cherry_tensor<[?xf32]>
      %39 = cherry.matmul %35, %36 : (!cherry.cherry_tensor<[?xf32]>, !cherry.cherry_tensor<[?xf32]>) -> !cherry.cherry_tensor<[?xf32]>
      %40 = cherry.matmul %35, %37 : (!cherry.cherry_tensor<[?xf32]>, !cherry.cherry_tensor<[?xf32]>) -> !cherry.cherry_tensor<[?xf32]>
      %41 = cherry.matmul %35, %38 : (!cherry.cherry_tensor<[?xf32]>, !cherry.cherry_tensor<[?xf32]>) -> !cherry.cherry_tensor<[?xf32]>
      %42 = cherry.reshape %39 shape [1, 12, 64] : (!cherry.cherry_tensor<[?xf32]>) -> !cherry.cherry_tensor<[?xf32]>
      %43 = cherry.rope %42, %arg1 : (!cherry.cherry_tensor<[?xf32]>, i64) -> !cherry.cherry_tensor<[?xf32]>
      %44 = cherry.reshape %43 shape [1, 768] : (!cherry.cherry_tensor<[?xf32]>) -> !cherry.cherry_tensor<[?xf32]>
      %45 = cherry.reshape %40 shape [1, 12, 64] : (!cherry.cherry_tensor<[?xf32]>) -> !cherry.cherry_tensor<[?xf32]>
      %46 = cherry.rope %45, %arg1 : (!cherry.cherry_tensor<[?xf32]>, i64) -> !cherry.cherry_tensor<[?xf32]>
      %47 = cherry.reshape %46 shape [1, 768] : (!cherry.cherry_tensor<[?xf32]>) -> !cherry.cherry_tensor<[?xf32]>
      %48 = cherry.reshape %47 shape [1, 1, 768] : (!cherry.cherry_tensor<[?xf32]>) -> !cherry.cherry_tensor<[?xf32]>
      %49 = cherry.tensor_set_slice %arg6[%33, %arg1], %48 : (!cherry.cherry_tensor<[?xf32]>, !cherry.cherry_tensor<[?xf32]>, i64, i64) -> !cherry.cherry_tensor<[?xf32]>
      %50 = cherry.reshape %41 shape [1, 1, 768] : (!cherry.cherry_tensor<[?xf32]>) -> !cherry.cherry_tensor<[?xf32]>
      %51 = cherry.tensor_set_slice %arg7[%33, %arg1], %50 : (!cherry.cherry_tensor<[?xf32]>, !cherry.cherry_tensor<[?xf32]>, i64, i64) -> !cherry.cherry_tensor<[?xf32]>
      %52 = cherry.tensor_slice %49[%33, %21, %21] sizes [1, 1024, 768] : (!cherry.cherry_tensor<[?xf32]>, i64, i64, i64) -> !cherry.cherry_tensor<[?xf32]>
      %53 = cherry.tensor_slice %51[%33, %21, %21] sizes [1, 1024, 768] : (!cherry.cherry_tensor<[?xf32]>, i64, i64, i64) -> !cherry.cherry_tensor<[?xf32]>
      %54 = cherry.create_tensor dense<0.000000e+00> : tensor<1x12x64xf32> -> !cherry.cherry_tensor<[?xf32]>
      %55 = scf.for %arg8 = %c0 to %c12 step %c1 iter_args(%arg9 = %54) -> (!cherry.cherry_tensor<[?xf32]>) {
        %71 = arith.index_cast %arg8 : index to i64
        %72 = cherry.scalar_mul %71, %23 : (i64, i64) -> i64
        %73 = cherry.tensor_slice %44[%21, %72] sizes [1, 64] {squeeze = false} : (!cherry.cherry_tensor<[?xf32]>, i64, i64) -> !cherry.cherry_tensor<[?xf32]>
        %74 = cherry.tensor_slice %52[%21, %72] sizes [1024, 64] {squeeze = false} : (!cherry.cherry_tensor<[?xf32]>, i64, i64) -> !cherry.cherry_tensor<[?xf32]>
        %75 = cherry.transpose %74 perm [1, 0] : (!cherry.cherry_tensor<[?xf32]>) -> !cherry.cherry_tensor<[?xf32]>
        %76 = cherry.masked_matmul %73, %75, %25 : (!cherry.cherry_tensor<[?xf32]>, !cherry.cherry_tensor<[?xf32]>, i64) -> !cherry.cherry_tensor<[?xf32]>
        %77 = cherry.tensor_mul_scalar %76, %24 : (!cherry.cherry_tensor<[?xf32]>, f32) -> !cherry.cherry_tensor<[?xf32]>
        %78 = cherry.softmax %77 axis 1 : (!cherry.cherry_tensor<[?xf32]>) -> !cherry.cherry_tensor<[?xf32]>
        %79 = cherry.tensor_slice %53[%21, %72] sizes [1024, 64] {squeeze = false} : (!cherry.cherry_tensor<[?xf32]>, i64, i64) -> !cherry.cherry_tensor<[?xf32]>
        %80 = cherry.matmul %78, %79 : (!cherry.cherry_tensor<[?xf32]>, !cherry.cherry_tensor<[?xf32]>) -> !cherry.cherry_tensor<[?xf32]>
        %81 = cherry.reshape %80 shape [1, 1, 64] : (!cherry.cherry_tensor<[?xf32]>) -> !cherry.cherry_tensor<[?xf32]>
        %82 = cherry.tensor_set_slice %arg9[%21, %71], %81 : (!cherry.cherry_tensor<[?xf32]>, !cherry.cherry_tensor<[?xf32]>, i64, i64) -> !cherry.cherry_tensor<[?xf32]>
        scf.yield %82 : !cherry.cherry_tensor<[?xf32]>
      }
      %56 = cherry.reshape %55 shape [1, 768] : (!cherry.cherry_tensor<[?xf32]>) -> !cherry.cherry_tensor<[?xf32]>
      %57 = cherry.tensor_slice %6[%33, %21, %21] sizes [1, 768, 768] : (!cherry.cherry_tensor<[12x768x768xf32]>, i64, i64, i64) -> !cherry.cherry_tensor<[?xf32]>
      %58 = cherry.matmul %56, %57 : (!cherry.cherry_tensor<[?xf32]>, !cherry.cherry_tensor<[?xf32]>) -> !cherry.cherry_tensor<[?xf32]>
      %59 = cherry.tensor_add %arg5, %58 : (!cherry.cherry_tensor<[?xf32]>, !cherry.cherry_tensor<[?xf32]>) -> !cherry.cherry_tensor<[?xf32]>
      %60 = cherry.tensor_slice %7[%33, %21] sizes [1, 768] : (!cherry.cherry_tensor<[12x768xf32]>, i64, i64) -> !cherry.cherry_tensor<[?xf32]>
      %61 = cherry.rmsnorm %59 scale %60 eps 9.99999974E-6 : !cherry.cherry_tensor<[?xf32]>, !cherry.cherry_tensor<[?xf32]> -> !cherry.cherry_tensor<[?xf32]>
      %62 = cherry.tensor_slice %8[%33, %21, %21] sizes [1, 768, 2048] : (!cherry.cherry_tensor<[12x768x2048xf32]>, i64, i64, i64) -> !cherry.cherry_tensor<[?xf32]>
      %63 = cherry.tensor_slice %10[%33, %21, %21] sizes [1, 768, 2048] : (!cherry.cherry_tensor<[12x768x2048xf32]>, i64, i64, i64) -> !cherry.cherry_tensor<[?xf32]>
      %64 = cherry.matmul %61, %62 : (!cherry.cherry_tensor<[?xf32]>, !cherry.cherry_tensor<[?xf32]>) -> !cherry.cherry_tensor<[?xf32]>
      %65 = cherry.matmul %61, %63 : (!cherry.cherry_tensor<[?xf32]>, !cherry.cherry_tensor<[?xf32]>) -> !cherry.cherry_tensor<[?xf32]>
      %66 = cherry.tensor_silu %64 : (!cherry.cherry_tensor<[?xf32]>) -> !cherry.cherry_tensor<[?xf32]>
      %67 = cherry.tensor_mul %66, %65 : (!cherry.cherry_tensor<[?xf32]>, !cherry.cherry_tensor<[?xf32]>) -> !cherry.cherry_tensor<[?xf32]>
      %68 = cherry.tensor_slice %9[%33, %21, %21] sizes [1, 2048, 768] : (!cherry.cherry_tensor<[12x2048x768xf32]>, i64, i64, i64) -> !cherry.cherry_tensor<[?xf32]>
      %69 = cherry.matmul %67, %68 : (!cherry.cherry_tensor<[?xf32]>, !cherry.cherry_tensor<[?xf32]>) -> !cherry.cherry_tensor<[?xf32]>
      %70 = cherry.tensor_add %59, %69 : (!cherry.cherry_tensor<[?xf32]>, !cherry.cherry_tensor<[?xf32]>) -> !cherry.cherry_tensor<[?xf32]>
      scf.yield %70, %49, %51 : !cherry.cherry_tensor<[?xf32]>, !cherry.cherry_tensor<[?xf32]>, !cherry.cherry_tensor<[?xf32]>
    }
    %28 = cherry.rmsnorm %27#0 scale %11 eps 9.99999974E-6 : !cherry.cherry_tensor<[?xf32]>, !cherry.cherry_tensor<[768xf32]> -> !cherry.cherry_tensor<[?xf32]>
    %29 = cherry.matmul %28, %12 : (!cherry.cherry_tensor<[?xf32]>, !cherry.cherry_tensor<[768x32000xf32]>) -> !cherry.cherry_tensor<[?xf32]>
    %30 = cherry.argmax %29 dim 1 : (!cherry.cherry_tensor<[?xf32]>) -> !cherry.cherry_tensor<[?xi64]>
    %31 = cherry.constant(0 : i64) : i64
    %32 = cherry.tensor_get %30[%31] : (!cherry.cherry_tensor<[?xi64]>, i64) -> i64
    cherry.runtime_call "decode"(%arg0, %32) : (i64, i64) -> ()
    scf.yield %32, %20, %27#1, %27#2 : i64, i64, !cherry.cherry_tensor<[?xf32]>, !cherry.cherry_tensor<[?xf32]>
  }
  cherry.runtime_call "end"(%17) : (i64) -> ()
  cherry.runtime_call "free_tokenizer"() : () -> ()
  cherry.return
}

// -----// IR Dump After Inliner (inline) //----- //
module {
  cherry.func @host() {
    %c0 = arith.constant 0 : index
    %c12 = arith.constant 12 : index
    %c1 = arith.constant 1 : index
    %0 = cherry.constant(32000 : i64) : i64
    cherry.runtime_call "build_tokenizer"(%0) {str_args = ["/home/nx/ycy/pb/cherry/tests/llama/tokenizer.bin"]} : (i64) -> ()
    %1 = cherry.weight "/home/nx/ycy/pb/cherry/utils/stories110M/token_embeddings.bin" shape [32000, 768] type f32 -> !cherry.cherry_tensor<[32000x768xf32]>
    %2 = cherry.weight "/home/nx/ycy/pb/cherry/utils/stories110M/layers_rms_att_weight.bin" shape [12, 768] type f32 -> !cherry.cherry_tensor<[12x768xf32]>
    %3 = cherry.weight "/home/nx/ycy/pb/cherry/utils/stories110M/layers_wq.bin" shape [12, 768, 768] type f32 -> !cherry.cherry_tensor<[12x768x768xf32]>
    %4 = cherry.weight "/home/nx/ycy/pb/cherry/utils/stories110M/layers_wk.bin" shape [12, 768, 768] type f32 -> !cherry.cherry_tensor<[12x768x768xf32]>
    %5 = cherry.weight "/home/nx/ycy/pb/cherry/utils/stories110M/layers_wv.bin" shape [12, 768, 768] type f32 -> !cherry.cherry_tensor<[12x768x768xf32]>
    %6 = cherry.weight "/home/nx/ycy/pb/cherry/utils/stories110M/layers_wo.bin" shape [12, 768, 768] type f32 -> !cherry.cherry_tensor<[12x768x768xf32]>
    %7 = cherry.weight "/home/nx/ycy/pb/cherry/utils/stories110M/layers_rms_ffn_weight.bin" shape [12, 768] type f32 -> !cherry.cherry_tensor<[12x768xf32]>
    %8 = cherry.weight "/home/nx/ycy/pb/cherry/utils/stories110M/layers_w1.bin" shape [12, 768, 2048] type f32 -> !cherry.cherry_tensor<[12x768x2048xf32]>
    %9 = cherry.weight "/home/nx/ycy/pb/cherry/utils/stories110M/layers_w2.bin" shape [12, 2048, 768] type f32 -> !cherry.cherry_tensor<[12x2048x768xf32]>
    %10 = cherry.weight "/home/nx/ycy/pb/cherry/utils/stories110M/layers_w3.bin" shape [12, 768, 2048] type f32 -> !cherry.cherry_tensor<[12x768x2048xf32]>
    %11 = cherry.weight "/home/nx/ycy/pb/cherry/utils/stories110M/final_rms_norm.bin" shape [768] type f32 -> !cherry.cherry_tensor<[768xf32]>
    %12 = cherry.weight "/home/nx/ycy/pb/cherry/utils/stories110M/output_wcls.bin" shape [768, 32000] type f32 -> !cherry.cherry_tensor<[768x32000xf32]>
    %13 = cherry.create_tensor dense<0.000000e+00> : tensor<12x1024x768xf32> -> !cherry.cherry_tensor<[?xf32]>
    %14 = cherry.create_tensor dense<0.000000e+00> : tensor<12x1024x768xf32> -> !cherry.cherry_tensor<[?xf32]>
    %15 = cherry.constant(1 : i64) : i64
    %16 = cherry.constant(0 : i64) : i64
    %17 = cherry.constant(128 : i64) : i64
    cherry.runtime_call "start"() : () -> ()
    %18:4 = scf.while (%arg0 = %15, %arg1 = %16, %arg2 = %13, %arg3 = %14) : (i64, i64, !cherry.cherry_tensor<[?xf32]>, !cherry.cherry_tensor<[?xf32]>) -> (i64, i64, !cherry.cherry_tensor<[?xf32]>, !cherry.cherry_tensor<[?xf32]>) {
      %19 = arith.cmpi slt, %arg1, %17 : i64
      scf.condition(%19) %arg0, %arg1, %arg2, %arg3 : i64, i64, !cherry.cherry_tensor<[?xf32]>, !cherry.cherry_tensor<[?xf32]>
    } do {
    ^bb0(%arg0: i64, %arg1: i64, %arg2: !cherry.cherry_tensor<[?xf32]>, %arg3: !cherry.cherry_tensor<[?xf32]>):
      %19 = cherry.constant(1 : i64) : i64
      %20 = cherry.scalar_add %arg1, %19 : (i64, i64) -> i64
      %21 = cherry.constant(0 : i64) : i64
      %22 = cherry.constant(1 : i64) : i64
      %23 = cherry.constant(64 : i64) : i64
      %24 = cherry.constant(1.250000e-01 : f32) : f32
      %25 = cherry.scalar_add %arg1, %22 : (i64, i64) -> i64
      %26 = cherry.tensor_slice %1[%arg0, %21] sizes [1, 768] {squeeze = false} : (!cherry.cherry_tensor<[32000x768xf32]>, i64, i64) -> !cherry.cherry_tensor<[?xf32]>
      %27:3 = scf.for %arg4 = %c0 to %c12 step %c1 iter_args(%arg5 = %26, %arg6 = %arg2, %arg7 = %arg3) -> (!cherry.cherry_tensor<[?xf32]>, !cherry.cherry_tensor<[?xf32]>, !cherry.cherry_tensor<[?xf32]>) {
        %33 = arith.index_cast %arg4 : index to i64
        %34 = cherry.tensor_slice %2[%33, %21] sizes [1, 768] : (!cherry.cherry_tensor<[12x768xf32]>, i64, i64) -> !cherry.cherry_tensor<[?xf32]>
        %35 = cherry.rmsnorm %arg5 scale %34 eps 9.99999974E-6 : !cherry.cherry_tensor<[?xf32]>, !cherry.cherry_tensor<[?xf32]> -> !cherry.cherry_tensor<[?xf32]>
        %36 = cherry.tensor_slice %3[%33, %21, %21] sizes [1, 768, 768] : (!cherry.cherry_tensor<[12x768x768xf32]>, i64, i64, i64) -> !cherry.cherry_tensor<[?xf32]>
        %37 = cherry.tensor_slice %4[%33, %21, %21] sizes [1, 768, 768] : (!cherry.cherry_tensor<[12x768x768xf32]>, i64, i64, i64) -> !cherry.cherry_tensor<[?xf32]>
        %38 = cherry.tensor_slice %5[%33, %21, %21] sizes [1, 768, 768] : (!cherry.cherry_tensor<[12x768x768xf32]>, i64, i64, i64) -> !cherry.cherry_tensor<[?xf32]>
        %39 = cherry.matmul %35, %36 : (!cherry.cherry_tensor<[?xf32]>, !cherry.cherry_tensor<[?xf32]>) -> !cherry.cherry_tensor<[?xf32]>
        %40 = cherry.matmul %35, %37 : (!cherry.cherry_tensor<[?xf32]>, !cherry.cherry_tensor<[?xf32]>) -> !cherry.cherry_tensor<[?xf32]>
        %41 = cherry.matmul %35, %38 : (!cherry.cherry_tensor<[?xf32]>, !cherry.cherry_tensor<[?xf32]>) -> !cherry.cherry_tensor<[?xf32]>
        %42 = cherry.reshape %39 shape [1, 12, 64] : (!cherry.cherry_tensor<[?xf32]>) -> !cherry.cherry_tensor<[?xf32]>
        %43 = cherry.rope %42, %arg1 : (!cherry.cherry_tensor<[?xf32]>, i64) -> !cherry.cherry_tensor<[?xf32]>
        %44 = cherry.reshape %43 shape [1, 768] : (!cherry.cherry_tensor<[?xf32]>) -> !cherry.cherry_tensor<[?xf32]>
        %45 = cherry.reshape %40 shape [1, 12, 64] : (!cherry.cherry_tensor<[?xf32]>) -> !cherry.cherry_tensor<[?xf32]>
        %46 = cherry.rope %45, %arg1 : (!cherry.cherry_tensor<[?xf32]>, i64) -> !cherry.cherry_tensor<[?xf32]>
        %47 = cherry.reshape %46 shape [1, 768] : (!cherry.cherry_tensor<[?xf32]>) -> !cherry.cherry_tensor<[?xf32]>
        %48 = cherry.reshape %47 shape [1, 1, 768] : (!cherry.cherry_tensor<[?xf32]>) -> !cherry.cherry_tensor<[?xf32]>
        %49 = cherry.tensor_set_slice %arg6[%33, %arg1], %48 : (!cherry.cherry_tensor<[?xf32]>, !cherry.cherry_tensor<[?xf32]>, i64, i64) -> !cherry.cherry_tensor<[?xf32]>
        %50 = cherry.reshape %41 shape [1, 1, 768] : (!cherry.cherry_tensor<[?xf32]>) -> !cherry.cherry_tensor<[?xf32]>
        %51 = cherry.tensor_set_slice %arg7[%33, %arg1], %50 : (!cherry.cherry_tensor<[?xf32]>, !cherry.cherry_tensor<[?xf32]>, i64, i64) -> !cherry.cherry_tensor<[?xf32]>
        %52 = cherry.tensor_slice %49[%33, %21, %21] sizes [1, 1024, 768] : (!cherry.cherry_tensor<[?xf32]>, i64, i64, i64) -> !cherry.cherry_tensor<[?xf32]>
        %53 = cherry.tensor_slice %51[%33, %21, %21] sizes [1, 1024, 768] : (!cherry.cherry_tensor<[?xf32]>, i64, i64, i64) -> !cherry.cherry_tensor<[?xf32]>
        %54 = cherry.create_tensor dense<0.000000e+00> : tensor<1x12x64xf32> -> !cherry.cherry_tensor<[?xf32]>
        %55 = scf.for %arg8 = %c0 to %c12 step %c1 iter_args(%arg9 = %54) -> (!cherry.cherry_tensor<[?xf32]>) {
          %71 = arith.index_cast %arg8 : index to i64
          %72 = cherry.scalar_mul %71, %23 : (i64, i64) -> i64
          %73 = cherry.tensor_slice %44[%21, %72] sizes [1, 64] {squeeze = false} : (!cherry.cherry_tensor<[?xf32]>, i64, i64) -> !cherry.cherry_tensor<[?xf32]>
          %74 = cherry.tensor_slice %52[%21, %72] sizes [1024, 64] {squeeze = false} : (!cherry.cherry_tensor<[?xf32]>, i64, i64) -> !cherry.cherry_tensor<[?xf32]>
          %75 = cherry.transpose %74 perm [1, 0] : (!cherry.cherry_tensor<[?xf32]>) -> !cherry.cherry_tensor<[?xf32]>
          %76 = cherry.masked_matmul %73, %75, %25 : (!cherry.cherry_tensor<[?xf32]>, !cherry.cherry_tensor<[?xf32]>, i64) -> !cherry.cherry_tensor<[?xf32]>
          %77 = cherry.tensor_mul_scalar %76, %24 : (!cherry.cherry_tensor<[?xf32]>, f32) -> !cherry.cherry_tensor<[?xf32]>
          %78 = cherry.softmax %77 axis 1 : (!cherry.cherry_tensor<[?xf32]>) -> !cherry.cherry_tensor<[?xf32]>
          %79 = cherry.tensor_slice %53[%21, %72] sizes [1024, 64] {squeeze = false} : (!cherry.cherry_tensor<[?xf32]>, i64, i64) -> !cherry.cherry_tensor<[?xf32]>
          %80 = cherry.matmul %78, %79 : (!cherry.cherry_tensor<[?xf32]>, !cherry.cherry_tensor<[?xf32]>) -> !cherry.cherry_tensor<[?xf32]>
          %81 = cherry.reshape %80 shape [1, 1, 64] : (!cherry.cherry_tensor<[?xf32]>) -> !cherry.cherry_tensor<[?xf32]>
          %82 = cherry.tensor_set_slice %arg9[%21, %71], %81 : (!cherry.cherry_tensor<[?xf32]>, !cherry.cherry_tensor<[?xf32]>, i64, i64) -> !cherry.cherry_tensor<[?xf32]>
          scf.yield %82 : !cherry.cherry_tensor<[?xf32]>
        }
        %56 = cherry.reshape %55 shape [1, 768] : (!cherry.cherry_tensor<[?xf32]>) -> !cherry.cherry_tensor<[?xf32]>
        %57 = cherry.tensor_slice %6[%33, %21, %21] sizes [1, 768, 768] : (!cherry.cherry_tensor<[12x768x768xf32]>, i64, i64, i64) -> !cherry.cherry_tensor<[?xf32]>
        %58 = cherry.matmul %56, %57 : (!cherry.cherry_tensor<[?xf32]>, !cherry.cherry_tensor<[?xf32]>) -> !cherry.cherry_tensor<[?xf32]>
        %59 = cherry.tensor_add %arg5, %58 : (!cherry.cherry_tensor<[?xf32]>, !cherry.cherry_tensor<[?xf32]>) -> !cherry.cherry_tensor<[?xf32]>
        %60 = cherry.tensor_slice %7[%33, %21] sizes [1, 768] : (!cherry.cherry_tensor<[12x768xf32]>, i64, i64) -> !cherry.cherry_tensor<[?xf32]>
        %61 = cherry.rmsnorm %59 scale %60 eps 9.99999974E-6 : !cherry.cherry_tensor<[?xf32]>, !cherry.cherry_tensor<[?xf32]> -> !cherry.cherry_tensor<[?xf32]>
        %62 = cherry.tensor_slice %8[%33, %21, %21] sizes [1, 768, 2048] : (!cherry.cherry_tensor<[12x768x2048xf32]>, i64, i64, i64) -> !cherry.cherry_tensor<[?xf32]>
        %63 = cherry.tensor_slice %10[%33, %21, %21] sizes [1, 768, 2048] : (!cherry.cherry_tensor<[12x768x2048xf32]>, i64, i64, i64) -> !cherry.cherry_tensor<[?xf32]>
        %64 = cherry.matmul %61, %62 : (!cherry.cherry_tensor<[?xf32]>, !cherry.cherry_tensor<[?xf32]>) -> !cherry.cherry_tensor<[?xf32]>
        %65 = cherry.matmul %61, %63 : (!cherry.cherry_tensor<[?xf32]>, !cherry.cherry_tensor<[?xf32]>) -> !cherry.cherry_tensor<[?xf32]>
        %66 = cherry.tensor_silu %64 : (!cherry.cherry_tensor<[?xf32]>) -> !cherry.cherry_tensor<[?xf32]>
        %67 = cherry.tensor_mul %66, %65 : (!cherry.cherry_tensor<[?xf32]>, !cherry.cherry_tensor<[?xf32]>) -> !cherry.cherry_tensor<[?xf32]>
        %68 = cherry.tensor_slice %9[%33, %21, %21] sizes [1, 2048, 768] : (!cherry.cherry_tensor<[12x2048x768xf32]>, i64, i64, i64) -> !cherry.cherry_tensor<[?xf32]>
        %69 = cherry.matmul %67, %68 : (!cherry.cherry_tensor<[?xf32]>, !cherry.cherry_tensor<[?xf32]>) -> !cherry.cherry_tensor<[?xf32]>
        %70 = cherry.tensor_add %59, %69 : (!cherry.cherry_tensor<[?xf32]>, !cherry.cherry_tensor<[?xf32]>) -> !cherry.cherry_tensor<[?xf32]>
        scf.yield %70, %49, %51 : !cherry.cherry_tensor<[?xf32]>, !cherry.cherry_tensor<[?xf32]>, !cherry.cherry_tensor<[?xf32]>
      }
      %28 = cherry.rmsnorm %27#0 scale %11 eps 9.99999974E-6 : !cherry.cherry_tensor<[?xf32]>, !cherry.cherry_tensor<[768xf32]> -> !cherry.cherry_tensor<[?xf32]>
      %29 = cherry.matmul %28, %12 : (!cherry.cherry_tensor<[?xf32]>, !cherry.cherry_tensor<[768x32000xf32]>) -> !cherry.cherry_tensor<[?xf32]>
      %30 = cherry.argmax %29 dim 1 : (!cherry.cherry_tensor<[?xf32]>) -> !cherry.cherry_tensor<[?xi64]>
      %31 = cherry.constant(0 : i64) : i64
      %32 = cherry.tensor_get %30[%31] : (!cherry.cherry_tensor<[?xi64]>, i64) -> i64
      cherry.runtime_call "decode"(%arg0, %32) : (i64, i64) -> ()
      scf.yield %32, %20, %27#1, %27#2 : i64, i64, !cherry.cherry_tensor<[?xf32]>, !cherry.cherry_tensor<[?xf32]>
    }
    cherry.runtime_call "end"(%17) : (i64) -> ()
    cherry.runtime_call "free_tokenizer"() : () -> ()
    cherry.return
  }
}


// -----// IR Dump After ShapeInferencePass (cherry-shape-inference) //----- //
cherry.func @host() {
  %c0 = arith.constant 0 : index
  %c12 = arith.constant 12 : index
  %c1 = arith.constant 1 : index
  %0 = cherry.constant(32000 : i64) : i64
  cherry.runtime_call "build_tokenizer"(%0) {str_args = ["/home/nx/ycy/pb/cherry/tests/llama/tokenizer.bin"]} : (i64) -> ()
  %1 = cherry.weight "/home/nx/ycy/pb/cherry/utils/stories110M/token_embeddings.bin" shape [32000, 768] type f32 -> !cherry.cherry_tensor<[32000x768xf32]>
  %2 = cherry.weight "/home/nx/ycy/pb/cherry/utils/stories110M/layers_rms_att_weight.bin" shape [12, 768] type f32 -> !cherry.cherry_tensor<[12x768xf32]>
  %3 = cherry.weight "/home/nx/ycy/pb/cherry/utils/stories110M/layers_wq.bin" shape [12, 768, 768] type f32 -> !cherry.cherry_tensor<[12x768x768xf32]>
  %4 = cherry.weight "/home/nx/ycy/pb/cherry/utils/stories110M/layers_wk.bin" shape [12, 768, 768] type f32 -> !cherry.cherry_tensor<[12x768x768xf32]>
  %5 = cherry.weight "/home/nx/ycy/pb/cherry/utils/stories110M/layers_wv.bin" shape [12, 768, 768] type f32 -> !cherry.cherry_tensor<[12x768x768xf32]>
  %6 = cherry.weight "/home/nx/ycy/pb/cherry/utils/stories110M/layers_wo.bin" shape [12, 768, 768] type f32 -> !cherry.cherry_tensor<[12x768x768xf32]>
  %7 = cherry.weight "/home/nx/ycy/pb/cherry/utils/stories110M/layers_rms_ffn_weight.bin" shape [12, 768] type f32 -> !cherry.cherry_tensor<[12x768xf32]>
  %8 = cherry.weight "/home/nx/ycy/pb/cherry/utils/stories110M/layers_w1.bin" shape [12, 768, 2048] type f32 -> !cherry.cherry_tensor<[12x768x2048xf32]>
  %9 = cherry.weight "/home/nx/ycy/pb/cherry/utils/stories110M/layers_w2.bin" shape [12, 2048, 768] type f32 -> !cherry.cherry_tensor<[12x2048x768xf32]>
  %10 = cherry.weight "/home/nx/ycy/pb/cherry/utils/stories110M/layers_w3.bin" shape [12, 768, 2048] type f32 -> !cherry.cherry_tensor<[12x768x2048xf32]>
  %11 = cherry.weight "/home/nx/ycy/pb/cherry/utils/stories110M/final_rms_norm.bin" shape [768] type f32 -> !cherry.cherry_tensor<[768xf32]>
  %12 = cherry.weight "/home/nx/ycy/pb/cherry/utils/stories110M/output_wcls.bin" shape [768, 32000] type f32 -> !cherry.cherry_tensor<[768x32000xf32]>
  %13 = cherry.create_tensor dense<0.000000e+00> : tensor<12x1024x768xf32> -> !cherry.cherry_tensor<[12x1024x768xf32]>
  %14 = cherry.create_tensor dense<0.000000e+00> : tensor<12x1024x768xf32> -> !cherry.cherry_tensor<[12x1024x768xf32]>
  %15 = cherry.constant(1 : i64) : i64
  %16 = cherry.constant(0 : i64) : i64
  %17 = cherry.constant(128 : i64) : i64
  cherry.runtime_call "start"() : () -> ()
  %18:4 = scf.while (%arg0 = %15, %arg1 = %16, %arg2 = %13, %arg3 = %14) : (i64, i64, !cherry.cherry_tensor<[12x1024x768xf32]>, !cherry.cherry_tensor<[12x1024x768xf32]>) -> (i64, i64, !cherry.cherry_tensor<[12x1024x768xf32]>, !cherry.cherry_tensor<[12x1024x768xf32]>) {
    %19 = arith.cmpi slt, %arg1, %17 : i64
    scf.condition(%19) %arg0, %arg1, %arg2, %arg3 : i64, i64, !cherry.cherry_tensor<[12x1024x768xf32]>, !cherry.cherry_tensor<[12x1024x768xf32]>
  } do {
  ^bb0(%arg0: i64, %arg1: i64, %arg2: !cherry.cherry_tensor<[12x1024x768xf32]>, %arg3: !cherry.cherry_tensor<[12x1024x768xf32]>):
    %19 = cherry.constant(1 : i64) : i64
    %20 = cherry.scalar_add %arg1, %19 : (i64, i64) -> i64
    %21 = cherry.constant(0 : i64) : i64
    %22 = cherry.constant(1 : i64) : i64
    %23 = cherry.constant(64 : i64) : i64
    %24 = cherry.constant(1.250000e-01 : f32) : f32
    %25 = cherry.scalar_add %arg1, %22 : (i64, i64) -> i64
    %26 = cherry.tensor_slice %1[%arg0, %21] sizes [1, 768] {squeeze = false} : (!cherry.cherry_tensor<[32000x768xf32]>, i64, i64) -> !cherry.cherry_tensor<[1x768xf32]>
    %27:3 = scf.for %arg4 = %c0 to %c12 step %c1 iter_args(%arg5 = %26, %arg6 = %arg2, %arg7 = %arg3) -> (!cherry.cherry_tensor<[1x768xf32]>, !cherry.cherry_tensor<[12x1024x768xf32]>, !cherry.cherry_tensor<[12x1024x768xf32]>) {
      %33 = arith.index_cast %arg4 : index to i64
      %34 = cherry.tensor_slice %2[%33, %21] sizes [1, 768] : (!cherry.cherry_tensor<[12x768xf32]>, i64, i64) -> !cherry.cherry_tensor<[768xf32]>
      %35 = cherry.rmsnorm %arg5 scale %34 eps 9.99999974E-6 : !cherry.cherry_tensor<[1x768xf32]>, !cherry.cherry_tensor<[768xf32]> -> !cherry.cherry_tensor<[1x768xf32]>
      %36 = cherry.tensor_slice %3[%33, %21, %21] sizes [1, 768, 768] : (!cherry.cherry_tensor<[12x768x768xf32]>, i64, i64, i64) -> !cherry.cherry_tensor<[768x768xf32]>
      %37 = cherry.tensor_slice %4[%33, %21, %21] sizes [1, 768, 768] : (!cherry.cherry_tensor<[12x768x768xf32]>, i64, i64, i64) -> !cherry.cherry_tensor<[768x768xf32]>
      %38 = cherry.tensor_slice %5[%33, %21, %21] sizes [1, 768, 768] : (!cherry.cherry_tensor<[12x768x768xf32]>, i64, i64, i64) -> !cherry.cherry_tensor<[768x768xf32]>
      %39 = cherry.matmul %35, %36 : (!cherry.cherry_tensor<[1x768xf32]>, !cherry.cherry_tensor<[768x768xf32]>) -> !cherry.cherry_tensor<[1x768xf32]>
      %40 = cherry.matmul %35, %37 : (!cherry.cherry_tensor<[1x768xf32]>, !cherry.cherry_tensor<[768x768xf32]>) -> !cherry.cherry_tensor<[1x768xf32]>
      %41 = cherry.matmul %35, %38 : (!cherry.cherry_tensor<[1x768xf32]>, !cherry.cherry_tensor<[768x768xf32]>) -> !cherry.cherry_tensor<[1x768xf32]>
      %42 = cherry.reshape %39 shape [1, 12, 64] : (!cherry.cherry_tensor<[1x768xf32]>) -> !cherry.cherry_tensor<[1x12x64xf32]>
      %43 = cherry.rope %42, %arg1 : (!cherry.cherry_tensor<[1x12x64xf32]>, i64) -> !cherry.cherry_tensor<[1x12x64xf32]>
      %44 = cherry.reshape %43 shape [1, 768] : (!cherry.cherry_tensor<[1x12x64xf32]>) -> !cherry.cherry_tensor<[1x768xf32]>
      %45 = cherry.reshape %40 shape [1, 12, 64] : (!cherry.cherry_tensor<[1x768xf32]>) -> !cherry.cherry_tensor<[1x12x64xf32]>
      %46 = cherry.rope %45, %arg1 : (!cherry.cherry_tensor<[1x12x64xf32]>, i64) -> !cherry.cherry_tensor<[1x12x64xf32]>
      %47 = cherry.reshape %46 shape [1, 768] : (!cherry.cherry_tensor<[1x12x64xf32]>) -> !cherry.cherry_tensor<[1x768xf32]>
      %48 = cherry.reshape %47 shape [1, 1, 768] : (!cherry.cherry_tensor<[1x768xf32]>) -> !cherry.cherry_tensor<[1x1x768xf32]>
      %49 = cherry.tensor_set_slice %arg6[%33, %arg1], %48 : (!cherry.cherry_tensor<[12x1024x768xf32]>, !cherry.cherry_tensor<[1x1x768xf32]>, i64, i64) -> !cherry.cherry_tensor<[12x1024x768xf32]>
      %50 = cherry.reshape %41 shape [1, 1, 768] : (!cherry.cherry_tensor<[1x768xf32]>) -> !cherry.cherry_tensor<[1x1x768xf32]>
      %51 = cherry.tensor_set_slice %arg7[%33, %arg1], %50 : (!cherry.cherry_tensor<[12x1024x768xf32]>, !cherry.cherry_tensor<[1x1x768xf32]>, i64, i64) -> !cherry.cherry_tensor<[12x1024x768xf32]>
      %52 = cherry.tensor_slice %49[%33, %21, %21] sizes [1, 1024, 768] : (!cherry.cherry_tensor<[12x1024x768xf32]>, i64, i64, i64) -> !cherry.cherry_tensor<[1024x768xf32]>
      %53 = cherry.tensor_slice %51[%33, %21, %21] sizes [1, 1024, 768] : (!cherry.cherry_tensor<[12x1024x768xf32]>, i64, i64, i64) -> !cherry.cherry_tensor<[1024x768xf32]>
      %54 = cherry.create_tensor dense<0.000000e+00> : tensor<1x12x64xf32> -> !cherry.cherry_tensor<[1x12x64xf32]>
      %55 = scf.for %arg8 = %c0 to %c12 step %c1 iter_args(%arg9 = %54) -> (!cherry.cherry_tensor<[1x12x64xf32]>) {
        %71 = arith.index_cast %arg8 : index to i64
        %72 = cherry.scalar_mul %71, %23 : (i64, i64) -> i64
        %73 = cherry.tensor_slice %44[%21, %72] sizes [1, 64] {squeeze = false} : (!cherry.cherry_tensor<[1x768xf32]>, i64, i64) -> !cherry.cherry_tensor<[1x64xf32]>
        %74 = cherry.tensor_slice %52[%21, %72] sizes [1024, 64] {squeeze = false} : (!cherry.cherry_tensor<[1024x768xf32]>, i64, i64) -> !cherry.cherry_tensor<[1024x64xf32]>
        %75 = cherry.transpose %74 perm [1, 0] : (!cherry.cherry_tensor<[1024x64xf32]>) -> !cherry.cherry_tensor<[64x1024xf32]>
        %76 = cherry.masked_matmul %73, %75, %25 : (!cherry.cherry_tensor<[1x64xf32]>, !cherry.cherry_tensor<[64x1024xf32]>, i64) -> !cherry.cherry_tensor<[1x1024xf32]>
        %77 = cherry.tensor_mul_scalar %76, %24 : (!cherry.cherry_tensor<[1x1024xf32]>, f32) -> !cherry.cherry_tensor<[1x1024xf32]>
        %78 = cherry.softmax %77 axis 1 : (!cherry.cherry_tensor<[1x1024xf32]>) -> !cherry.cherry_tensor<[1x1024xf32]>
        %79 = cherry.tensor_slice %53[%21, %72] sizes [1024, 64] {squeeze = false} : (!cherry.cherry_tensor<[1024x768xf32]>, i64, i64) -> !cherry.cherry_tensor<[1024x64xf32]>
        %80 = cherry.matmul %78, %79 : (!cherry.cherry_tensor<[1x1024xf32]>, !cherry.cherry_tensor<[1024x64xf32]>) -> !cherry.cherry_tensor<[1x64xf32]>
        %81 = cherry.reshape %80 shape [1, 1, 64] : (!cherry.cherry_tensor<[1x64xf32]>) -> !cherry.cherry_tensor<[1x1x64xf32]>
        %82 = cherry.tensor_set_slice %arg9[%21, %71], %81 : (!cherry.cherry_tensor<[1x12x64xf32]>, !cherry.cherry_tensor<[1x1x64xf32]>, i64, i64) -> !cherry.cherry_tensor<[1x12x64xf32]>
        scf.yield %82 : !cherry.cherry_tensor<[1x12x64xf32]>
      }
      %56 = cherry.reshape %55 shape [1, 768] : (!cherry.cherry_tensor<[1x12x64xf32]>) -> !cherry.cherry_tensor<[1x768xf32]>
      %57 = cherry.tensor_slice %6[%33, %21, %21] sizes [1, 768, 768] : (!cherry.cherry_tensor<[12x768x768xf32]>, i64, i64, i64) -> !cherry.cherry_tensor<[768x768xf32]>
      %58 = cherry.matmul %56, %57 : (!cherry.cherry_tensor<[1x768xf32]>, !cherry.cherry_tensor<[768x768xf32]>) -> !cherry.cherry_tensor<[1x768xf32]>
      %59 = cherry.tensor_add %arg5, %58 : (!cherry.cherry_tensor<[1x768xf32]>, !cherry.cherry_tensor<[1x768xf32]>) -> !cherry.cherry_tensor<[1x768xf32]>
      %60 = cherry.tensor_slice %7[%33, %21] sizes [1, 768] : (!cherry.cherry_tensor<[12x768xf32]>, i64, i64) -> !cherry.cherry_tensor<[768xf32]>
      %61 = cherry.rmsnorm %59 scale %60 eps 9.99999974E-6 : !cherry.cherry_tensor<[1x768xf32]>, !cherry.cherry_tensor<[768xf32]> -> !cherry.cherry_tensor<[1x768xf32]>
      %62 = cherry.tensor_slice %8[%33, %21, %21] sizes [1, 768, 2048] : (!cherry.cherry_tensor<[12x768x2048xf32]>, i64, i64, i64) -> !cherry.cherry_tensor<[768x2048xf32]>
      %63 = cherry.tensor_slice %10[%33, %21, %21] sizes [1, 768, 2048] : (!cherry.cherry_tensor<[12x768x2048xf32]>, i64, i64, i64) -> !cherry.cherry_tensor<[768x2048xf32]>
      %64 = cherry.matmul %61, %62 : (!cherry.cherry_tensor<[1x768xf32]>, !cherry.cherry_tensor<[768x2048xf32]>) -> !cherry.cherry_tensor<[1x2048xf32]>
      %65 = cherry.matmul %61, %63 : (!cherry.cherry_tensor<[1x768xf32]>, !cherry.cherry_tensor<[768x2048xf32]>) -> !cherry.cherry_tensor<[1x2048xf32]>
      %66 = cherry.tensor_silu %64 : (!cherry.cherry_tensor<[1x2048xf32]>) -> !cherry.cherry_tensor<[1x2048xf32]>
      %67 = cherry.tensor_mul %66, %65 : (!cherry.cherry_tensor<[1x2048xf32]>, !cherry.cherry_tensor<[1x2048xf32]>) -> !cherry.cherry_tensor<[1x2048xf32]>
      %68 = cherry.tensor_slice %9[%33, %21, %21] sizes [1, 2048, 768] : (!cherry.cherry_tensor<[12x2048x768xf32]>, i64, i64, i64) -> !cherry.cherry_tensor<[2048x768xf32]>
      %69 = cherry.matmul %67, %68 : (!cherry.cherry_tensor<[1x2048xf32]>, !cherry.cherry_tensor<[2048x768xf32]>) -> !cherry.cherry_tensor<[1x768xf32]>
      %70 = cherry.tensor_add %59, %69 : (!cherry.cherry_tensor<[1x768xf32]>, !cherry.cherry_tensor<[1x768xf32]>) -> !cherry.cherry_tensor<[1x768xf32]>
      scf.yield %70, %49, %51 : !cherry.cherry_tensor<[1x768xf32]>, !cherry.cherry_tensor<[12x1024x768xf32]>, !cherry.cherry_tensor<[12x1024x768xf32]>
    }
    %28 = cherry.rmsnorm %27#0 scale %11 eps 9.99999974E-6 : !cherry.cherry_tensor<[1x768xf32]>, !cherry.cherry_tensor<[768xf32]> -> !cherry.cherry_tensor<[1x768xf32]>
    %29 = cherry.matmul %28, %12 : (!cherry.cherry_tensor<[1x768xf32]>, !cherry.cherry_tensor<[768x32000xf32]>) -> !cherry.cherry_tensor<[1x32000xf32]>
    %30 = cherry.argmax %29 dim 1 : (!cherry.cherry_tensor<[1x32000xf32]>) -> !cherry.cherry_tensor<[1xi64]>
    %31 = cherry.constant(0 : i64) : i64
    %32 = cherry.tensor_get %30[%31] : (!cherry.cherry_tensor<[1xi64]>, i64) -> i64
    cherry.runtime_call "decode"(%arg0, %32) : (i64, i64) -> ()
    scf.yield %32, %20, %27#1, %27#2 : i64, i64, !cherry.cherry_tensor<[12x1024x768xf32]>, !cherry.cherry_tensor<[12x1024x768xf32]>
  }
  cherry.runtime_call "end"(%17) : (i64) -> ()
  cherry.runtime_call "free_tokenizer"() : () -> ()
  cherry.return
}

// -----// IR Dump After Canonicalizer (canonicalize) //----- //
module {
  cherry.func @host() {
    %c0 = arith.constant 0 : index
    %c12 = arith.constant 12 : index
    %c1 = arith.constant 1 : index
    %0 = cherry.constant(32000 : i64) : i64
    cherry.runtime_call "build_tokenizer"(%0) {str_args = ["/home/nx/ycy/pb/cherry/tests/llama/tokenizer.bin"]} : (i64) -> ()
    %1 = cherry.weight "/home/nx/ycy/pb/cherry/utils/stories110M/token_embeddings.bin" shape [32000, 768] type f32 -> !cherry.cherry_tensor<[32000x768xf32]>
    %2 = cherry.weight "/home/nx/ycy/pb/cherry/utils/stories110M/layers_rms_att_weight.bin" shape [12, 768] type f32 -> !cherry.cherry_tensor<[12x768xf32]>
    %3 = cherry.weight "/home/nx/ycy/pb/cherry/utils/stories110M/layers_wq.bin" shape [12, 768, 768] type f32 -> !cherry.cherry_tensor<[12x768x768xf32]>
    %4 = cherry.weight "/home/nx/ycy/pb/cherry/utils/stories110M/layers_wk.bin" shape [12, 768, 768] type f32 -> !cherry.cherry_tensor<[12x768x768xf32]>
    %5 = cherry.weight "/home/nx/ycy/pb/cherry/utils/stories110M/layers_wv.bin" shape [12, 768, 768] type f32 -> !cherry.cherry_tensor<[12x768x768xf32]>
    %6 = cherry.weight "/home/nx/ycy/pb/cherry/utils/stories110M/layers_wo.bin" shape [12, 768, 768] type f32 -> !cherry.cherry_tensor<[12x768x768xf32]>
    %7 = cherry.weight "/home/nx/ycy/pb/cherry/utils/stories110M/layers_rms_ffn_weight.bin" shape [12, 768] type f32 -> !cherry.cherry_tensor<[12x768xf32]>
    %8 = cherry.weight "/home/nx/ycy/pb/cherry/utils/stories110M/layers_w1.bin" shape [12, 768, 2048] type f32 -> !cherry.cherry_tensor<[12x768x2048xf32]>
    %9 = cherry.weight "/home/nx/ycy/pb/cherry/utils/stories110M/layers_w2.bin" shape [12, 2048, 768] type f32 -> !cherry.cherry_tensor<[12x2048x768xf32]>
    %10 = cherry.weight "/home/nx/ycy/pb/cherry/utils/stories110M/layers_w3.bin" shape [12, 768, 2048] type f32 -> !cherry.cherry_tensor<[12x768x2048xf32]>
    %11 = cherry.weight "/home/nx/ycy/pb/cherry/utils/stories110M/final_rms_norm.bin" shape [768] type f32 -> !cherry.cherry_tensor<[768xf32]>
    %12 = cherry.weight "/home/nx/ycy/pb/cherry/utils/stories110M/output_wcls.bin" shape [768, 32000] type f32 -> !cherry.cherry_tensor<[768x32000xf32]>
    %13 = cherry.create_tensor dense<0.000000e+00> : tensor<12x1024x768xf32> -> !cherry.cherry_tensor<[12x1024x768xf32]>
    %14 = cherry.create_tensor dense<0.000000e+00> : tensor<12x1024x768xf32> -> !cherry.cherry_tensor<[12x1024x768xf32]>
    %15 = cherry.constant(1 : i64) : i64
    %16 = cherry.constant(0 : i64) : i64
    %17 = cherry.constant(128 : i64) : i64
    cherry.runtime_call "start"() : () -> ()
    %18:4 = scf.while (%arg0 = %15, %arg1 = %16, %arg2 = %13, %arg3 = %14) : (i64, i64, !cherry.cherry_tensor<[12x1024x768xf32]>, !cherry.cherry_tensor<[12x1024x768xf32]>) -> (i64, i64, !cherry.cherry_tensor<[12x1024x768xf32]>, !cherry.cherry_tensor<[12x1024x768xf32]>) {
      %19 = arith.cmpi slt, %arg1, %17 : i64
      scf.condition(%19) %arg0, %arg1, %arg2, %arg3 : i64, i64, !cherry.cherry_tensor<[12x1024x768xf32]>, !cherry.cherry_tensor<[12x1024x768xf32]>
    } do {
    ^bb0(%arg0: i64, %arg1: i64, %arg2: !cherry.cherry_tensor<[12x1024x768xf32]>, %arg3: !cherry.cherry_tensor<[12x1024x768xf32]>):
      %19 = cherry.constant(1 : i64) : i64
      %20 = cherry.scalar_add %arg1, %19 : (i64, i64) -> i64
      %21 = cherry.constant(0 : i64) : i64
      %22 = cherry.constant(1 : i64) : i64
      %23 = cherry.constant(64 : i64) : i64
      %24 = cherry.constant(1.250000e-01 : f32) : f32
      %25 = cherry.scalar_add %arg1, %22 : (i64, i64) -> i64
      %26 = cherry.tensor_slice %1[%arg0, %21] sizes [1, 768] {squeeze = false} : (!cherry.cherry_tensor<[32000x768xf32]>, i64, i64) -> !cherry.cherry_tensor<[1x768xf32]>
      %27:3 = scf.for %arg4 = %c0 to %c12 step %c1 iter_args(%arg5 = %26, %arg6 = %arg2, %arg7 = %arg3) -> (!cherry.cherry_tensor<[1x768xf32]>, !cherry.cherry_tensor<[12x1024x768xf32]>, !cherry.cherry_tensor<[12x1024x768xf32]>) {
        %33 = arith.index_cast %arg4 : index to i64
        %34 = cherry.tensor_slice %2[%33, %21] sizes [1, 768] : (!cherry.cherry_tensor<[12x768xf32]>, i64, i64) -> !cherry.cherry_tensor<[768xf32]>
        %35 = cherry.rmsnorm %arg5 scale %34 eps 9.99999974E-6 : !cherry.cherry_tensor<[1x768xf32]>, !cherry.cherry_tensor<[768xf32]> -> !cherry.cherry_tensor<[1x768xf32]>
        %36 = cherry.tensor_slice %3[%33, %21, %21] sizes [1, 768, 768] : (!cherry.cherry_tensor<[12x768x768xf32]>, i64, i64, i64) -> !cherry.cherry_tensor<[768x768xf32]>
        %37 = cherry.tensor_slice %4[%33, %21, %21] sizes [1, 768, 768] : (!cherry.cherry_tensor<[12x768x768xf32]>, i64, i64, i64) -> !cherry.cherry_tensor<[768x768xf32]>
        %38 = cherry.tensor_slice %5[%33, %21, %21] sizes [1, 768, 768] : (!cherry.cherry_tensor<[12x768x768xf32]>, i64, i64, i64) -> !cherry.cherry_tensor<[768x768xf32]>
        %39 = cherry.matmul %35, %36 : (!cherry.cherry_tensor<[1x768xf32]>, !cherry.cherry_tensor<[768x768xf32]>) -> !cherry.cherry_tensor<[1x768xf32]>
        %40 = cherry.matmul %35, %37 : (!cherry.cherry_tensor<[1x768xf32]>, !cherry.cherry_tensor<[768x768xf32]>) -> !cherry.cherry_tensor<[1x768xf32]>
        %41 = cherry.matmul %35, %38 : (!cherry.cherry_tensor<[1x768xf32]>, !cherry.cherry_tensor<[768x768xf32]>) -> !cherry.cherry_tensor<[1x768xf32]>
        %42 = cherry.reshape %39 shape [1, 12, 64] : (!cherry.cherry_tensor<[1x768xf32]>) -> !cherry.cherry_tensor<[1x12x64xf32]>
        %43 = cherry.rope %42, %arg1 : (!cherry.cherry_tensor<[1x12x64xf32]>, i64) -> !cherry.cherry_tensor<[1x12x64xf32]>
        %44 = cherry.reshape %43 shape [1, 768] : (!cherry.cherry_tensor<[1x12x64xf32]>) -> !cherry.cherry_tensor<[1x768xf32]>
        %45 = cherry.reshape %40 shape [1, 12, 64] : (!cherry.cherry_tensor<[1x768xf32]>) -> !cherry.cherry_tensor<[1x12x64xf32]>
        %46 = cherry.rope %45, %arg1 : (!cherry.cherry_tensor<[1x12x64xf32]>, i64) -> !cherry.cherry_tensor<[1x12x64xf32]>
        %47 = cherry.reshape %46 shape [1, 768] : (!cherry.cherry_tensor<[1x12x64xf32]>) -> !cherry.cherry_tensor<[1x768xf32]>
        %48 = cherry.reshape %47 shape [1, 1, 768] : (!cherry.cherry_tensor<[1x768xf32]>) -> !cherry.cherry_tensor<[1x1x768xf32]>
        %49 = cherry.tensor_set_slice %arg6[%33, %arg1], %48 : (!cherry.cherry_tensor<[12x1024x768xf32]>, !cherry.cherry_tensor<[1x1x768xf32]>, i64, i64) -> !cherry.cherry_tensor<[12x1024x768xf32]>
        %50 = cherry.reshape %41 shape [1, 1, 768] : (!cherry.cherry_tensor<[1x768xf32]>) -> !cherry.cherry_tensor<[1x1x768xf32]>
        %51 = cherry.tensor_set_slice %arg7[%33, %arg1], %50 : (!cherry.cherry_tensor<[12x1024x768xf32]>, !cherry.cherry_tensor<[1x1x768xf32]>, i64, i64) -> !cherry.cherry_tensor<[12x1024x768xf32]>
        %52 = cherry.tensor_slice %49[%33, %21, %21] sizes [1, 1024, 768] : (!cherry.cherry_tensor<[12x1024x768xf32]>, i64, i64, i64) -> !cherry.cherry_tensor<[1024x768xf32]>
        %53 = cherry.tensor_slice %51[%33, %21, %21] sizes [1, 1024, 768] : (!cherry.cherry_tensor<[12x1024x768xf32]>, i64, i64, i64) -> !cherry.cherry_tensor<[1024x768xf32]>
        %54 = cherry.create_tensor dense<0.000000e+00> : tensor<1x12x64xf32> -> !cherry.cherry_tensor<[1x12x64xf32]>
        %55 = scf.for %arg8 = %c0 to %c12 step %c1 iter_args(%arg9 = %54) -> (!cherry.cherry_tensor<[1x12x64xf32]>) {
          %71 = arith.index_cast %arg8 : index to i64
          %72 = cherry.scalar_mul %71, %23 : (i64, i64) -> i64
          %73 = cherry.tensor_slice %44[%21, %72] sizes [1, 64] {squeeze = false} : (!cherry.cherry_tensor<[1x768xf32]>, i64, i64) -> !cherry.cherry_tensor<[1x64xf32]>
          %74 = cherry.tensor_slice %52[%21, %72] sizes [1024, 64] {squeeze = false} : (!cherry.cherry_tensor<[1024x768xf32]>, i64, i64) -> !cherry.cherry_tensor<[1024x64xf32]>
          %75 = cherry.transpose %74 perm [1, 0] : (!cherry.cherry_tensor<[1024x64xf32]>) -> !cherry.cherry_tensor<[64x1024xf32]>
          %76 = cherry.masked_matmul %73, %75, %25 : (!cherry.cherry_tensor<[1x64xf32]>, !cherry.cherry_tensor<[64x1024xf32]>, i64) -> !cherry.cherry_tensor<[1x1024xf32]>
          %77 = cherry.tensor_mul_scalar %76, %24 : (!cherry.cherry_tensor<[1x1024xf32]>, f32) -> !cherry.cherry_tensor<[1x1024xf32]>
          %78 = cherry.softmax %77 axis 1 : (!cherry.cherry_tensor<[1x1024xf32]>) -> !cherry.cherry_tensor<[1x1024xf32]>
          %79 = cherry.tensor_slice %53[%21, %72] sizes [1024, 64] {squeeze = false} : (!cherry.cherry_tensor<[1024x768xf32]>, i64, i64) -> !cherry.cherry_tensor<[1024x64xf32]>
          %80 = cherry.matmul %78, %79 : (!cherry.cherry_tensor<[1x1024xf32]>, !cherry.cherry_tensor<[1024x64xf32]>) -> !cherry.cherry_tensor<[1x64xf32]>
          %81 = cherry.reshape %80 shape [1, 1, 64] : (!cherry.cherry_tensor<[1x64xf32]>) -> !cherry.cherry_tensor<[1x1x64xf32]>
          %82 = cherry.tensor_set_slice %arg9[%21, %71], %81 : (!cherry.cherry_tensor<[1x12x64xf32]>, !cherry.cherry_tensor<[1x1x64xf32]>, i64, i64) -> !cherry.cherry_tensor<[1x12x64xf32]>
          scf.yield %82 : !cherry.cherry_tensor<[1x12x64xf32]>
        }
        %56 = cherry.reshape %55 shape [1, 768] : (!cherry.cherry_tensor<[1x12x64xf32]>) -> !cherry.cherry_tensor<[1x768xf32]>
        %57 = cherry.tensor_slice %6[%33, %21, %21] sizes [1, 768, 768] : (!cherry.cherry_tensor<[12x768x768xf32]>, i64, i64, i64) -> !cherry.cherry_tensor<[768x768xf32]>
        %58 = cherry.matmul %56, %57 : (!cherry.cherry_tensor<[1x768xf32]>, !cherry.cherry_tensor<[768x768xf32]>) -> !cherry.cherry_tensor<[1x768xf32]>
        %59 = cherry.tensor_add %arg5, %58 : (!cherry.cherry_tensor<[1x768xf32]>, !cherry.cherry_tensor<[1x768xf32]>) -> !cherry.cherry_tensor<[1x768xf32]>
        %60 = cherry.tensor_slice %7[%33, %21] sizes [1, 768] : (!cherry.cherry_tensor<[12x768xf32]>, i64, i64) -> !cherry.cherry_tensor<[768xf32]>
        %61 = cherry.rmsnorm %59 scale %60 eps 9.99999974E-6 : !cherry.cherry_tensor<[1x768xf32]>, !cherry.cherry_tensor<[768xf32]> -> !cherry.cherry_tensor<[1x768xf32]>
        %62 = cherry.tensor_slice %8[%33, %21, %21] sizes [1, 768, 2048] : (!cherry.cherry_tensor<[12x768x2048xf32]>, i64, i64, i64) -> !cherry.cherry_tensor<[768x2048xf32]>
        %63 = cherry.tensor_slice %10[%33, %21, %21] sizes [1, 768, 2048] : (!cherry.cherry_tensor<[12x768x2048xf32]>, i64, i64, i64) -> !cherry.cherry_tensor<[768x2048xf32]>
        %64 = cherry.matmul %61, %62 : (!cherry.cherry_tensor<[1x768xf32]>, !cherry.cherry_tensor<[768x2048xf32]>) -> !cherry.cherry_tensor<[1x2048xf32]>
        %65 = cherry.matmul %61, %63 : (!cherry.cherry_tensor<[1x768xf32]>, !cherry.cherry_tensor<[768x2048xf32]>) -> !cherry.cherry_tensor<[1x2048xf32]>
        %66 = cherry.tensor_silu %64 : (!cherry.cherry_tensor<[1x2048xf32]>) -> !cherry.cherry_tensor<[1x2048xf32]>
        %67 = cherry.tensor_mul %66, %65 : (!cherry.cherry_tensor<[1x2048xf32]>, !cherry.cherry_tensor<[1x2048xf32]>) -> !cherry.cherry_tensor<[1x2048xf32]>
        %68 = cherry.tensor_slice %9[%33, %21, %21] sizes [1, 2048, 768] : (!cherry.cherry_tensor<[12x2048x768xf32]>, i64, i64, i64) -> !cherry.cherry_tensor<[2048x768xf32]>
        %69 = cherry.matmul %67, %68 : (!cherry.cherry_tensor<[1x2048xf32]>, !cherry.cherry_tensor<[2048x768xf32]>) -> !cherry.cherry_tensor<[1x768xf32]>
        %70 = cherry.tensor_add %59, %69 : (!cherry.cherry_tensor<[1x768xf32]>, !cherry.cherry_tensor<[1x768xf32]>) -> !cherry.cherry_tensor<[1x768xf32]>
        scf.yield %70, %49, %51 : !cherry.cherry_tensor<[1x768xf32]>, !cherry.cherry_tensor<[12x1024x768xf32]>, !cherry.cherry_tensor<[12x1024x768xf32]>
      }
      %28 = cherry.rmsnorm %27#0 scale %11 eps 9.99999974E-6 : !cherry.cherry_tensor<[1x768xf32]>, !cherry.cherry_tensor<[768xf32]> -> !cherry.cherry_tensor<[1x768xf32]>
      %29 = cherry.matmul %28, %12 : (!cherry.cherry_tensor<[1x768xf32]>, !cherry.cherry_tensor<[768x32000xf32]>) -> !cherry.cherry_tensor<[1x32000xf32]>
      %30 = cherry.argmax %29 dim 1 : (!cherry.cherry_tensor<[1x32000xf32]>) -> !cherry.cherry_tensor<[1xi64]>
      %31 = cherry.constant(0 : i64) : i64
      %32 = cherry.tensor_get %30[%31] : (!cherry.cherry_tensor<[1xi64]>, i64) -> i64
      cherry.runtime_call "decode"(%arg0, %32) : (i64, i64) -> ()
      scf.yield %32, %20, %27#1, %27#2 : i64, i64, !cherry.cherry_tensor<[12x1024x768xf32]>, !cherry.cherry_tensor<[12x1024x768xf32]>
    }
    cherry.runtime_call "end"(%17) : (i64) -> ()
    cherry.runtime_call "free_tokenizer"() : () -> ()
    cherry.return
  }
}


// -----// IR Dump After ConvertCherryToLinalgPass (convert-cherry-to-linalg) //----- //
#map = affine_map<(d0, d1) -> (d0, d1)>
#map1 = affine_map<(d0, d1) -> (d0)>
#map2 = affine_map<(d0) -> (d0)>
#map3 = affine_map<(d0, d1) -> (d1)>
#map4 = affine_map<(d0, d1, d2) -> (d0, d2)>
#map5 = affine_map<(d0, d1, d2) -> (d2, d1)>
#map6 = affine_map<(d0, d1, d2) -> (d0, d1)>
#map7 = affine_map<(d0, d1, d2) -> (d0, d1, d2)>
#map8 = affine_map<(d0, d1, d2) -> (d2)>
module {
  func.func private @free_tokenizer()
  func.func private @end(i64)
  func.func private @decode(i64, i64)
  func.func private @start()
  func.func private @cherry_read_weight_2d_768_32000_f32(tensor<?xi8> {bufferization.access = "read"}, i64, i64) -> memref<768x32000xf32>
  func.func private @cherry_read_weight_1d_768_f32(tensor<?xi8> {bufferization.access = "read"}, i64) -> memref<768xf32>
  func.func private @cherry_read_weight_3d_12_2048_768_f32(tensor<?xi8> {bufferization.access = "read"}, i64, i64, i64) -> memref<12x2048x768xf32>
  func.func private @cherry_read_weight_3d_12_768_2048_f32(tensor<?xi8> {bufferization.access = "read"}, i64, i64, i64) -> memref<12x768x2048xf32>
  func.func private @cherry_read_weight_3d_12_768_768_f32(tensor<?xi8> {bufferization.access = "read"}, i64, i64, i64) -> memref<12x768x768xf32>
  func.func private @cherry_read_weight_2d_12_768_f32(tensor<?xi8> {bufferization.access = "read"}, i64, i64) -> memref<12x768xf32>
  func.func private @cherry_read_weight_2d_32000_768_f32(tensor<?xi8> {bufferization.access = "read"}, i64, i64) -> memref<32000x768xf32>
  func.func private @build_tokenizer(i64, tensor<?xi8>)
  func.func @host() {
    %c0 = arith.constant 0 : index
    %c12 = arith.constant 12 : index
    %c1 = arith.constant 1 : index
    %c32000_i64 = arith.constant 32000 : i64
    %cst = arith.constant dense<[47, 104, 111, 109, 101, 47, 110, 120, 47, 121, 99, 121, 47, 112, 98, 47, 99, 104, 101, 114, 114, 121, 47, 116, 101, 115, 116, 115, 47, 108, 108, 97, 109, 97, 47, 116, 111, 107, 101, 110, 105, 122, 101, 114, 46, 98, 105, 110, 0]> : tensor<49xi8>
    %cast = tensor.cast %cst : tensor<49xi8> to tensor<?xi8>
    call @build_tokenizer(%c32000_i64, %cast) : (i64, tensor<?xi8>) -> ()
    %cst_0 = arith.constant dense<[47, 104, 111, 109, 101, 47, 110, 120, 47, 121, 99, 121, 47, 112, 98, 47, 99, 104, 101, 114, 114, 121, 47, 117, 116, 105, 108, 115, 47, 115, 116, 111, 114, 105, 101, 115, 49, 49, 48, 77, 47, 116, 111, 107, 101, 110, 95, 101, 109, 98, 101, 100, 100, 105, 110, 103, 115, 46, 98, 105, 110, 0]> : tensor<62xi8>
    %cast_1 = tensor.cast %cst_0 : tensor<62xi8> to tensor<?xi8>
    %c32000_i64_2 = arith.constant 32000 : i64
    %c768_i64 = arith.constant 768 : i64
    %0 = call @cherry_read_weight_2d_32000_768_f32(%cast_1, %c32000_i64_2, %c768_i64) : (tensor<?xi8>, i64, i64) -> memref<32000x768xf32>
    %1 = bufferization.to_tensor %0 restrict : memref<32000x768xf32>
    %cst_3 = arith.constant dense<[47, 104, 111, 109, 101, 47, 110, 120, 47, 121, 99, 121, 47, 112, 98, 47, 99, 104, 101, 114, 114, 121, 47, 117, 116, 105, 108, 115, 47, 115, 116, 111, 114, 105, 101, 115, 49, 49, 48, 77, 47, 108, 97, 121, 101, 114, 115, 95, 114, 109, 115, 95, 97, 116, 116, 95, 119, 101, 105, 103, 104, 116, 46, 98, 105, 110, 0]> : tensor<67xi8>
    %cast_4 = tensor.cast %cst_3 : tensor<67xi8> to tensor<?xi8>
    %c12_i64 = arith.constant 12 : i64
    %c768_i64_5 = arith.constant 768 : i64
    %2 = call @cherry_read_weight_2d_12_768_f32(%cast_4, %c12_i64, %c768_i64_5) : (tensor<?xi8>, i64, i64) -> memref<12x768xf32>
    %3 = bufferization.to_tensor %2 restrict : memref<12x768xf32>
    %cst_6 = arith.constant dense<[47, 104, 111, 109, 101, 47, 110, 120, 47, 121, 99, 121, 47, 112, 98, 47, 99, 104, 101, 114, 114, 121, 47, 117, 116, 105, 108, 115, 47, 115, 116, 111, 114, 105, 101, 115, 49, 49, 48, 77, 47, 108, 97, 121, 101, 114, 115, 95, 119, 113, 46, 98, 105, 110, 0]> : tensor<55xi8>
    %cast_7 = tensor.cast %cst_6 : tensor<55xi8> to tensor<?xi8>
    %c12_i64_8 = arith.constant 12 : i64
    %c768_i64_9 = arith.constant 768 : i64
    %c768_i64_10 = arith.constant 768 : i64
    %4 = call @cherry_read_weight_3d_12_768_768_f32(%cast_7, %c12_i64_8, %c768_i64_9, %c768_i64_10) : (tensor<?xi8>, i64, i64, i64) -> memref<12x768x768xf32>
    %5 = bufferization.to_tensor %4 restrict : memref<12x768x768xf32>
    %cst_11 = arith.constant dense<[47, 104, 111, 109, 101, 47, 110, 120, 47, 121, 99, 121, 47, 112, 98, 47, 99, 104, 101, 114, 114, 121, 47, 117, 116, 105, 108, 115, 47, 115, 116, 111, 114, 105, 101, 115, 49, 49, 48, 77, 47, 108, 97, 121, 101, 114, 115, 95, 119, 107, 46, 98, 105, 110, 0]> : tensor<55xi8>
    %cast_12 = tensor.cast %cst_11 : tensor<55xi8> to tensor<?xi8>
    %c12_i64_13 = arith.constant 12 : i64
    %c768_i64_14 = arith.constant 768 : i64
    %c768_i64_15 = arith.constant 768 : i64
    %6 = call @cherry_read_weight_3d_12_768_768_f32(%cast_12, %c12_i64_13, %c768_i64_14, %c768_i64_15) : (tensor<?xi8>, i64, i64, i64) -> memref<12x768x768xf32>
    %7 = bufferization.to_tensor %6 restrict : memref<12x768x768xf32>
    %cst_16 = arith.constant dense<[47, 104, 111, 109, 101, 47, 110, 120, 47, 121, 99, 121, 47, 112, 98, 47, 99, 104, 101, 114, 114, 121, 47, 117, 116, 105, 108, 115, 47, 115, 116, 111, 114, 105, 101, 115, 49, 49, 48, 77, 47, 108, 97, 121, 101, 114, 115, 95, 119, 118, 46, 98, 105, 110, 0]> : tensor<55xi8>
    %cast_17 = tensor.cast %cst_16 : tensor<55xi8> to tensor<?xi8>
    %c12_i64_18 = arith.constant 12 : i64
    %c768_i64_19 = arith.constant 768 : i64
    %c768_i64_20 = arith.constant 768 : i64
    %8 = call @cherry_read_weight_3d_12_768_768_f32(%cast_17, %c12_i64_18, %c768_i64_19, %c768_i64_20) : (tensor<?xi8>, i64, i64, i64) -> memref<12x768x768xf32>
    %9 = bufferization.to_tensor %8 restrict : memref<12x768x768xf32>
    %cst_21 = arith.constant dense<[47, 104, 111, 109, 101, 47, 110, 120, 47, 121, 99, 121, 47, 112, 98, 47, 99, 104, 101, 114, 114, 121, 47, 117, 116, 105, 108, 115, 47, 115, 116, 111, 114, 105, 101, 115, 49, 49, 48, 77, 47, 108, 97, 121, 101, 114, 115, 95, 119, 111, 46, 98, 105, 110, 0]> : tensor<55xi8>
    %cast_22 = tensor.cast %cst_21 : tensor<55xi8> to tensor<?xi8>
    %c12_i64_23 = arith.constant 12 : i64
    %c768_i64_24 = arith.constant 768 : i64
    %c768_i64_25 = arith.constant 768 : i64
    %10 = call @cherry_read_weight_3d_12_768_768_f32(%cast_22, %c12_i64_23, %c768_i64_24, %c768_i64_25) : (tensor<?xi8>, i64, i64, i64) -> memref<12x768x768xf32>
    %11 = bufferization.to_tensor %10 restrict : memref<12x768x768xf32>
    %cst_26 = arith.constant dense<[47, 104, 111, 109, 101, 47, 110, 120, 47, 121, 99, 121, 47, 112, 98, 47, 99, 104, 101, 114, 114, 121, 47, 117, 116, 105, 108, 115, 47, 115, 116, 111, 114, 105, 101, 115, 49, 49, 48, 77, 47, 108, 97, 121, 101, 114, 115, 95, 114, 109, 115, 95, 102, 102, 110, 95, 119, 101, 105, 103, 104, 116, 46, 98, 105, 110, 0]> : tensor<67xi8>
    %cast_27 = tensor.cast %cst_26 : tensor<67xi8> to tensor<?xi8>
    %c12_i64_28 = arith.constant 12 : i64
    %c768_i64_29 = arith.constant 768 : i64
    %12 = call @cherry_read_weight_2d_12_768_f32(%cast_27, %c12_i64_28, %c768_i64_29) : (tensor<?xi8>, i64, i64) -> memref<12x768xf32>
    %13 = bufferization.to_tensor %12 restrict : memref<12x768xf32>
    %cst_30 = arith.constant dense<[47, 104, 111, 109, 101, 47, 110, 120, 47, 121, 99, 121, 47, 112, 98, 47, 99, 104, 101, 114, 114, 121, 47, 117, 116, 105, 108, 115, 47, 115, 116, 111, 114, 105, 101, 115, 49, 49, 48, 77, 47, 108, 97, 121, 101, 114, 115, 95, 119, 49, 46, 98, 105, 110, 0]> : tensor<55xi8>
    %cast_31 = tensor.cast %cst_30 : tensor<55xi8> to tensor<?xi8>
    %c12_i64_32 = arith.constant 12 : i64
    %c768_i64_33 = arith.constant 768 : i64
    %c2048_i64 = arith.constant 2048 : i64
    %14 = call @cherry_read_weight_3d_12_768_2048_f32(%cast_31, %c12_i64_32, %c768_i64_33, %c2048_i64) : (tensor<?xi8>, i64, i64, i64) -> memref<12x768x2048xf32>
    %15 = bufferization.to_tensor %14 restrict : memref<12x768x2048xf32>
    %cst_34 = arith.constant dense<[47, 104, 111, 109, 101, 47, 110, 120, 47, 121, 99, 121, 47, 112, 98, 47, 99, 104, 101, 114, 114, 121, 47, 117, 116, 105, 108, 115, 47, 115, 116, 111, 114, 105, 101, 115, 49, 49, 48, 77, 47, 108, 97, 121, 101, 114, 115, 95, 119, 50, 46, 98, 105, 110, 0]> : tensor<55xi8>
    %cast_35 = tensor.cast %cst_34 : tensor<55xi8> to tensor<?xi8>
    %c12_i64_36 = arith.constant 12 : i64
    %c2048_i64_37 = arith.constant 2048 : i64
    %c768_i64_38 = arith.constant 768 : i64
    %16 = call @cherry_read_weight_3d_12_2048_768_f32(%cast_35, %c12_i64_36, %c2048_i64_37, %c768_i64_38) : (tensor<?xi8>, i64, i64, i64) -> memref<12x2048x768xf32>
    %17 = bufferization.to_tensor %16 restrict : memref<12x2048x768xf32>
    %cst_39 = arith.constant dense<[47, 104, 111, 109, 101, 47, 110, 120, 47, 121, 99, 121, 47, 112, 98, 47, 99, 104, 101, 114, 114, 121, 47, 117, 116, 105, 108, 115, 47, 115, 116, 111, 114, 105, 101, 115, 49, 49, 48, 77, 47, 108, 97, 121, 101, 114, 115, 95, 119, 51, 46, 98, 105, 110, 0]> : tensor<55xi8>
    %cast_40 = tensor.cast %cst_39 : tensor<55xi8> to tensor<?xi8>
    %c12_i64_41 = arith.constant 12 : i64
    %c768_i64_42 = arith.constant 768 : i64
    %c2048_i64_43 = arith.constant 2048 : i64
    %18 = call @cherry_read_weight_3d_12_768_2048_f32(%cast_40, %c12_i64_41, %c768_i64_42, %c2048_i64_43) : (tensor<?xi8>, i64, i64, i64) -> memref<12x768x2048xf32>
    %19 = bufferization.to_tensor %18 restrict : memref<12x768x2048xf32>
    %cst_44 = arith.constant dense<[47, 104, 111, 109, 101, 47, 110, 120, 47, 121, 99, 121, 47, 112, 98, 47, 99, 104, 101, 114, 114, 121, 47, 117, 116, 105, 108, 115, 47, 115, 116, 111, 114, 105, 101, 115, 49, 49, 48, 77, 47, 102, 105, 110, 97, 108, 95, 114, 109, 115, 95, 110, 111, 114, 109, 46, 98, 105, 110, 0]> : tensor<60xi8>
    %cast_45 = tensor.cast %cst_44 : tensor<60xi8> to tensor<?xi8>
    %c768_i64_46 = arith.constant 768 : i64
    %20 = call @cherry_read_weight_1d_768_f32(%cast_45, %c768_i64_46) : (tensor<?xi8>, i64) -> memref<768xf32>
    %21 = bufferization.to_tensor %20 restrict : memref<768xf32>
    %cst_47 = arith.constant dense<[47, 104, 111, 109, 101, 47, 110, 120, 47, 121, 99, 121, 47, 112, 98, 47, 99, 104, 101, 114, 114, 121, 47, 117, 116, 105, 108, 115, 47, 115, 116, 111, 114, 105, 101, 115, 49, 49, 48, 77, 47, 111, 117, 116, 112, 117, 116, 95, 119, 99, 108, 115, 46, 98, 105, 110, 0]> : tensor<57xi8>
    %cast_48 = tensor.cast %cst_47 : tensor<57xi8> to tensor<?xi8>
    %c768_i64_49 = arith.constant 768 : i64
    %c32000_i64_50 = arith.constant 32000 : i64
    %22 = call @cherry_read_weight_2d_768_32000_f32(%cast_48, %c768_i64_49, %c32000_i64_50) : (tensor<?xi8>, i64, i64) -> memref<768x32000xf32>
    %23 = bufferization.to_tensor %22 restrict : memref<768x32000xf32>
    %cst_51 = arith.constant dense<0.000000e+00> : tensor<12x1024x768xf32>
    %cst_52 = arith.constant dense<0.000000e+00> : tensor<12x1024x768xf32>
    %c1_i64 = arith.constant 1 : i64
    %c0_i64 = arith.constant 0 : i64
    %c128_i64 = arith.constant 128 : i64
    call @start() : () -> ()
    %24:4 = scf.while (%arg0 = %c1_i64, %arg1 = %c0_i64, %arg2 = %cst_51, %arg3 = %cst_52) : (i64, i64, tensor<12x1024x768xf32>, tensor<12x1024x768xf32>) -> (i64, i64, tensor<12x1024x768xf32>, tensor<12x1024x768xf32>) {
      %25 = arith.cmpi slt, %arg1, %c128_i64 : i64
      scf.condition(%25) %arg0, %arg1, %arg2, %arg3 : i64, i64, tensor<12x1024x768xf32>, tensor<12x1024x768xf32>
    } do {
    ^bb0(%arg0: i64, %arg1: i64, %arg2: tensor<12x1024x768xf32>, %arg3: tensor<12x1024x768xf32>):
      %c1_i64_53 = arith.constant 1 : i64
      %25 = arith.addi %arg1, %c1_i64_53 : i64
      %c0_i64_54 = arith.constant 0 : i64
      %c1_i64_55 = arith.constant 1 : i64
      %c64_i64 = arith.constant 64 : i64
      %cst_56 = arith.constant 1.250000e-01 : f32
      %26 = arith.addi %arg1, %c1_i64_55 : i64
      %27 = arith.index_cast %arg0 : i64 to index
      %28 = arith.index_cast %c0_i64_54 : i64 to index
      %extracted_slice = tensor.extract_slice %1[%27, %28] [1, 768] [1, 1] : tensor<32000x768xf32> to tensor<1x768xf32>
      %29:3 = scf.for %arg4 = %c0 to %c12 step %c1 iter_args(%arg5 = %extracted_slice, %arg6 = %arg2, %arg7 = %arg3) -> (tensor<1x768xf32>, tensor<12x1024x768xf32>, tensor<12x1024x768xf32>) {
        %48 = arith.index_cast %arg4 : index to i64
        %49 = arith.index_cast %48 : i64 to index
        %50 = arith.index_cast %c0_i64_54 : i64 to index
        %extracted_slice_64 = tensor.extract_slice %3[%49, %50] [1, 768] [1, 1] : tensor<12x768xf32> to tensor<768xf32>
        %51 = tensor.empty() : tensor<1xf32>
        %cst_65 = arith.constant 0.000000e+00 : f32
        %52 = linalg.fill ins(%cst_65 : f32) outs(%51 : tensor<1xf32>) -> tensor<1xf32>
        %53 = linalg.generic {indexing_maps = [#map, #map1], iterator_types = ["parallel", "reduction"]} ins(%arg5 : tensor<1x768xf32>) outs(%52 : tensor<1xf32>) {
        ^bb0(%in: f32, %out: f32):
          %146 = arith.mulf %in, %in : f32
          %147 = arith.addf %out, %146 : f32
          linalg.yield %147 : f32
        } -> tensor<1xf32>
        %c1_66 = arith.constant 1 : index
        %dim_67 = tensor.dim %arg5, %c1_66 : tensor<1x768xf32>
        %54 = arith.index_cast %dim_67 : index to i64
        %55 = arith.uitofp %54 : i64 to f32
        %cst_68 = arith.constant 9.99999974E-6 : f32
        %56 = tensor.empty() : tensor<1xf32>
        %57 = linalg.generic {indexing_maps = [#map2, #map2], iterator_types = ["parallel"]} ins(%53 : tensor<1xf32>) outs(%56 : tensor<1xf32>) {
        ^bb0(%in: f32, %out: f32):
          %146 = arith.divf %in, %55 : f32
          %147 = arith.addf %146, %cst_68 : f32
          %148 = math.rsqrt %147 : f32
          linalg.yield %148 : f32
        } -> tensor<1xf32>
        %58 = tensor.empty() : tensor<1x768xf32>
        %59 = linalg.generic {indexing_maps = [#map, #map1, #map3, #map], iterator_types = ["parallel", "parallel"]} ins(%arg5, %57, %extracted_slice_64 : tensor<1x768xf32>, tensor<1xf32>, tensor<768xf32>) outs(%58 : tensor<1x768xf32>) {
        ^bb0(%in: f32, %in_144: f32, %in_145: f32, %out: f32):
          %146 = arith.mulf %in, %in_144 : f32
          %147 = arith.mulf %146, %in_145 : f32
          linalg.yield %147 : f32
        } -> tensor<1x768xf32>
        %60 = arith.index_cast %48 : i64 to index
        %61 = arith.index_cast %c0_i64_54 : i64 to index
        %62 = arith.index_cast %c0_i64_54 : i64 to index
        %extracted_slice_69 = tensor.extract_slice %5[%60, %61, %62] [1, 768, 768] [1, 1, 1] : tensor<12x768x768xf32> to tensor<768x768xf32>
        %63 = arith.index_cast %48 : i64 to index
        %64 = arith.index_cast %c0_i64_54 : i64 to index
        %65 = arith.index_cast %c0_i64_54 : i64 to index
        %extracted_slice_70 = tensor.extract_slice %7[%63, %64, %65] [1, 768, 768] [1, 1, 1] : tensor<12x768x768xf32> to tensor<768x768xf32>
        %66 = arith.index_cast %48 : i64 to index
        %67 = arith.index_cast %c0_i64_54 : i64 to index
        %68 = arith.index_cast %c0_i64_54 : i64 to index
        %extracted_slice_71 = tensor.extract_slice %9[%66, %67, %68] [1, 768, 768] [1, 1, 1] : tensor<12x768x768xf32> to tensor<768x768xf32>
        %69 = tensor.empty() : tensor<1x768xf32>
        %cst_72 = arith.constant 0.000000e+00 : f32
        %70 = linalg.fill ins(%cst_72 : f32) outs(%69 : tensor<1x768xf32>) -> tensor<1x768xf32>
        %71 = linalg.generic {indexing_maps = [#map4, #map5, #map6], iterator_types = ["parallel", "parallel", "reduction"]} ins(%59, %extracted_slice_69 : tensor<1x768xf32>, tensor<768x768xf32>) outs(%70 : tensor<1x768xf32>) {
        ^bb0(%in: f32, %in_144: f32, %out: f32):
          %146 = arith.mulf %in, %in_144 : f32
          %147 = arith.addf %out, %146 : f32
          linalg.yield %147 : f32
        } -> tensor<1x768xf32>
        %72 = tensor.empty() : tensor<1x768xf32>
        %cst_73 = arith.constant 0.000000e+00 : f32
        %73 = linalg.fill ins(%cst_73 : f32) outs(%72 : tensor<1x768xf32>) -> tensor<1x768xf32>
        %74 = linalg.generic {indexing_maps = [#map4, #map5, #map6], iterator_types = ["parallel", "parallel", "reduction"]} ins(%59, %extracted_slice_70 : tensor<1x768xf32>, tensor<768x768xf32>) outs(%73 : tensor<1x768xf32>) {
        ^bb0(%in: f32, %in_144: f32, %out: f32):
          %146 = arith.mulf %in, %in_144 : f32
          %147 = arith.addf %out, %146 : f32
          linalg.yield %147 : f32
        } -> tensor<1x768xf32>
        %75 = tensor.empty() : tensor<1x768xf32>
        %cst_74 = arith.constant 0.000000e+00 : f32
        %76 = linalg.fill ins(%cst_74 : f32) outs(%75 : tensor<1x768xf32>) -> tensor<1x768xf32>
        %77 = linalg.generic {indexing_maps = [#map4, #map5, #map6], iterator_types = ["parallel", "parallel", "reduction"]} ins(%59, %extracted_slice_71 : tensor<1x768xf32>, tensor<768x768xf32>) outs(%76 : tensor<1x768xf32>) {
        ^bb0(%in: f32, %in_144: f32, %out: f32):
          %146 = arith.mulf %in, %in_144 : f32
          %147 = arith.addf %out, %146 : f32
          linalg.yield %147 : f32
        } -> tensor<1x768xf32>
        %c1_i64_75 = arith.constant 1 : i64
        %c12_i64_76 = arith.constant 12 : i64
        %c64_i64_77 = arith.constant 64 : i64
        %from_elements = tensor.from_elements %c1_i64_75, %c12_i64_76, %c64_i64_77 : tensor<3xi64>
        %reshape = tensor.reshape %71(%from_elements) : (tensor<1x768xf32>, tensor<3xi64>) -> tensor<1x12x64xf32>
        %78 = tensor.empty() : tensor<32xf32>
        %79 = tensor.empty() : tensor<32xf32>
        %80 = arith.uitofp %arg1 : i64 to f32
        %81:2 = linalg.generic {indexing_maps = [#map2, #map2], iterator_types = ["parallel"]} outs(%78, %79 : tensor<32xf32>, tensor<32xf32>) {
        ^bb0(%out: f32, %out_144: f32):
          %146 = linalg.index 0 : index
          %147 = arith.index_cast %146 : index to i64
          %148 = arith.uitofp %147 : i64 to f32
          %cst_145 = arith.constant 1.000000e+04 : f32
          %cst_146 = arith.constant 6.400000e+01 : f32
          %cst_147 = arith.constant -2.000000e+00 : f32
          %149 = arith.mulf %cst_147, %148 : f32
          %150 = arith.divf %149, %cst_146 : f32
          %151 = math.powf %cst_145, %150 : f32
          %152 = arith.mulf %80, %151 : f32
          %153 = math.cos %152 : f32
          %154 = math.sin %152 : f32
          linalg.yield %153, %154 : f32, f32
        } -> (tensor<32xf32>, tensor<32xf32>)
        %expanded = tensor.expand_shape %reshape [[0], [1], [2, 3]] output_shape [1, 12, 32, 2] : tensor<1x12x64xf32> into tensor<1x12x32x2xf32>
        %extracted_slice_78 = tensor.extract_slice %expanded[0, 0, 0, 0] [1, 12, 32, 1] [1, 1, 1, 1] : tensor<1x12x32x2xf32> to tensor<1x12x32x1xf32>
        %collapsed = tensor.collapse_shape %extracted_slice_78 [[0], [1], [2, 3]] : tensor<1x12x32x1xf32> into tensor<1x12x32xf32>
        %extracted_slice_79 = tensor.extract_slice %expanded[0, 0, 0, 1] [1, 12, 32, 1] [1, 1, 1, 1] : tensor<1x12x32x2xf32> to tensor<1x12x32x1xf32>
        %collapsed_80 = tensor.collapse_shape %extracted_slice_79 [[0], [1], [2, 3]] : tensor<1x12x32x1xf32> into tensor<1x12x32xf32>
        %82 = tensor.empty() : tensor<1x12x32xf32>
        %83:2 = linalg.generic {indexing_maps = [#map7, #map7, #map8, #map8, #map7, #map7], iterator_types = ["parallel", "parallel", "parallel"]} ins(%collapsed, %collapsed_80, %81#0, %81#1 : tensor<1x12x32xf32>, tensor<1x12x32xf32>, tensor<32xf32>, tensor<32xf32>) outs(%82, %82 : tensor<1x12x32xf32>, tensor<1x12x32xf32>) {
        ^bb0(%in: f32, %in_144: f32, %in_145: f32, %in_146: f32, %out: f32, %out_147: f32):
          %146 = arith.mulf %in, %in_145 : f32
          %147 = arith.mulf %in_144, %in_146 : f32
          %148 = arith.subf %146, %147 : f32
          %149 = arith.mulf %in_144, %in_145 : f32
          %150 = arith.mulf %in, %in_146 : f32
          %151 = arith.addf %149, %150 : f32
          linalg.yield %148, %151 : f32, f32
        } -> (tensor<1x12x32xf32>, tensor<1x12x32xf32>)
        %expanded_81 = tensor.expand_shape %83#0 [[0], [1], [2, 3]] output_shape [1, 12, 32, 1] : tensor<1x12x32xf32> into tensor<1x12x32x1xf32>
        %expanded_82 = tensor.expand_shape %83#1 [[0], [1], [2, 3]] output_shape [1, 12, 32, 1] : tensor<1x12x32xf32> into tensor<1x12x32x1xf32>
        %84 = tensor.empty() : tensor<1x12x32x2xf32>
        %inserted_slice = tensor.insert_slice %expanded_81 into %84[0, 0, 0, 0] [1, 12, 32, 1] [1, 1, 1, 1] : tensor<1x12x32x1xf32> into tensor<1x12x32x2xf32>
        %inserted_slice_83 = tensor.insert_slice %expanded_82 into %inserted_slice[0, 0, 0, 1] [1, 12, 32, 1] [1, 1, 1, 1] : tensor<1x12x32x1xf32> into tensor<1x12x32x2xf32>
        %collapsed_84 = tensor.collapse_shape %inserted_slice_83 [[0], [1], [2, 3]] : tensor<1x12x32x2xf32> into tensor<1x12x64xf32>
        %c1_i64_85 = arith.constant 1 : i64
        %c768_i64_86 = arith.constant 768 : i64
        %from_elements_87 = tensor.from_elements %c1_i64_85, %c768_i64_86 : tensor<2xi64>
        %reshape_88 = tensor.reshape %collapsed_84(%from_elements_87) : (tensor<1x12x64xf32>, tensor<2xi64>) -> tensor<1x768xf32>
        %c1_i64_89 = arith.constant 1 : i64
        %c12_i64_90 = arith.constant 12 : i64
        %c64_i64_91 = arith.constant 64 : i64
        %from_elements_92 = tensor.from_elements %c1_i64_89, %c12_i64_90, %c64_i64_91 : tensor<3xi64>
        %reshape_93 = tensor.reshape %74(%from_elements_92) : (tensor<1x768xf32>, tensor<3xi64>) -> tensor<1x12x64xf32>
        %85 = tensor.empty() : tensor<32xf32>
        %86 = tensor.empty() : tensor<32xf32>
        %87 = arith.uitofp %arg1 : i64 to f32
        %88:2 = linalg.generic {indexing_maps = [#map2, #map2], iterator_types = ["parallel"]} outs(%85, %86 : tensor<32xf32>, tensor<32xf32>) {
        ^bb0(%out: f32, %out_144: f32):
          %146 = linalg.index 0 : index
          %147 = arith.index_cast %146 : index to i64
          %148 = arith.uitofp %147 : i64 to f32
          %cst_145 = arith.constant 1.000000e+04 : f32
          %cst_146 = arith.constant 6.400000e+01 : f32
          %cst_147 = arith.constant -2.000000e+00 : f32
          %149 = arith.mulf %cst_147, %148 : f32
          %150 = arith.divf %149, %cst_146 : f32
          %151 = math.powf %cst_145, %150 : f32
          %152 = arith.mulf %87, %151 : f32
          %153 = math.cos %152 : f32
          %154 = math.sin %152 : f32
          linalg.yield %153, %154 : f32, f32
        } -> (tensor<32xf32>, tensor<32xf32>)
        %expanded_94 = tensor.expand_shape %reshape_93 [[0], [1], [2, 3]] output_shape [1, 12, 32, 2] : tensor<1x12x64xf32> into tensor<1x12x32x2xf32>
        %extracted_slice_95 = tensor.extract_slice %expanded_94[0, 0, 0, 0] [1, 12, 32, 1] [1, 1, 1, 1] : tensor<1x12x32x2xf32> to tensor<1x12x32x1xf32>
        %collapsed_96 = tensor.collapse_shape %extracted_slice_95 [[0], [1], [2, 3]] : tensor<1x12x32x1xf32> into tensor<1x12x32xf32>
        %extracted_slice_97 = tensor.extract_slice %expanded_94[0, 0, 0, 1] [1, 12, 32, 1] [1, 1, 1, 1] : tensor<1x12x32x2xf32> to tensor<1x12x32x1xf32>
        %collapsed_98 = tensor.collapse_shape %extracted_slice_97 [[0], [1], [2, 3]] : tensor<1x12x32x1xf32> into tensor<1x12x32xf32>
        %89 = tensor.empty() : tensor<1x12x32xf32>
        %90:2 = linalg.generic {indexing_maps = [#map7, #map7, #map8, #map8, #map7, #map7], iterator_types = ["parallel", "parallel", "parallel"]} ins(%collapsed_96, %collapsed_98, %88#0, %88#1 : tensor<1x12x32xf32>, tensor<1x12x32xf32>, tensor<32xf32>, tensor<32xf32>) outs(%89, %89 : tensor<1x12x32xf32>, tensor<1x12x32xf32>) {
        ^bb0(%in: f32, %in_144: f32, %in_145: f32, %in_146: f32, %out: f32, %out_147: f32):
          %146 = arith.mulf %in, %in_145 : f32
          %147 = arith.mulf %in_144, %in_146 : f32
          %148 = arith.subf %146, %147 : f32
          %149 = arith.mulf %in_144, %in_145 : f32
          %150 = arith.mulf %in, %in_146 : f32
          %151 = arith.addf %149, %150 : f32
          linalg.yield %148, %151 : f32, f32
        } -> (tensor<1x12x32xf32>, tensor<1x12x32xf32>)
        %expanded_99 = tensor.expand_shape %90#0 [[0], [1], [2, 3]] output_shape [1, 12, 32, 1] : tensor<1x12x32xf32> into tensor<1x12x32x1xf32>
        %expanded_100 = tensor.expand_shape %90#1 [[0], [1], [2, 3]] output_shape [1, 12, 32, 1] : tensor<1x12x32xf32> into tensor<1x12x32x1xf32>
        %91 = tensor.empty() : tensor<1x12x32x2xf32>
        %inserted_slice_101 = tensor.insert_slice %expanded_99 into %91[0, 0, 0, 0] [1, 12, 32, 1] [1, 1, 1, 1] : tensor<1x12x32x1xf32> into tensor<1x12x32x2xf32>
        %inserted_slice_102 = tensor.insert_slice %expanded_100 into %inserted_slice_101[0, 0, 0, 1] [1, 12, 32, 1] [1, 1, 1, 1] : tensor<1x12x32x1xf32> into tensor<1x12x32x2xf32>
        %collapsed_103 = tensor.collapse_shape %inserted_slice_102 [[0], [1], [2, 3]] : tensor<1x12x32x2xf32> into tensor<1x12x64xf32>
        %c1_i64_104 = arith.constant 1 : i64
        %c768_i64_105 = arith.constant 768 : i64
        %from_elements_106 = tensor.from_elements %c1_i64_104, %c768_i64_105 : tensor<2xi64>
        %reshape_107 = tensor.reshape %collapsed_103(%from_elements_106) : (tensor<1x12x64xf32>, tensor<2xi64>) -> tensor<1x768xf32>
        %c1_i64_108 = arith.constant 1 : i64
        %c1_i64_109 = arith.constant 1 : i64
        %c768_i64_110 = arith.constant 768 : i64
        %from_elements_111 = tensor.from_elements %c1_i64_108, %c1_i64_109, %c768_i64_110 : tensor<3xi64>
        %reshape_112 = tensor.reshape %reshape_107(%from_elements_111) : (tensor<1x768xf32>, tensor<3xi64>) -> tensor<1x1x768xf32>
        %c0_113 = arith.constant 0 : index
        %c1_114 = arith.constant 1 : index
        %92 = arith.index_cast %48 : i64 to index
        %93 = arith.index_cast %arg1 : i64 to index
        %inserted_slice_115 = tensor.insert_slice %reshape_112 into %arg6[%92, %93, 0] [1, 1, 768] [1, 1, 1] : tensor<1x1x768xf32> into tensor<12x1024x768xf32>
        %c1_i64_116 = arith.constant 1 : i64
        %c1_i64_117 = arith.constant 1 : i64
        %c768_i64_118 = arith.constant 768 : i64
        %from_elements_119 = tensor.from_elements %c1_i64_116, %c1_i64_117, %c768_i64_118 : tensor<3xi64>
        %reshape_120 = tensor.reshape %77(%from_elements_119) : (tensor<1x768xf32>, tensor<3xi64>) -> tensor<1x1x768xf32>
        %c0_121 = arith.constant 0 : index
        %c1_122 = arith.constant 1 : index
        %94 = arith.index_cast %48 : i64 to index
        %95 = arith.index_cast %arg1 : i64 to index
        %inserted_slice_123 = tensor.insert_slice %reshape_120 into %arg7[%94, %95, 0] [1, 1, 768] [1, 1, 1] : tensor<1x1x768xf32> into tensor<12x1024x768xf32>
        %96 = arith.index_cast %48 : i64 to index
        %97 = arith.index_cast %c0_i64_54 : i64 to index
        %98 = arith.index_cast %c0_i64_54 : i64 to index
        %extracted_slice_124 = tensor.extract_slice %inserted_slice_115[%96, %97, %98] [1, 1024, 768] [1, 1, 1] : tensor<12x1024x768xf32> to tensor<1024x768xf32>
        %99 = arith.index_cast %48 : i64 to index
        %100 = arith.index_cast %c0_i64_54 : i64 to index
        %101 = arith.index_cast %c0_i64_54 : i64 to index
        %extracted_slice_125 = tensor.extract_slice %inserted_slice_123[%99, %100, %101] [1, 1024, 768] [1, 1, 1] : tensor<12x1024x768xf32> to tensor<1024x768xf32>
        %cst_126 = arith.constant dense<0.000000e+00> : tensor<1x12x64xf32>
        %102 = scf.for %arg8 = %c0 to %c12 step %c1 iter_args(%arg9 = %cst_126) -> (tensor<1x12x64xf32>) {
          %146 = arith.index_cast %arg8 : index to i64
          %147 = arith.muli %146, %c64_i64 : i64
          %148 = arith.index_cast %c0_i64_54 : i64 to index
          %149 = arith.index_cast %147 : i64 to index
          %extracted_slice_144 = tensor.extract_slice %reshape_88[%148, %149] [1, 64] [1, 1] : tensor<1x768xf32> to tensor<1x64xf32>
          %150 = arith.index_cast %c0_i64_54 : i64 to index
          %151 = arith.index_cast %147 : i64 to index
          %extracted_slice_145 = tensor.extract_slice %extracted_slice_124[%150, %151] [1024, 64] [1, 1] : tensor<1024x768xf32> to tensor<1024x64xf32>
          %152 = tensor.empty() : tensor<64x1024xf32>
          %transposed = linalg.transpose ins(%extracted_slice_145 : tensor<1024x64xf32>) outs(%152 : tensor<64x1024xf32>) permutation = [1, 0] 
          %153 = arith.index_cast %26 : i64 to index
          %cst_146 = arith.constant -1.000000e+09 : f32
          %cst_147 = arith.constant 0.000000e+00 : f32
          %extracted_slice_148 = tensor.extract_slice %transposed[0, 0] [64, %153] [1, 1] : tensor<64x1024xf32> to tensor<64x?xf32>
          %154 = tensor.empty(%153) : tensor<1x?xf32>
          %155 = linalg.fill ins(%cst_147 : f32) outs(%154 : tensor<1x?xf32>) -> tensor<1x?xf32>
          %156 = linalg.generic {indexing_maps = [#map4, #map5, #map6], iterator_types = ["parallel", "parallel", "reduction"]} ins(%extracted_slice_144, %extracted_slice_148 : tensor<1x64xf32>, tensor<64x?xf32>) outs(%155 : tensor<1x?xf32>) {
          ^bb0(%in: f32, %in_162: f32, %out: f32):
            %178 = arith.mulf %in, %in_162 : f32
            %179 = arith.addf %out, %178 : f32
            linalg.yield %179 : f32
          } -> tensor<1x?xf32>
          %157 = tensor.empty() : tensor<1x1024xf32>
          %158 = linalg.fill ins(%cst_146 : f32) outs(%157 : tensor<1x1024xf32>) -> tensor<1x1024xf32>
          %inserted_slice_149 = tensor.insert_slice %156 into %158[0, 0] [1, %153] [1, 1] : tensor<1x?xf32> into tensor<1x1024xf32>
          %159 = tensor.empty() : tensor<1x1024xf32>
          %160 = linalg.generic {indexing_maps = [#map, #map], iterator_types = ["parallel", "parallel"]} ins(%inserted_slice_149 : tensor<1x1024xf32>) outs(%159 : tensor<1x1024xf32>) {
          ^bb0(%in: f32, %out: f32):
            %178 = arith.mulf %in, %cst_56 : f32
            linalg.yield %178 : f32
          } -> tensor<1x1024xf32>
          %161 = tensor.empty() : tensor<1xf32>
          %cst_150 = arith.constant 0xFF800000 : f32
          %162 = linalg.fill ins(%cst_150 : f32) outs(%161 : tensor<1xf32>) -> tensor<1xf32>
          %163 = linalg.generic {indexing_maps = [#map, #map1], iterator_types = ["parallel", "reduction"]} ins(%160 : tensor<1x1024xf32>) outs(%162 : tensor<1xf32>) {
          ^bb0(%in: f32, %out: f32):
            %178 = arith.maxnumf %in, %out : f32
            linalg.yield %178 : f32
          } -> tensor<1xf32>
          %164 = tensor.empty() : tensor<1x1024xf32>
          %165 = linalg.generic {indexing_maps = [#map, #map1, #map], iterator_types = ["parallel", "parallel"]} ins(%160, %163 : tensor<1x1024xf32>, tensor<1xf32>) outs(%164 : tensor<1x1024xf32>) {
          ^bb0(%in: f32, %in_162: f32, %out: f32):
            %178 = arith.subf %in, %in_162 : f32
            %179 = math.exp %178 : f32
            linalg.yield %179 : f32
          } -> tensor<1x1024xf32>
          %166 = tensor.empty() : tensor<1xf32>
          %cst_151 = arith.constant 0.000000e+00 : f32
          %167 = linalg.fill ins(%cst_151 : f32) outs(%166 : tensor<1xf32>) -> tensor<1xf32>
          %168 = linalg.generic {indexing_maps = [#map, #map1], iterator_types = ["parallel", "parallel"]} ins(%165 : tensor<1x1024xf32>) outs(%167 : tensor<1xf32>) {
          ^bb0(%in: f32, %out: f32):
            %178 = arith.addf %in, %out : f32
            linalg.yield %178 : f32
          } -> tensor<1xf32>
          %169 = tensor.empty() : tensor<1x1024xf32>
          %170 = linalg.generic {indexing_maps = [#map, #map1, #map], iterator_types = ["parallel", "parallel"]} ins(%165, %168 : tensor<1x1024xf32>, tensor<1xf32>) outs(%169 : tensor<1x1024xf32>) {
          ^bb0(%in: f32, %in_162: f32, %out: f32):
            %178 = arith.divf %in, %in_162 : f32
            linalg.yield %178 : f32
          } -> tensor<1x1024xf32>
          %171 = arith.index_cast %c0_i64_54 : i64 to index
          %172 = arith.index_cast %147 : i64 to index
          %extracted_slice_152 = tensor.extract_slice %extracted_slice_125[%171, %172] [1024, 64] [1, 1] : tensor<1024x768xf32> to tensor<1024x64xf32>
          %173 = tensor.empty() : tensor<1x64xf32>
          %cst_153 = arith.constant 0.000000e+00 : f32
          %174 = linalg.fill ins(%cst_153 : f32) outs(%173 : tensor<1x64xf32>) -> tensor<1x64xf32>
          %175 = linalg.generic {indexing_maps = [#map4, #map5, #map6], iterator_types = ["parallel", "parallel", "reduction"]} ins(%170, %extracted_slice_152 : tensor<1x1024xf32>, tensor<1024x64xf32>) outs(%174 : tensor<1x64xf32>) {
          ^bb0(%in: f32, %in_162: f32, %out: f32):
            %178 = arith.mulf %in, %in_162 : f32
            %179 = arith.addf %out, %178 : f32
            linalg.yield %179 : f32
          } -> tensor<1x64xf32>
          %c1_i64_154 = arith.constant 1 : i64
          %c1_i64_155 = arith.constant 1 : i64
          %c64_i64_156 = arith.constant 64 : i64
          %from_elements_157 = tensor.from_elements %c1_i64_154, %c1_i64_155, %c64_i64_156 : tensor<3xi64>
          %reshape_158 = tensor.reshape %175(%from_elements_157) : (tensor<1x64xf32>, tensor<3xi64>) -> tensor<1x1x64xf32>
          %c0_159 = arith.constant 0 : index
          %c1_160 = arith.constant 1 : index
          %176 = arith.index_cast %c0_i64_54 : i64 to index
          %177 = arith.index_cast %146 : i64 to index
          %inserted_slice_161 = tensor.insert_slice %reshape_158 into %arg9[%176, %177, 0] [1, 1, 64] [1, 1, 1] : tensor<1x1x64xf32> into tensor<1x12x64xf32>
          scf.yield %inserted_slice_161 : tensor<1x12x64xf32>
        }
        %c1_i64_127 = arith.constant 1 : i64
        %c768_i64_128 = arith.constant 768 : i64
        %from_elements_129 = tensor.from_elements %c1_i64_127, %c768_i64_128 : tensor<2xi64>
        %reshape_130 = tensor.reshape %102(%from_elements_129) : (tensor<1x12x64xf32>, tensor<2xi64>) -> tensor<1x768xf32>
        %103 = arith.index_cast %48 : i64 to index
        %104 = arith.index_cast %c0_i64_54 : i64 to index
        %105 = arith.index_cast %c0_i64_54 : i64 to index
        %extracted_slice_131 = tensor.extract_slice %11[%103, %104, %105] [1, 768, 768] [1, 1, 1] : tensor<12x768x768xf32> to tensor<768x768xf32>
        %106 = tensor.empty() : tensor<1x768xf32>
        %cst_132 = arith.constant 0.000000e+00 : f32
        %107 = linalg.fill ins(%cst_132 : f32) outs(%106 : tensor<1x768xf32>) -> tensor<1x768xf32>
        %108 = linalg.generic {indexing_maps = [#map4, #map5, #map6], iterator_types = ["parallel", "parallel", "reduction"]} ins(%reshape_130, %extracted_slice_131 : tensor<1x768xf32>, tensor<768x768xf32>) outs(%107 : tensor<1x768xf32>) {
        ^bb0(%in: f32, %in_144: f32, %out: f32):
          %146 = arith.mulf %in, %in_144 : f32
          %147 = arith.addf %out, %146 : f32
          linalg.yield %147 : f32
        } -> tensor<1x768xf32>
        %109 = tensor.empty() : tensor<1x768xf32>
        %110 = linalg.add ins(%arg5, %108 : tensor<1x768xf32>, tensor<1x768xf32>) outs(%109 : tensor<1x768xf32>) -> tensor<1x768xf32>
        %111 = arith.index_cast %48 : i64 to index
        %112 = arith.index_cast %c0_i64_54 : i64 to index
        %extracted_slice_133 = tensor.extract_slice %13[%111, %112] [1, 768] [1, 1] : tensor<12x768xf32> to tensor<768xf32>
        %113 = tensor.empty() : tensor<1xf32>
        %cst_134 = arith.constant 0.000000e+00 : f32
        %114 = linalg.fill ins(%cst_134 : f32) outs(%113 : tensor<1xf32>) -> tensor<1xf32>
        %115 = linalg.generic {indexing_maps = [#map, #map1], iterator_types = ["parallel", "reduction"]} ins(%110 : tensor<1x768xf32>) outs(%114 : tensor<1xf32>) {
        ^bb0(%in: f32, %out: f32):
          %146 = arith.mulf %in, %in : f32
          %147 = arith.addf %out, %146 : f32
          linalg.yield %147 : f32
        } -> tensor<1xf32>
        %c1_135 = arith.constant 1 : index
        %dim_136 = tensor.dim %110, %c1_135 : tensor<1x768xf32>
        %116 = arith.index_cast %dim_136 : index to i64
        %117 = arith.uitofp %116 : i64 to f32
        %cst_137 = arith.constant 9.99999974E-6 : f32
        %118 = tensor.empty() : tensor<1xf32>
        %119 = linalg.generic {indexing_maps = [#map2, #map2], iterator_types = ["parallel"]} ins(%115 : tensor<1xf32>) outs(%118 : tensor<1xf32>) {
        ^bb0(%in: f32, %out: f32):
          %146 = arith.divf %in, %117 : f32
          %147 = arith.addf %146, %cst_137 : f32
          %148 = math.rsqrt %147 : f32
          linalg.yield %148 : f32
        } -> tensor<1xf32>
        %120 = tensor.empty() : tensor<1x768xf32>
        %121 = linalg.generic {indexing_maps = [#map, #map1, #map3, #map], iterator_types = ["parallel", "parallel"]} ins(%110, %119, %extracted_slice_133 : tensor<1x768xf32>, tensor<1xf32>, tensor<768xf32>) outs(%120 : tensor<1x768xf32>) {
        ^bb0(%in: f32, %in_144: f32, %in_145: f32, %out: f32):
          %146 = arith.mulf %in, %in_144 : f32
          %147 = arith.mulf %146, %in_145 : f32
          linalg.yield %147 : f32
        } -> tensor<1x768xf32>
        %122 = arith.index_cast %48 : i64 to index
        %123 = arith.index_cast %c0_i64_54 : i64 to index
        %124 = arith.index_cast %c0_i64_54 : i64 to index
        %extracted_slice_138 = tensor.extract_slice %15[%122, %123, %124] [1, 768, 2048] [1, 1, 1] : tensor<12x768x2048xf32> to tensor<768x2048xf32>
        %125 = arith.index_cast %48 : i64 to index
        %126 = arith.index_cast %c0_i64_54 : i64 to index
        %127 = arith.index_cast %c0_i64_54 : i64 to index
        %extracted_slice_139 = tensor.extract_slice %19[%125, %126, %127] [1, 768, 2048] [1, 1, 1] : tensor<12x768x2048xf32> to tensor<768x2048xf32>
        %128 = tensor.empty() : tensor<1x2048xf32>
        %cst_140 = arith.constant 0.000000e+00 : f32
        %129 = linalg.fill ins(%cst_140 : f32) outs(%128 : tensor<1x2048xf32>) -> tensor<1x2048xf32>
        %130 = linalg.generic {indexing_maps = [#map4, #map5, #map6], iterator_types = ["parallel", "parallel", "reduction"]} ins(%121, %extracted_slice_138 : tensor<1x768xf32>, tensor<768x2048xf32>) outs(%129 : tensor<1x2048xf32>) {
        ^bb0(%in: f32, %in_144: f32, %out: f32):
          %146 = arith.mulf %in, %in_144 : f32
          %147 = arith.addf %out, %146 : f32
          linalg.yield %147 : f32
        } -> tensor<1x2048xf32>
        %131 = tensor.empty() : tensor<1x2048xf32>
        %cst_141 = arith.constant 0.000000e+00 : f32
        %132 = linalg.fill ins(%cst_141 : f32) outs(%131 : tensor<1x2048xf32>) -> tensor<1x2048xf32>
        %133 = linalg.generic {indexing_maps = [#map4, #map5, #map6], iterator_types = ["parallel", "parallel", "reduction"]} ins(%121, %extracted_slice_139 : tensor<1x768xf32>, tensor<768x2048xf32>) outs(%132 : tensor<1x2048xf32>) {
        ^bb0(%in: f32, %in_144: f32, %out: f32):
          %146 = arith.mulf %in, %in_144 : f32
          %147 = arith.addf %out, %146 : f32
          linalg.yield %147 : f32
        } -> tensor<1x2048xf32>
        %134 = tensor.empty() : tensor<1x2048xf32>
        %135 = linalg.generic {indexing_maps = [#map, #map], iterator_types = ["parallel", "parallel"]} ins(%130 : tensor<1x2048xf32>) outs(%134 : tensor<1x2048xf32>) {
        ^bb0(%in: f32, %out: f32):
          %cst_144 = arith.constant 1.000000e+00 : f32
          %146 = arith.negf %in : f32
          %147 = math.exp %146 : f32
          %148 = arith.addf %cst_144, %147 : f32
          %149 = arith.divf %in, %148 : f32
          linalg.yield %149 : f32
        } -> tensor<1x2048xf32>
        %136 = tensor.empty() : tensor<1x2048xf32>
        %137 = linalg.mul ins(%135, %133 : tensor<1x2048xf32>, tensor<1x2048xf32>) outs(%136 : tensor<1x2048xf32>) -> tensor<1x2048xf32>
        %138 = arith.index_cast %48 : i64 to index
        %139 = arith.index_cast %c0_i64_54 : i64 to index
        %140 = arith.index_cast %c0_i64_54 : i64 to index
        %extracted_slice_142 = tensor.extract_slice %17[%138, %139, %140] [1, 2048, 768] [1, 1, 1] : tensor<12x2048x768xf32> to tensor<2048x768xf32>
        %141 = tensor.empty() : tensor<1x768xf32>
        %cst_143 = arith.constant 0.000000e+00 : f32
        %142 = linalg.fill ins(%cst_143 : f32) outs(%141 : tensor<1x768xf32>) -> tensor<1x768xf32>
        %143 = linalg.generic {indexing_maps = [#map4, #map5, #map6], iterator_types = ["parallel", "parallel", "reduction"]} ins(%137, %extracted_slice_142 : tensor<1x2048xf32>, tensor<2048x768xf32>) outs(%142 : tensor<1x768xf32>) {
        ^bb0(%in: f32, %in_144: f32, %out: f32):
          %146 = arith.mulf %in, %in_144 : f32
          %147 = arith.addf %out, %146 : f32
          linalg.yield %147 : f32
        } -> tensor<1x768xf32>
        %144 = tensor.empty() : tensor<1x768xf32>
        %145 = linalg.add ins(%110, %143 : tensor<1x768xf32>, tensor<1x768xf32>) outs(%144 : tensor<1x768xf32>) -> tensor<1x768xf32>
        scf.yield %145, %inserted_slice_115, %inserted_slice_123 : tensor<1x768xf32>, tensor<12x1024x768xf32>, tensor<12x1024x768xf32>
      }
      %30 = tensor.empty() : tensor<1xf32>
      %cst_57 = arith.constant 0.000000e+00 : f32
      %31 = linalg.fill ins(%cst_57 : f32) outs(%30 : tensor<1xf32>) -> tensor<1xf32>
      %32 = linalg.generic {indexing_maps = [#map, #map1], iterator_types = ["parallel", "reduction"]} ins(%29#0 : tensor<1x768xf32>) outs(%31 : tensor<1xf32>) {
      ^bb0(%in: f32, %out: f32):
        %48 = arith.mulf %in, %in : f32
        %49 = arith.addf %out, %48 : f32
        linalg.yield %49 : f32
      } -> tensor<1xf32>
      %c1_58 = arith.constant 1 : index
      %dim = tensor.dim %29#0, %c1_58 : tensor<1x768xf32>
      %33 = arith.index_cast %dim : index to i64
      %34 = arith.uitofp %33 : i64 to f32
      %cst_59 = arith.constant 9.99999974E-6 : f32
      %35 = tensor.empty() : tensor<1xf32>
      %36 = linalg.generic {indexing_maps = [#map2, #map2], iterator_types = ["parallel"]} ins(%32 : tensor<1xf32>) outs(%35 : tensor<1xf32>) {
      ^bb0(%in: f32, %out: f32):
        %48 = arith.divf %in, %34 : f32
        %49 = arith.addf %48, %cst_59 : f32
        %50 = math.rsqrt %49 : f32
        linalg.yield %50 : f32
      } -> tensor<1xf32>
      %37 = tensor.empty() : tensor<1x768xf32>
      %38 = linalg.generic {indexing_maps = [#map, #map1, #map3, #map], iterator_types = ["parallel", "parallel"]} ins(%29#0, %36, %21 : tensor<1x768xf32>, tensor<1xf32>, tensor<768xf32>) outs(%37 : tensor<1x768xf32>) {
      ^bb0(%in: f32, %in_64: f32, %in_65: f32, %out: f32):
        %48 = arith.mulf %in, %in_64 : f32
        %49 = arith.mulf %48, %in_65 : f32
        linalg.yield %49 : f32
      } -> tensor<1x768xf32>
      %39 = tensor.empty() : tensor<1x32000xf32>
      %cst_60 = arith.constant 0.000000e+00 : f32
      %40 = linalg.fill ins(%cst_60 : f32) outs(%39 : tensor<1x32000xf32>) -> tensor<1x32000xf32>
      %41 = linalg.generic {indexing_maps = [#map4, #map5, #map6], iterator_types = ["parallel", "parallel", "reduction"]} ins(%38, %23 : tensor<1x768xf32>, tensor<768x32000xf32>) outs(%40 : tensor<1x32000xf32>) {
      ^bb0(%in: f32, %in_64: f32, %out: f32):
        %48 = arith.mulf %in, %in_64 : f32
        %49 = arith.addf %out, %48 : f32
        linalg.yield %49 : f32
      } -> tensor<1x32000xf32>
      %cst_61 = arith.constant 0xFF800000 : f32
      %42 = tensor.empty() : tensor<1xf32>
      %43 = linalg.fill ins(%cst_61 : f32) outs(%42 : tensor<1xf32>) -> tensor<1xf32>
      %c0_i64_62 = arith.constant 0 : i64
      %44 = tensor.empty() : tensor<1xi64>
      %45 = linalg.fill ins(%c0_i64_62 : i64) outs(%44 : tensor<1xi64>) -> tensor<1xi64>
      %46:2 = linalg.generic {indexing_maps = [#map, #map1, #map1], iterator_types = ["parallel", "reduction"]} ins(%41 : tensor<1x32000xf32>) outs(%43, %45 : tensor<1xf32>, tensor<1xi64>) {
      ^bb0(%in: f32, %out: f32, %out_64: i64):
        %48 = linalg.index 1 : index
        %49 = arith.index_cast %48 : index to i64
        %50 = arith.cmpf ogt, %in, %out : f32
        %51 = arith.select %50, %in, %out : f32
        %52 = arith.select %50, %49, %out_64 : i64
        linalg.yield %51, %52 : f32, i64
      } -> (tensor<1xf32>, tensor<1xi64>)
      %c0_i64_63 = arith.constant 0 : i64
      %47 = arith.index_cast %c0_i64_63 : i64 to index
      %extracted = tensor.extract %46#1[%47] : tensor<1xi64>
      func.call @decode(%arg0, %extracted) : (i64, i64) -> ()
      scf.yield %extracted, %25, %29#1, %29#2 : i64, i64, tensor<12x1024x768xf32>, tensor<12x1024x768xf32>
    }
    call @end(%c128_i64) : (i64) -> ()
    call @free_tokenizer() : () -> ()
    return
  }
}


// -----// IR Dump After LinalgGeneralizeNamedOpsPass (linalg-generalize-named-ops) //----- //
func.func private @free_tokenizer()

// -----// IR Dump After LinalgGeneralizeNamedOpsPass (linalg-generalize-named-ops) //----- //
func.func private @end(i64)

// -----// IR Dump After LinalgGeneralizeNamedOpsPass (linalg-generalize-named-ops) //----- //
func.func private @cherry_read_weight_3d_12_2048_768_f32(tensor<?xi8> {bufferization.access = "read"}, i64, i64, i64) -> memref<12x2048x768xf32>

// -----// IR Dump After LinalgGeneralizeNamedOpsPass (linalg-generalize-named-ops) //----- //
func.func private @decode(i64, i64)

// -----// IR Dump After LinalgGeneralizeNamedOpsPass (linalg-generalize-named-ops) //----- //
func.func private @start()

// -----// IR Dump After LinalgGeneralizeNamedOpsPass (linalg-generalize-named-ops) //----- //
func.func private @build_tokenizer(i64, tensor<?xi8>)

// -----// IR Dump After LinalgGeneralizeNamedOpsPass (linalg-generalize-named-ops) //----- //
func.func private @cherry_read_weight_3d_12_768_2048_f32(tensor<?xi8> {bufferization.access = "read"}, i64, i64, i64) -> memref<12x768x2048xf32>

// -----// IR Dump After LinalgGeneralizeNamedOpsPass (linalg-generalize-named-ops) //----- //
func.func private @cherry_read_weight_2d_768_32000_f32(tensor<?xi8> {bufferization.access = "read"}, i64, i64) -> memref<768x32000xf32>

// -----// IR Dump After LinalgGeneralizeNamedOpsPass (linalg-generalize-named-ops) //----- //
func.func private @cherry_read_weight_2d_12_768_f32(tensor<?xi8> {bufferization.access = "read"}, i64, i64) -> memref<12x768xf32>

// -----// IR Dump After LinalgGeneralizeNamedOpsPass (linalg-generalize-named-ops) //----- //
func.func private @cherry_read_weight_2d_32000_768_f32(tensor<?xi8> {bufferization.access = "read"}, i64, i64) -> memref<32000x768xf32>

// -----// IR Dump After LinalgGeneralizeNamedOpsPass (linalg-generalize-named-ops) //----- //
func.func private @cherry_read_weight_3d_12_768_768_f32(tensor<?xi8> {bufferization.access = "read"}, i64, i64, i64) -> memref<12x768x768xf32>

// -----// IR Dump After CherryLinalgTilingPass (cherry-linalg-tiling) //----- //
func.func private @free_tokenizer()

// -----// IR Dump After CherryLinalgTilingPass (cherry-linalg-tiling) //----- //
func.func private @cherry_read_weight_3d_12_2048_768_f32(tensor<?xi8> {bufferization.access = "read"}, i64, i64, i64) -> memref<12x2048x768xf32>

// -----// IR Dump After CherryLinalgTilingPass (cherry-linalg-tiling) //----- //
func.func private @decode(i64, i64)

// -----// IR Dump After CherryLinalgTilingPass (cherry-linalg-tiling) //----- //
func.func private @end(i64)

// -----// IR Dump After CherryLinalgTilingPass (cherry-linalg-tiling) //----- //
func.func private @start()

// -----// IR Dump After CherryLinalgTilingPass (cherry-linalg-tiling) //----- //
func.func private @build_tokenizer(i64, tensor<?xi8>)

// -----// IR Dump After CherryLinalgTilingPass (cherry-linalg-tiling) //----- //
func.func private @cherry_read_weight_3d_12_768_2048_f32(tensor<?xi8> {bufferization.access = "read"}, i64, i64, i64) -> memref<12x768x2048xf32>

// -----// IR Dump After CherryLinalgTilingPass (cherry-linalg-tiling) //----- //
func.func private @cherry_read_weight_2d_768_32000_f32(tensor<?xi8> {bufferization.access = "read"}, i64, i64) -> memref<768x32000xf32>

// -----// IR Dump After CherryLinalgTilingPass (cherry-linalg-tiling) //----- //
func.func private @cherry_read_weight_2d_12_768_f32(tensor<?xi8> {bufferization.access = "read"}, i64, i64) -> memref<12x768xf32>

// -----// IR Dump After LinalgGeneralizeNamedOpsPass (linalg-generalize-named-ops) //----- //
func.func private @cherry_read_weight_1d_768_f32(tensor<?xi8> {bufferization.access = "read"}, i64) -> memref<768xf32>

// -----// IR Dump After CherryLinalgTilingPass (cherry-linalg-tiling) //----- //
func.func private @cherry_read_weight_2d_32000_768_f32(tensor<?xi8> {bufferization.access = "read"}, i64, i64) -> memref<32000x768xf32>

// -----// IR Dump After CherryLinalgTilingPass (cherry-linalg-tiling) //----- //
func.func private @cherry_read_weight_3d_12_768_768_f32(tensor<?xi8> {bufferization.access = "read"}, i64, i64, i64) -> memref<12x768x768xf32>

// -----// IR Dump After CherryLinalgTilingPass (cherry-linalg-tiling) //----- //
func.func private @cherry_read_weight_1d_768_f32(tensor<?xi8> {bufferization.access = "read"}, i64) -> memref<768xf32>

// -----// IR Dump After LinalgGeneralizeNamedOpsPass (linalg-generalize-named-ops) //----- //
func.func @host() {
  %cst = arith.constant dense<[1, 1, 64]> : tensor<3xi64>
  %cst_0 = arith.constant dense<[1, 1, 768]> : tensor<3xi64>
  %cst_1 = arith.constant dense<[1, 768]> : tensor<2xi64>
  %cst_2 = arith.constant dense<[1, 12, 64]> : tensor<3xi64>
  %cst_3 = arith.constant 7.680000e+02 : f32
  %cst_4 = arith.constant 1.000000e+00 : f32
  %cst_5 = arith.constant 0xFF800000 : f32
  %cst_6 = arith.constant -1.000000e+09 : f32
  %cst_7 = arith.constant dense<0.000000e+00> : tensor<1x12x64xf32>
  %cst_8 = arith.constant -2.000000e+00 : f32
  %cst_9 = arith.constant 6.400000e+01 : f32
  %cst_10 = arith.constant 1.000000e+04 : f32
  %cst_11 = arith.constant 9.99999974E-6 : f32
  %cst_12 = arith.constant 0.000000e+00 : f32
  %cst_13 = arith.constant 1.250000e-01 : f32
  %c64_i64 = arith.constant 64 : i64
  %c128_i64 = arith.constant 128 : i64
  %c0_i64 = arith.constant 0 : i64
  %c1_i64 = arith.constant 1 : i64
  %cst_14 = arith.constant dense<0.000000e+00> : tensor<12x1024x768xf32>
  %cst_15 = arith.constant dense<[47, 104, 111, 109, 101, 47, 110, 120, 47, 121, 99, 121, 47, 112, 98, 47, 99, 104, 101, 114, 114, 121, 47, 117, 116, 105, 108, 115, 47, 115, 116, 111, 114, 105, 101, 115, 49, 49, 48, 77, 47, 111, 117, 116, 112, 117, 116, 95, 119, 99, 108, 115, 46, 98, 105, 110, 0]> : tensor<57xi8>
  %cst_16 = arith.constant dense<[47, 104, 111, 109, 101, 47, 110, 120, 47, 121, 99, 121, 47, 112, 98, 47, 99, 104, 101, 114, 114, 121, 47, 117, 116, 105, 108, 115, 47, 115, 116, 111, 114, 105, 101, 115, 49, 49, 48, 77, 47, 102, 105, 110, 97, 108, 95, 114, 109, 115, 95, 110, 111, 114, 109, 46, 98, 105, 110, 0]> : tensor<60xi8>
  %cst_17 = arith.constant dense<[47, 104, 111, 109, 101, 47, 110, 120, 47, 121, 99, 121, 47, 112, 98, 47, 99, 104, 101, 114, 114, 121, 47, 117, 116, 105, 108, 115, 47, 115, 116, 111, 114, 105, 101, 115, 49, 49, 48, 77, 47, 108, 97, 121, 101, 114, 115, 95, 119, 51, 46, 98, 105, 110, 0]> : tensor<55xi8>
  %cst_18 = arith.constant dense<[47, 104, 111, 109, 101, 47, 110, 120, 47, 121, 99, 121, 47, 112, 98, 47, 99, 104, 101, 114, 114, 121, 47, 117, 116, 105, 108, 115, 47, 115, 116, 111, 114, 105, 101, 115, 49, 49, 48, 77, 47, 108, 97, 121, 101, 114, 115, 95, 119, 50, 46, 98, 105, 110, 0]> : tensor<55xi8>
  %c2048_i64 = arith.constant 2048 : i64
  %cst_19 = arith.constant dense<[47, 104, 111, 109, 101, 47, 110, 120, 47, 121, 99, 121, 47, 112, 98, 47, 99, 104, 101, 114, 114, 121, 47, 117, 116, 105, 108, 115, 47, 115, 116, 111, 114, 105, 101, 115, 49, 49, 48, 77, 47, 108, 97, 121, 101, 114, 115, 95, 119, 49, 46, 98, 105, 110, 0]> : tensor<55xi8>
  %cst_20 = arith.constant dense<[47, 104, 111, 109, 101, 47, 110, 120, 47, 121, 99, 121, 47, 112, 98, 47, 99, 104, 101, 114, 114, 121, 47, 117, 116, 105, 108, 115, 47, 115, 116, 111, 114, 105, 101, 115, 49, 49, 48, 77, 47, 108, 97, 121, 101, 114, 115, 95, 114, 109, 115, 95, 102, 102, 110, 95, 119, 101, 105, 103, 104, 116, 46, 98, 105, 110, 0]> : tensor<67xi8>
  %cst_21 = arith.constant dense<[47, 104, 111, 109, 101, 47, 110, 120, 47, 121, 99, 121, 47, 112, 98, 47, 99, 104, 101, 114, 114, 121, 47, 117, 116, 105, 108, 115, 47, 115, 116, 111, 114, 105, 101, 115, 49, 49, 48, 77, 47, 108, 97, 121, 101, 114, 115, 95, 119, 111, 46, 98, 105, 110, 0]> : tensor<55xi8>
  %cst_22 = arith.constant dense<[47, 104, 111, 109, 101, 47, 110, 120, 47, 121, 99, 121, 47, 112, 98, 47, 99, 104, 101, 114, 114, 121, 47, 117, 116, 105, 108, 115, 47, 115, 116, 111, 114, 105, 101, 115, 49, 49, 48, 77, 47, 108, 97, 121, 101, 114, 115, 95, 119, 118, 46, 98, 105, 110, 0]> : tensor<55xi8>
  %cst_23 = arith.constant dense<[47, 104, 111, 109, 101, 47, 110, 120, 47, 121, 99, 121, 47, 112, 98, 47, 99, 104, 101, 114, 114, 121, 47, 117, 116, 105, 108, 115, 47, 115, 116, 111, 114, 105, 101, 115, 49, 49, 48, 77, 47, 108, 97, 121, 101, 114, 115, 95, 119, 107, 46, 98, 105, 110, 0]> : tensor<55xi8>
  %cst_24 = arith.constant dense<[47, 104, 111, 109, 101, 47, 110, 120, 47, 121, 99, 121, 47, 112, 98, 47, 99, 104, 101, 114, 114, 121, 47, 117, 116, 105, 108, 115, 47, 115, 116, 111, 114, 105, 101, 115, 49, 49, 48, 77, 47, 108, 97, 121, 101, 114, 115, 95, 119, 113, 46, 98, 105, 110, 0]> : tensor<55xi8>
  %c12_i64 = arith.constant 12 : i64
  %cst_25 = arith.constant dense<[47, 104, 111, 109, 101, 47, 110, 120, 47, 121, 99, 121, 47, 112, 98, 47, 99, 104, 101, 114, 114, 121, 47, 117, 116, 105, 108, 115, 47, 115, 116, 111, 114, 105, 101, 115, 49, 49, 48, 77, 47, 108, 97, 121, 101, 114, 115, 95, 114, 109, 115, 95, 97, 116, 116, 95, 119, 101, 105, 103, 104, 116, 46, 98, 105, 110, 0]> : tensor<67xi8>
  %c768_i64 = arith.constant 768 : i64
  %cst_26 = arith.constant dense<[47, 104, 111, 109, 101, 47, 110, 120, 47, 121, 99, 121, 47, 112, 98, 47, 99, 104, 101, 114, 114, 121, 47, 117, 116, 105, 108, 115, 47, 115, 116, 111, 114, 105, 101, 115, 49, 49, 48, 77, 47, 116, 111, 107, 101, 110, 95, 101, 109, 98, 101, 100, 100, 105, 110, 103, 115, 46, 98, 105, 110, 0]> : tensor<62xi8>
  %c0 = arith.constant 0 : index
  %c12 = arith.constant 12 : index
  %c1 = arith.constant 1 : index
  %c32000_i64 = arith.constant 32000 : i64
  %cst_27 = arith.constant dense<[47, 104, 111, 109, 101, 47, 110, 120, 47, 121, 99, 121, 47, 112, 98, 47, 99, 104, 101, 114, 114, 121, 47, 116, 101, 115, 116, 115, 47, 108, 108, 97, 109, 97, 47, 116, 111, 107, 101, 110, 105, 122, 101, 114, 46, 98, 105, 110, 0]> : tensor<49xi8>
  %cast = tensor.cast %cst_27 : tensor<49xi8> to tensor<?xi8>
  call @build_tokenizer(%c32000_i64, %cast) : (i64, tensor<?xi8>) -> ()
  %cast_28 = tensor.cast %cst_26 : tensor<62xi8> to tensor<?xi8>
  %0 = call @cherry_read_weight_2d_32000_768_f32(%cast_28, %c32000_i64, %c768_i64) : (tensor<?xi8>, i64, i64) -> memref<32000x768xf32>
  %1 = bufferization.to_tensor %0 restrict : memref<32000x768xf32>
  %cast_29 = tensor.cast %cst_25 : tensor<67xi8> to tensor<?xi8>
  %2 = call @cherry_read_weight_2d_12_768_f32(%cast_29, %c12_i64, %c768_i64) : (tensor<?xi8>, i64, i64) -> memref<12x768xf32>
  %3 = bufferization.to_tensor %2 restrict : memref<12x768xf32>
  %cast_30 = tensor.cast %cst_24 : tensor<55xi8> to tensor<?xi8>
  %4 = call @cherry_read_weight_3d_12_768_768_f32(%cast_30, %c12_i64, %c768_i64, %c768_i64) : (tensor<?xi8>, i64, i64, i64) -> memref<12x768x768xf32>
  %5 = bufferization.to_tensor %4 restrict : memref<12x768x768xf32>
  %cast_31 = tensor.cast %cst_23 : tensor<55xi8> to tensor<?xi8>
  %6 = call @cherry_read_weight_3d_12_768_768_f32(%cast_31, %c12_i64, %c768_i64, %c768_i64) : (tensor<?xi8>, i64, i64, i64) -> memref<12x768x768xf32>
  %7 = bufferization.to_tensor %6 restrict : memref<12x768x768xf32>
  %cast_32 = tensor.cast %cst_22 : tensor<55xi8> to tensor<?xi8>
  %8 = call @cherry_read_weight_3d_12_768_768_f32(%cast_32, %c12_i64, %c768_i64, %c768_i64) : (tensor<?xi8>, i64, i64, i64) -> memref<12x768x768xf32>
  %9 = bufferization.to_tensor %8 restrict : memref<12x768x768xf32>
  %cast_33 = tensor.cast %cst_21 : tensor<55xi8> to tensor<?xi8>
  %10 = call @cherry_read_weight_3d_12_768_768_f32(%cast_33, %c12_i64, %c768_i64, %c768_i64) : (tensor<?xi8>, i64, i64, i64) -> memref<12x768x768xf32>
  %11 = bufferization.to_tensor %10 restrict : memref<12x768x768xf32>
  %cast_34 = tensor.cast %cst_20 : tensor<67xi8> to tensor<?xi8>
  %12 = call @cherry_read_weight_2d_12_768_f32(%cast_34, %c12_i64, %c768_i64) : (tensor<?xi8>, i64, i64) -> memref<12x768xf32>
  %13 = bufferization.to_tensor %12 restrict : memref<12x768xf32>
  %cast_35 = tensor.cast %cst_19 : tensor<55xi8> to tensor<?xi8>
  %14 = call @cherry_read_weight_3d_12_768_2048_f32(%cast_35, %c12_i64, %c768_i64, %c2048_i64) : (tensor<?xi8>, i64, i64, i64) -> memref<12x768x2048xf32>
  %15 = bufferization.to_tensor %14 restrict : memref<12x768x2048xf32>
  %cast_36 = tensor.cast %cst_18 : tensor<55xi8> to tensor<?xi8>
  %16 = call @cherry_read_weight_3d_12_2048_768_f32(%cast_36, %c12_i64, %c2048_i64, %c768_i64) : (tensor<?xi8>, i64, i64, i64) -> memref<12x2048x768xf32>
  %17 = bufferization.to_tensor %16 restrict : memref<12x2048x768xf32>
  %cast_37 = tensor.cast %cst_17 : tensor<55xi8> to tensor<?xi8>
  %18 = call @cherry_read_weight_3d_12_768_2048_f32(%cast_37, %c12_i64, %c768_i64, %c2048_i64) : (tensor<?xi8>, i64, i64, i64) -> memref<12x768x2048xf32>
  %19 = bufferization.to_tensor %18 restrict : memref<12x768x2048xf32>
  %cast_38 = tensor.cast %cst_16 : tensor<60xi8> to tensor<?xi8>
  %20 = call @cherry_read_weight_1d_768_f32(%cast_38, %c768_i64) : (tensor<?xi8>, i64) -> memref<768xf32>
  %21 = bufferization.to_tensor %20 restrict : memref<768xf32>
  %cast_39 = tensor.cast %cst_15 : tensor<57xi8> to tensor<?xi8>
  %22 = call @cherry_read_weight_2d_768_32000_f32(%cast_39, %c768_i64, %c32000_i64) : (tensor<?xi8>, i64, i64) -> memref<768x32000xf32>
  %23 = bufferization.to_tensor %22 restrict : memref<768x32000xf32>
  call @start() : () -> ()
  %24:4 = scf.while (%arg0 = %c1_i64, %arg1 = %c0_i64, %arg2 = %cst_14, %arg3 = %cst_14) : (i64, i64, tensor<12x1024x768xf32>, tensor<12x1024x768xf32>) -> (i64, i64, tensor<12x1024x768xf32>, tensor<12x1024x768xf32>) {
    %25 = arith.cmpi slt, %arg1, %c128_i64 : i64
    scf.condition(%25) %arg0, %arg1, %arg2, %arg3 : i64, i64, tensor<12x1024x768xf32>, tensor<12x1024x768xf32>
  } do {
  ^bb0(%arg0: i64, %arg1: i64, %arg2: tensor<12x1024x768xf32>, %arg3: tensor<12x1024x768xf32>):
    %25 = arith.addi %arg1, %c1_i64 : i64
    %26 = arith.addi %arg1, %c1_i64 : i64
    %27 = arith.index_cast %arg0 : i64 to index
    %extracted_slice = tensor.extract_slice %1[%27, %c0] [1, 768] [1, 1] : tensor<32000x768xf32> to tensor<1x768xf32>
    %28:3 = scf.for %arg4 = %c0 to %c12 step %c1 iter_args(%arg5 = %extracted_slice, %arg6 = %arg2, %arg7 = %arg3) -> (tensor<1x768xf32>, tensor<12x1024x768xf32>, tensor<12x1024x768xf32>) {
      %44 = arith.index_cast %arg4 : index to i64
      %45 = arith.index_cast %44 : i64 to index
      %extracted_slice_40 = tensor.extract_slice %3[%45, %c0] [1, 768] [1, 1] : tensor<12x768xf32> to tensor<768xf32>
      %46 = tensor.empty() : tensor<1xf32>
      %47 = linalg.generic {indexing_maps = [affine_map<(d0) -> ()>, affine_map<(d0) -> (d0)>], iterator_types = ["parallel"]} ins(%cst_12 : f32) outs(%46 : tensor<1xf32>) {
      ^bb0(%in: f32, %out: f32):
        linalg.yield %in : f32
      } -> tensor<1xf32>
      %48 = linalg.generic {indexing_maps = [affine_map<(d0, d1) -> (d0, d1)>, affine_map<(d0, d1) -> (d0)>], iterator_types = ["parallel", "reduction"]} ins(%arg5 : tensor<1x768xf32>) outs(%47 : tensor<1xf32>) {
      ^bb0(%in: f32, %out: f32):
        %118 = arith.mulf %in, %in : f32
        %119 = arith.addf %out, %118 : f32
        linalg.yield %119 : f32
      } -> tensor<1xf32>
      %49 = tensor.empty() : tensor<1xf32>
      %50 = linalg.generic {indexing_maps = [affine_map<(d0) -> (d0)>, affine_map<(d0) -> (d0)>], iterator_types = ["parallel"]} ins(%48 : tensor<1xf32>) outs(%49 : tensor<1xf32>) {
      ^bb0(%in: f32, %out: f32):
        %118 = arith.divf %in, %cst_3 : f32
        %119 = arith.addf %118, %cst_11 : f32
        %120 = math.rsqrt %119 : f32
        linalg.yield %120 : f32
      } -> tensor<1xf32>
      %51 = tensor.empty() : tensor<1x768xf32>
      %52 = linalg.generic {indexing_maps = [affine_map<(d0, d1) -> (d0, d1)>, affine_map<(d0, d1) -> (d0)>, affine_map<(d0, d1) -> (d1)>, affine_map<(d0, d1) -> (d0, d1)>], iterator_types = ["parallel", "parallel"]} ins(%arg5, %50, %extracted_slice_40 : tensor<1x768xf32>, tensor<1xf32>, tensor<768xf32>) outs(%51 : tensor<1x768xf32>) {
      ^bb0(%in: f32, %in_75: f32, %in_76: f32, %out: f32):
        %118 = arith.mulf %in, %in_75 : f32
        %119 = arith.mulf %118, %in_76 : f32
        linalg.yield %119 : f32
      } -> tensor<1x768xf32>
      %53 = arith.index_cast %44 : i64 to index
      %extracted_slice_41 = tensor.extract_slice %5[%53, %c0, %c0] [1, 768, 768] [1, 1, 1] : tensor<12x768x768xf32> to tensor<768x768xf32>
      %54 = arith.index_cast %44 : i64 to index
      %extracted_slice_42 = tensor.extract_slice %7[%54, %c0, %c0] [1, 768, 768] [1, 1, 1] : tensor<12x768x768xf32> to tensor<768x768xf32>
      %55 = arith.index_cast %44 : i64 to index
      %extracted_slice_43 = tensor.extract_slice %9[%55, %c0, %c0] [1, 768, 768] [1, 1, 1] : tensor<12x768x768xf32> to tensor<768x768xf32>
      %56 = tensor.empty() : tensor<1x768xf32>
      %57 = linalg.generic {indexing_maps = [affine_map<(d0, d1) -> ()>, affine_map<(d0, d1) -> (d0, d1)>], iterator_types = ["parallel", "parallel"]} ins(%cst_12 : f32) outs(%56 : tensor<1x768xf32>) {
      ^bb0(%in: f32, %out: f32):
        linalg.yield %in : f32
      } -> tensor<1x768xf32>
      %58 = linalg.generic {indexing_maps = [affine_map<(d0, d1, d2) -> (d0, d2)>, affine_map<(d0, d1, d2) -> (d2, d1)>, affine_map<(d0, d1, d2) -> (d0, d1)>], iterator_types = ["parallel", "parallel", "reduction"]} ins(%52, %extracted_slice_41 : tensor<1x768xf32>, tensor<768x768xf32>) outs(%57 : tensor<1x768xf32>) {
      ^bb0(%in: f32, %in_75: f32, %out: f32):
        %118 = arith.mulf %in, %in_75 : f32
        %119 = arith.addf %out, %118 : f32
        linalg.yield %119 : f32
      } -> tensor<1x768xf32>
      %59 = tensor.empty() : tensor<1x768xf32>
      %60 = linalg.generic {indexing_maps = [affine_map<(d0, d1) -> ()>, affine_map<(d0, d1) -> (d0, d1)>], iterator_types = ["parallel", "parallel"]} ins(%cst_12 : f32) outs(%59 : tensor<1x768xf32>) {
      ^bb0(%in: f32, %out: f32):
        linalg.yield %in : f32
      } -> tensor<1x768xf32>
      %61 = linalg.generic {indexing_maps = [affine_map<(d0, d1, d2) -> (d0, d2)>, affine_map<(d0, d1, d2) -> (d2, d1)>, affine_map<(d0, d1, d2) -> (d0, d1)>], iterator_types = ["parallel", "parallel", "reduction"]} ins(%52, %extracted_slice_42 : tensor<1x768xf32>, tensor<768x768xf32>) outs(%60 : tensor<1x768xf32>) {
      ^bb0(%in: f32, %in_75: f32, %out: f32):
        %118 = arith.mulf %in, %in_75 : f32
        %119 = arith.addf %out, %118 : f32
        linalg.yield %119 : f32
      } -> tensor<1x768xf32>
      %62 = tensor.empty() : tensor<1x768xf32>
      %63 = linalg.generic {indexing_maps = [affine_map<(d0, d1) -> ()>, affine_map<(d0, d1) -> (d0, d1)>], iterator_types = ["parallel", "parallel"]} ins(%cst_12 : f32) outs(%62 : tensor<1x768xf32>) {
      ^bb0(%in: f32, %out: f32):
        linalg.yield %in : f32
      } -> tensor<1x768xf32>
      %64 = linalg.generic {indexing_maps = [affine_map<(d0, d1, d2) -> (d0, d2)>, affine_map<(d0, d1, d2) -> (d2, d1)>, affine_map<(d0, d1, d2) -> (d0, d1)>], iterator_types = ["parallel", "parallel", "reduction"]} ins(%52, %extracted_slice_43 : tensor<1x768xf32>, tensor<768x768xf32>) outs(%63 : tensor<1x768xf32>) {
      ^bb0(%in: f32, %in_75: f32, %out: f32):
        %118 = arith.mulf %in, %in_75 : f32
        %119 = arith.addf %out, %118 : f32
        linalg.yield %119 : f32
      } -> tensor<1x768xf32>
      %reshape = tensor.reshape %58(%cst_2) : (tensor<1x768xf32>, tensor<3xi64>) -> tensor<1x12x64xf32>
      %65 = tensor.empty() : tensor<32xf32>
      %66 = tensor.empty() : tensor<32xf32>
      %67 = arith.uitofp %arg1 : i64 to f32
      %68:2 = linalg.generic {indexing_maps = [affine_map<(d0) -> (d0)>, affine_map<(d0) -> (d0)>], iterator_types = ["parallel"]} outs(%65, %66 : tensor<32xf32>, tensor<32xf32>) {
      ^bb0(%out: f32, %out_75: f32):
        %118 = linalg.index 0 : index
        %119 = arith.index_cast %118 : index to i64
        %120 = arith.uitofp %119 : i64 to f32
        %121 = arith.mulf %120, %cst_8 : f32
        %122 = arith.divf %121, %cst_9 : f32
        %123 = math.powf %cst_10, %122 : f32
        %124 = arith.mulf %67, %123 : f32
        %125 = math.cos %124 : f32
        %126 = math.sin %124 : f32
        linalg.yield %125, %126 : f32, f32
      } -> (tensor<32xf32>, tensor<32xf32>)
      %expanded = tensor.expand_shape %reshape [[0], [1], [2, 3]] output_shape [1, 12, 32, 2] : tensor<1x12x64xf32> into tensor<1x12x32x2xf32>
      %extracted_slice_44 = tensor.extract_slice %expanded[0, 0, 0, 0] [1, 12, 32, 1] [1, 1, 1, 1] : tensor<1x12x32x2xf32> to tensor<1x12x32x1xf32>
      %collapsed = tensor.collapse_shape %extracted_slice_44 [[0], [1], [2, 3]] : tensor<1x12x32x1xf32> into tensor<1x12x32xf32>
      %extracted_slice_45 = tensor.extract_slice %expanded[0, 0, 0, 1] [1, 12, 32, 1] [1, 1, 1, 1] : tensor<1x12x32x2xf32> to tensor<1x12x32x1xf32>
      %collapsed_46 = tensor.collapse_shape %extracted_slice_45 [[0], [1], [2, 3]] : tensor<1x12x32x1xf32> into tensor<1x12x32xf32>
      %69 = tensor.empty() : tensor<1x12x32xf32>
      %70:2 = linalg.generic {indexing_maps = [affine_map<(d0, d1, d2) -> (d0, d1, d2)>, affine_map<(d0, d1, d2) -> (d0, d1, d2)>, affine_map<(d0, d1, d2) -> (d2)>, affine_map<(d0, d1, d2) -> (d2)>, affine_map<(d0, d1, d2) -> (d0, d1, d2)>, affine_map<(d0, d1, d2) -> (d0, d1, d2)>], iterator_types = ["parallel", "parallel", "parallel"]} ins(%collapsed, %collapsed_46, %68#0, %68#1 : tensor<1x12x32xf32>, tensor<1x12x32xf32>, tensor<32xf32>, tensor<32xf32>) outs(%69, %69 : tensor<1x12x32xf32>, tensor<1x12x32xf32>) {
      ^bb0(%in: f32, %in_75: f32, %in_76: f32, %in_77: f32, %out: f32, %out_78: f32):
        %118 = arith.mulf %in, %in_76 : f32
        %119 = arith.mulf %in_75, %in_77 : f32
        %120 = arith.subf %118, %119 : f32
        %121 = arith.mulf %in_75, %in_76 : f32
        %122 = arith.mulf %in, %in_77 : f32
        %123 = arith.addf %121, %122 : f32
        linalg.yield %120, %123 : f32, f32
      } -> (tensor<1x12x32xf32>, tensor<1x12x32xf32>)
      %expanded_47 = tensor.expand_shape %70#0 [[0], [1], [2, 3]] output_shape [1, 12, 32, 1] : tensor<1x12x32xf32> into tensor<1x12x32x1xf32>
      %expanded_48 = tensor.expand_shape %70#1 [[0], [1], [2, 3]] output_shape [1, 12, 32, 1] : tensor<1x12x32xf32> into tensor<1x12x32x1xf32>
      %71 = tensor.empty() : tensor<1x12x32x2xf32>
      %inserted_slice = tensor.insert_slice %expanded_47 into %71[0, 0, 0, 0] [1, 12, 32, 1] [1, 1, 1, 1] : tensor<1x12x32x1xf32> into tensor<1x12x32x2xf32>
      %inserted_slice_49 = tensor.insert_slice %expanded_48 into %inserted_slice[0, 0, 0, 1] [1, 12, 32, 1] [1, 1, 1, 1] : tensor<1x12x32x1xf32> into tensor<1x12x32x2xf32>
      %collapsed_50 = tensor.collapse_shape %inserted_slice_49 [[0], [1], [2, 3]] : tensor<1x12x32x2xf32> into tensor<1x12x64xf32>
      %reshape_51 = tensor.reshape %collapsed_50(%cst_1) : (tensor<1x12x64xf32>, tensor<2xi64>) -> tensor<1x768xf32>
      %reshape_52 = tensor.reshape %61(%cst_2) : (tensor<1x768xf32>, tensor<3xi64>) -> tensor<1x12x64xf32>
      %72 = tensor.empty() : tensor<32xf32>
      %73 = tensor.empty() : tensor<32xf32>
      %74 = arith.uitofp %arg1 : i64 to f32
      %75:2 = linalg.generic {indexing_maps = [affine_map<(d0) -> (d0)>, affine_map<(d0) -> (d0)>], iterator_types = ["parallel"]} outs(%72, %73 : tensor<32xf32>, tensor<32xf32>) {
      ^bb0(%out: f32, %out_75: f32):
        %118 = linalg.index 0 : index
        %119 = arith.index_cast %118 : index to i64
        %120 = arith.uitofp %119 : i64 to f32
        %121 = arith.mulf %120, %cst_8 : f32
        %122 = arith.divf %121, %cst_9 : f32
        %123 = math.powf %cst_10, %122 : f32
        %124 = arith.mulf %74, %123 : f32
        %125 = math.cos %124 : f32
        %126 = math.sin %124 : f32
        linalg.yield %125, %126 : f32, f32
      } -> (tensor<32xf32>, tensor<32xf32>)
      %expanded_53 = tensor.expand_shape %reshape_52 [[0], [1], [2, 3]] output_shape [1, 12, 32, 2] : tensor<1x12x64xf32> into tensor<1x12x32x2xf32>
      %extracted_slice_54 = tensor.extract_slice %expanded_53[0, 0, 0, 0] [1, 12, 32, 1] [1, 1, 1, 1] : tensor<1x12x32x2xf32> to tensor<1x12x32x1xf32>
      %collapsed_55 = tensor.collapse_shape %extracted_slice_54 [[0], [1], [2, 3]] : tensor<1x12x32x1xf32> into tensor<1x12x32xf32>
      %extracted_slice_56 = tensor.extract_slice %expanded_53[0, 0, 0, 1] [1, 12, 32, 1] [1, 1, 1, 1] : tensor<1x12x32x2xf32> to tensor<1x12x32x1xf32>
      %collapsed_57 = tensor.collapse_shape %extracted_slice_56 [[0], [1], [2, 3]] : tensor<1x12x32x1xf32> into tensor<1x12x32xf32>
      %76 = tensor.empty() : tensor<1x12x32xf32>
      %77:2 = linalg.generic {indexing_maps = [affine_map<(d0, d1, d2) -> (d0, d1, d2)>, affine_map<(d0, d1, d2) -> (d0, d1, d2)>, affine_map<(d0, d1, d2) -> (d2)>, affine_map<(d0, d1, d2) -> (d2)>, affine_map<(d0, d1, d2) -> (d0, d1, d2)>, affine_map<(d0, d1, d2) -> (d0, d1, d2)>], iterator_types = ["parallel", "parallel", "parallel"]} ins(%collapsed_55, %collapsed_57, %75#0, %75#1 : tensor<1x12x32xf32>, tensor<1x12x32xf32>, tensor<32xf32>, tensor<32xf32>) outs(%76, %76 : tensor<1x12x32xf32>, tensor<1x12x32xf32>) {
      ^bb0(%in: f32, %in_75: f32, %in_76: f32, %in_77: f32, %out: f32, %out_78: f32):
        %118 = arith.mulf %in, %in_76 : f32
        %119 = arith.mulf %in_75, %in_77 : f32
        %120 = arith.subf %118, %119 : f32
        %121 = arith.mulf %in_75, %in_76 : f32
        %122 = arith.mulf %in, %in_77 : f32
        %123 = arith.addf %121, %122 : f32
        linalg.yield %120, %123 : f32, f32
      } -> (tensor<1x12x32xf32>, tensor<1x12x32xf32>)
      %expanded_58 = tensor.expand_shape %77#0 [[0], [1], [2, 3]] output_shape [1, 12, 32, 1] : tensor<1x12x32xf32> into tensor<1x12x32x1xf32>
      %expanded_59 = tensor.expand_shape %77#1 [[0], [1], [2, 3]] output_shape [1, 12, 32, 1] : tensor<1x12x32xf32> into tensor<1x12x32x1xf32>
      %78 = tensor.empty() : tensor<1x12x32x2xf32>
      %inserted_slice_60 = tensor.insert_slice %expanded_58 into %78[0, 0, 0, 0] [1, 12, 32, 1] [1, 1, 1, 1] : tensor<1x12x32x1xf32> into tensor<1x12x32x2xf32>
      %inserted_slice_61 = tensor.insert_slice %expanded_59 into %inserted_slice_60[0, 0, 0, 1] [1, 12, 32, 1] [1, 1, 1, 1] : tensor<1x12x32x1xf32> into tensor<1x12x32x2xf32>
      %collapsed_62 = tensor.collapse_shape %inserted_slice_61 [[0], [1], [2, 3]] : tensor<1x12x32x2xf32> into tensor<1x12x64xf32>
      %reshape_63 = tensor.reshape %collapsed_62(%cst_0) : (tensor<1x12x64xf32>, tensor<3xi64>) -> tensor<1x1x768xf32>
      %79 = arith.index_cast %44 : i64 to index
      %80 = arith.index_cast %arg1 : i64 to index
      %inserted_slice_64 = tensor.insert_slice %reshape_63 into %arg6[%79, %80, 0] [1, 1, 768] [1, 1, 1] : tensor<1x1x768xf32> into tensor<12x1024x768xf32>
      %reshape_65 = tensor.reshape %64(%cst_0) : (tensor<1x768xf32>, tensor<3xi64>) -> tensor<1x1x768xf32>
      %81 = arith.index_cast %44 : i64 to index
      %82 = arith.index_cast %arg1 : i64 to index
      %inserted_slice_66 = tensor.insert_slice %reshape_65 into %arg7[%81, %82, 0] [1, 1, 768] [1, 1, 1] : tensor<1x1x768xf32> into tensor<12x1024x768xf32>
      %83 = arith.index_cast %44 : i64 to index
      %extracted_slice_67 = tensor.extract_slice %inserted_slice_64[%83, %c0, %c0] [1, 1024, 768] [1, 1, 1] : tensor<12x1024x768xf32> to tensor<1024x768xf32>
      %84 = arith.index_cast %44 : i64 to index
      %extracted_slice_68 = tensor.extract_slice %inserted_slice_66[%84, %c0, %c0] [1, 1024, 768] [1, 1, 1] : tensor<12x1024x768xf32> to tensor<1024x768xf32>
      %85 = scf.for %arg8 = %c0 to %c12 step %c1 iter_args(%arg9 = %cst_7) -> (tensor<1x12x64xf32>) {
        %118 = arith.index_cast %arg8 : index to i64
        %119 = arith.muli %118, %c64_i64 : i64
        %120 = arith.index_cast %119 : i64 to index
        %extracted_slice_75 = tensor.extract_slice %reshape_51[%c0, %120] [1, 64] [1, 1] : tensor<1x768xf32> to tensor<1x64xf32>
        %121 = arith.index_cast %119 : i64 to index
        %extracted_slice_76 = tensor.extract_slice %extracted_slice_67[%c0, %121] [1024, 64] [1, 1] : tensor<1024x768xf32> to tensor<1024x64xf32>
        %122 = tensor.empty() : tensor<64x1024xf32>
        %123 = linalg.generic {indexing_maps = [affine_map<(d0, d1) -> (d1, d0)>, affine_map<(d0, d1) -> (d0, d1)>], iterator_types = ["parallel", "parallel"]} ins(%extracted_slice_76 : tensor<1024x64xf32>) outs(%122 : tensor<64x1024xf32>) {
        ^bb0(%in: f32, %out: f32):
          linalg.yield %in : f32
        } -> tensor<64x1024xf32>
        %124 = arith.index_cast %26 : i64 to index
        %extracted_slice_77 = tensor.extract_slice %123[0, 0] [64, %124] [1, 1] : tensor<64x1024xf32> to tensor<64x?xf32>
        %125 = tensor.empty(%124) : tensor<1x?xf32>
        %126 = linalg.generic {indexing_maps = [affine_map<(d0, d1) -> ()>, affine_map<(d0, d1) -> (d0, d1)>], iterator_types = ["parallel", "parallel"]} ins(%cst_12 : f32) outs(%125 : tensor<1x?xf32>) {
        ^bb0(%in: f32, %out: f32):
          linalg.yield %in : f32
        } -> tensor<1x?xf32>
        %127 = linalg.generic {indexing_maps = [affine_map<(d0, d1, d2) -> (d0, d2)>, affine_map<(d0, d1, d2) -> (d2, d1)>, affine_map<(d0, d1, d2) -> (d0, d1)>], iterator_types = ["parallel", "parallel", "reduction"]} ins(%extracted_slice_75, %extracted_slice_77 : tensor<1x64xf32>, tensor<64x?xf32>) outs(%126 : tensor<1x?xf32>) {
        ^bb0(%in: f32, %in_82: f32, %out: f32):
          %147 = arith.mulf %in, %in_82 : f32
          %148 = arith.addf %out, %147 : f32
          linalg.yield %148 : f32
        } -> tensor<1x?xf32>
        %128 = tensor.empty() : tensor<1x1024xf32>
        %129 = linalg.generic {indexing_maps = [affine_map<(d0, d1) -> ()>, affine_map<(d0, d1) -> (d0, d1)>], iterator_types = ["parallel", "parallel"]} ins(%cst_6 : f32) outs(%128 : tensor<1x1024xf32>) {
        ^bb0(%in: f32, %out: f32):
          linalg.yield %in : f32
        } -> tensor<1x1024xf32>
        %inserted_slice_78 = tensor.insert_slice %127 into %129[0, 0] [1, %124] [1, 1] : tensor<1x?xf32> into tensor<1x1024xf32>
        %130 = tensor.empty() : tensor<1x1024xf32>
        %131 = linalg.generic {indexing_maps = [affine_map<(d0, d1) -> (d0, d1)>, affine_map<(d0, d1) -> (d0, d1)>], iterator_types = ["parallel", "parallel"]} ins(%inserted_slice_78 : tensor<1x1024xf32>) outs(%130 : tensor<1x1024xf32>) {
        ^bb0(%in: f32, %out: f32):
          %147 = arith.mulf %in, %cst_13 : f32
          linalg.yield %147 : f32
        } -> tensor<1x1024xf32>
        %132 = tensor.empty() : tensor<1xf32>
        %133 = linalg.generic {indexing_maps = [affine_map<(d0) -> ()>, affine_map<(d0) -> (d0)>], iterator_types = ["parallel"]} ins(%cst_5 : f32) outs(%132 : tensor<1xf32>) {
        ^bb0(%in: f32, %out: f32):
          linalg.yield %in : f32
        } -> tensor<1xf32>
        %134 = linalg.generic {indexing_maps = [affine_map<(d0, d1) -> (d0, d1)>, affine_map<(d0, d1) -> (d0)>], iterator_types = ["parallel", "reduction"]} ins(%131 : tensor<1x1024xf32>) outs(%133 : tensor<1xf32>) {
        ^bb0(%in: f32, %out: f32):
          %147 = arith.maxnumf %in, %out : f32
          linalg.yield %147 : f32
        } -> tensor<1xf32>
        %135 = tensor.empty() : tensor<1x1024xf32>
        %136 = linalg.generic {indexing_maps = [affine_map<(d0, d1) -> (d0, d1)>, affine_map<(d0, d1) -> (d0)>, affine_map<(d0, d1) -> (d0, d1)>], iterator_types = ["parallel", "parallel"]} ins(%131, %134 : tensor<1x1024xf32>, tensor<1xf32>) outs(%135 : tensor<1x1024xf32>) {
        ^bb0(%in: f32, %in_82: f32, %out: f32):
          %147 = arith.subf %in, %in_82 : f32
          %148 = math.exp %147 : f32
          linalg.yield %148 : f32
        } -> tensor<1x1024xf32>
        %137 = tensor.empty() : tensor<1xf32>
        %138 = linalg.generic {indexing_maps = [affine_map<(d0) -> ()>, affine_map<(d0) -> (d0)>], iterator_types = ["parallel"]} ins(%cst_12 : f32) outs(%137 : tensor<1xf32>) {
        ^bb0(%in: f32, %out: f32):
          linalg.yield %in : f32
        } -> tensor<1xf32>
        %139 = linalg.generic {indexing_maps = [affine_map<(d0, d1) -> (d0, d1)>, affine_map<(d0, d1) -> (d0)>], iterator_types = ["parallel", "parallel"]} ins(%136 : tensor<1x1024xf32>) outs(%138 : tensor<1xf32>) {
        ^bb0(%in: f32, %out: f32):
          %147 = arith.addf %in, %out : f32
          linalg.yield %147 : f32
        } -> tensor<1xf32>
        %140 = tensor.empty() : tensor<1x1024xf32>
        %141 = linalg.generic {indexing_maps = [affine_map<(d0, d1) -> (d0, d1)>, affine_map<(d0, d1) -> (d0)>, affine_map<(d0, d1) -> (d0, d1)>], iterator_types = ["parallel", "parallel"]} ins(%136, %139 : tensor<1x1024xf32>, tensor<1xf32>) outs(%140 : tensor<1x1024xf32>) {
        ^bb0(%in: f32, %in_82: f32, %out: f32):
          %147 = arith.divf %in, %in_82 : f32
          linalg.yield %147 : f32
        } -> tensor<1x1024xf32>
        %142 = arith.index_cast %119 : i64 to index
        %extracted_slice_79 = tensor.extract_slice %extracted_slice_68[%c0, %142] [1024, 64] [1, 1] : tensor<1024x768xf32> to tensor<1024x64xf32>
        %143 = tensor.empty() : tensor<1x64xf32>
        %144 = linalg.generic {indexing_maps = [affine_map<(d0, d1) -> ()>, affine_map<(d0, d1) -> (d0, d1)>], iterator_types = ["parallel", "parallel"]} ins(%cst_12 : f32) outs(%143 : tensor<1x64xf32>) {
        ^bb0(%in: f32, %out: f32):
          linalg.yield %in : f32
        } -> tensor<1x64xf32>
        %145 = linalg.generic {indexing_maps = [affine_map<(d0, d1, d2) -> (d0, d2)>, affine_map<(d0, d1, d2) -> (d2, d1)>, affine_map<(d0, d1, d2) -> (d0, d1)>], iterator_types = ["parallel", "parallel", "reduction"]} ins(%141, %extracted_slice_79 : tensor<1x1024xf32>, tensor<1024x64xf32>) outs(%144 : tensor<1x64xf32>) {
        ^bb0(%in: f32, %in_82: f32, %out: f32):
          %147 = arith.mulf %in, %in_82 : f32
          %148 = arith.addf %out, %147 : f32
          linalg.yield %148 : f32
        } -> tensor<1x64xf32>
        %reshape_80 = tensor.reshape %145(%cst) : (tensor<1x64xf32>, tensor<3xi64>) -> tensor<1x1x64xf32>
        %146 = arith.index_cast %118 : i64 to index
        %inserted_slice_81 = tensor.insert_slice %reshape_80 into %arg9[%c0, %146, 0] [1, 1, 64] [1, 1, 1] : tensor<1x1x64xf32> into tensor<1x12x64xf32>
        scf.yield %inserted_slice_81 : tensor<1x12x64xf32>
      }
      %reshape_69 = tensor.reshape %85(%cst_1) : (tensor<1x12x64xf32>, tensor<2xi64>) -> tensor<1x768xf32>
      %86 = arith.index_cast %44 : i64 to index
      %extracted_slice_70 = tensor.extract_slice %11[%86, %c0, %c0] [1, 768, 768] [1, 1, 1] : tensor<12x768x768xf32> to tensor<768x768xf32>
      %87 = tensor.empty() : tensor<1x768xf32>
      %88 = linalg.generic {indexing_maps = [affine_map<(d0, d1) -> ()>, affine_map<(d0, d1) -> (d0, d1)>], iterator_types = ["parallel", "parallel"]} ins(%cst_12 : f32) outs(%87 : tensor<1x768xf32>) {
      ^bb0(%in: f32, %out: f32):
        linalg.yield %in : f32
      } -> tensor<1x768xf32>
      %89 = linalg.generic {indexing_maps = [affine_map<(d0, d1, d2) -> (d0, d2)>, affine_map<(d0, d1, d2) -> (d2, d1)>, affine_map<(d0, d1, d2) -> (d0, d1)>], iterator_types = ["parallel", "parallel", "reduction"]} ins(%reshape_69, %extracted_slice_70 : tensor<1x768xf32>, tensor<768x768xf32>) outs(%88 : tensor<1x768xf32>) {
      ^bb0(%in: f32, %in_75: f32, %out: f32):
        %118 = arith.mulf %in, %in_75 : f32
        %119 = arith.addf %out, %118 : f32
        linalg.yield %119 : f32
      } -> tensor<1x768xf32>
      %90 = tensor.empty() : tensor<1x768xf32>
      %91 = linalg.generic {indexing_maps = [affine_map<(d0, d1) -> (d0, d1)>, affine_map<(d0, d1) -> (d0, d1)>, affine_map<(d0, d1) -> (d0, d1)>], iterator_types = ["parallel", "parallel"]} ins(%arg5, %89 : tensor<1x768xf32>, tensor<1x768xf32>) outs(%90 : tensor<1x768xf32>) {
      ^bb0(%in: f32, %in_75: f32, %out: f32):
        %118 = arith.addf %in, %in_75 : f32
        linalg.yield %118 : f32
      } -> tensor<1x768xf32>
      %92 = arith.index_cast %44 : i64 to index
      %extracted_slice_71 = tensor.extract_slice %13[%92, %c0] [1, 768] [1, 1] : tensor<12x768xf32> to tensor<768xf32>
      %93 = tensor.empty() : tensor<1xf32>
      %94 = linalg.generic {indexing_maps = [affine_map<(d0) -> ()>, affine_map<(d0) -> (d0)>], iterator_types = ["parallel"]} ins(%cst_12 : f32) outs(%93 : tensor<1xf32>) {
      ^bb0(%in: f32, %out: f32):
        linalg.yield %in : f32
      } -> tensor<1xf32>
      %95 = linalg.generic {indexing_maps = [affine_map<(d0, d1) -> (d0, d1)>, affine_map<(d0, d1) -> (d0)>], iterator_types = ["parallel", "reduction"]} ins(%91 : tensor<1x768xf32>) outs(%94 : tensor<1xf32>) {
      ^bb0(%in: f32, %out: f32):
        %118 = arith.mulf %in, %in : f32
        %119 = arith.addf %out, %118 : f32
        linalg.yield %119 : f32
      } -> tensor<1xf32>
      %96 = tensor.empty() : tensor<1xf32>
      %97 = linalg.generic {indexing_maps = [affine_map<(d0) -> (d0)>, affine_map<(d0) -> (d0)>], iterator_types = ["parallel"]} ins(%95 : tensor<1xf32>) outs(%96 : tensor<1xf32>) {
      ^bb0(%in: f32, %out: f32):
        %118 = arith.divf %in, %cst_3 : f32
        %119 = arith.addf %118, %cst_11 : f32
        %120 = math.rsqrt %119 : f32
        linalg.yield %120 : f32
      } -> tensor<1xf32>
      %98 = tensor.empty() : tensor<1x768xf32>
      %99 = linalg.generic {indexing_maps = [affine_map<(d0, d1) -> (d0, d1)>, affine_map<(d0, d1) -> (d0)>, affine_map<(d0, d1) -> (d1)>, affine_map<(d0, d1) -> (d0, d1)>], iterator_types = ["parallel", "parallel"]} ins(%91, %97, %extracted_slice_71 : tensor<1x768xf32>, tensor<1xf32>, tensor<768xf32>) outs(%98 : tensor<1x768xf32>) {
      ^bb0(%in: f32, %in_75: f32, %in_76: f32, %out: f32):
        %118 = arith.mulf %in, %in_75 : f32
        %119 = arith.mulf %118, %in_76 : f32
        linalg.yield %119 : f32
      } -> tensor<1x768xf32>
      %100 = arith.index_cast %44 : i64 to index
      %extracted_slice_72 = tensor.extract_slice %15[%100, %c0, %c0] [1, 768, 2048] [1, 1, 1] : tensor<12x768x2048xf32> to tensor<768x2048xf32>
      %101 = arith.index_cast %44 : i64 to index
      %extracted_slice_73 = tensor.extract_slice %19[%101, %c0, %c0] [1, 768, 2048] [1, 1, 1] : tensor<12x768x2048xf32> to tensor<768x2048xf32>
      %102 = tensor.empty() : tensor<1x2048xf32>
      %103 = linalg.generic {indexing_maps = [affine_map<(d0, d1) -> ()>, affine_map<(d0, d1) -> (d0, d1)>], iterator_types = ["parallel", "parallel"]} ins(%cst_12 : f32) outs(%102 : tensor<1x2048xf32>) {
      ^bb0(%in: f32, %out: f32):
        linalg.yield %in : f32
      } -> tensor<1x2048xf32>
      %104 = linalg.generic {indexing_maps = [affine_map<(d0, d1, d2) -> (d0, d2)>, affine_map<(d0, d1, d2) -> (d2, d1)>, affine_map<(d0, d1, d2) -> (d0, d1)>], iterator_types = ["parallel", "parallel", "reduction"]} ins(%99, %extracted_slice_72 : tensor<1x768xf32>, tensor<768x2048xf32>) outs(%103 : tensor<1x2048xf32>) {
      ^bb0(%in: f32, %in_75: f32, %out: f32):
        %118 = arith.mulf %in, %in_75 : f32
        %119 = arith.addf %out, %118 : f32
        linalg.yield %119 : f32
      } -> tensor<1x2048xf32>
      %105 = tensor.empty() : tensor<1x2048xf32>
      %106 = linalg.generic {indexing_maps = [affine_map<(d0, d1) -> ()>, affine_map<(d0, d1) -> (d0, d1)>], iterator_types = ["parallel", "parallel"]} ins(%cst_12 : f32) outs(%105 : tensor<1x2048xf32>) {
      ^bb0(%in: f32, %out: f32):
        linalg.yield %in : f32
      } -> tensor<1x2048xf32>
      %107 = linalg.generic {indexing_maps = [affine_map<(d0, d1, d2) -> (d0, d2)>, affine_map<(d0, d1, d2) -> (d2, d1)>, affine_map<(d0, d1, d2) -> (d0, d1)>], iterator_types = ["parallel", "parallel", "reduction"]} ins(%99, %extracted_slice_73 : tensor<1x768xf32>, tensor<768x2048xf32>) outs(%106 : tensor<1x2048xf32>) {
      ^bb0(%in: f32, %in_75: f32, %out: f32):
        %118 = arith.mulf %in, %in_75 : f32
        %119 = arith.addf %out, %118 : f32
        linalg.yield %119 : f32
      } -> tensor<1x2048xf32>
      %108 = tensor.empty() : tensor<1x2048xf32>
      %109 = linalg.generic {indexing_maps = [affine_map<(d0, d1) -> (d0, d1)>, affine_map<(d0, d1) -> (d0, d1)>], iterator_types = ["parallel", "parallel"]} ins(%104 : tensor<1x2048xf32>) outs(%108 : tensor<1x2048xf32>) {
      ^bb0(%in: f32, %out: f32):
        %118 = arith.negf %in : f32
        %119 = math.exp %118 : f32
        %120 = arith.addf %119, %cst_4 : f32
        %121 = arith.divf %in, %120 : f32
        linalg.yield %121 : f32
      } -> tensor<1x2048xf32>
      %110 = tensor.empty() : tensor<1x2048xf32>
      %111 = linalg.generic {indexing_maps = [affine_map<(d0, d1) -> (d0, d1)>, affine_map<(d0, d1) -> (d0, d1)>, affine_map<(d0, d1) -> (d0, d1)>], iterator_types = ["parallel", "parallel"]} ins(%109, %107 : tensor<1x2048xf32>, tensor<1x2048xf32>) outs(%110 : tensor<1x2048xf32>) {
      ^bb0(%in: f32, %in_75: f32, %out: f32):
        %118 = arith.mulf %in, %in_75 : f32
        linalg.yield %118 : f32
      } -> tensor<1x2048xf32>
      %112 = arith.index_cast %44 : i64 to index
      %extracted_slice_74 = tensor.extract_slice %17[%112, %c0, %c0] [1, 2048, 768] [1, 1, 1] : tensor<12x2048x768xf32> to tensor<2048x768xf32>
      %113 = tensor.empty() : tensor<1x768xf32>
      %114 = linalg.generic {indexing_maps = [affine_map<(d0, d1) -> ()>, affine_map<(d0, d1) -> (d0, d1)>], iterator_types = ["parallel", "parallel"]} ins(%cst_12 : f32) outs(%113 : tensor<1x768xf32>) {
      ^bb0(%in: f32, %out: f32):
        linalg.yield %in : f32
      } -> tensor<1x768xf32>
      %115 = linalg.generic {indexing_maps = [affine_map<(d0, d1, d2) -> (d0, d2)>, affine_map<(d0, d1, d2) -> (d2, d1)>, affine_map<(d0, d1, d2) -> (d0, d1)>], iterator_types = ["parallel", "parallel", "reduction"]} ins(%111, %extracted_slice_74 : tensor<1x2048xf32>, tensor<2048x768xf32>) outs(%114 : tensor<1x768xf32>) {
      ^bb0(%in: f32, %in_75: f32, %out: f32):
        %118 = arith.mulf %in, %in_75 : f32
        %119 = arith.addf %out, %118 : f32
        linalg.yield %119 : f32
      } -> tensor<1x768xf32>
      %116 = tensor.empty() : tensor<1x768xf32>
      %117 = linalg.generic {indexing_maps = [affine_map<(d0, d1) -> (d0, d1)>, affine_map<(d0, d1) -> (d0, d1)>, affine_map<(d0, d1) -> (d0, d1)>], iterator_types = ["parallel", "parallel"]} ins(%91, %115 : tensor<1x768xf32>, tensor<1x768xf32>) outs(%116 : tensor<1x768xf32>) {
      ^bb0(%in: f32, %in_75: f32, %out: f32):
        %118 = arith.addf %in, %in_75 : f32
        linalg.yield %118 : f32
      } -> tensor<1x768xf32>
      scf.yield %117, %inserted_slice_64, %inserted_slice_66 : tensor<1x768xf32>, tensor<12x1024x768xf32>, tensor<12x1024x768xf32>
    }
    %29 = tensor.empty() : tensor<1xf32>
    %30 = linalg.generic {indexing_maps = [affine_map<(d0) -> ()>, affine_map<(d0) -> (d0)>], iterator_types = ["parallel"]} ins(%cst_12 : f32) outs(%29 : tensor<1xf32>) {
    ^bb0(%in: f32, %out: f32):
      linalg.yield %in : f32
    } -> tensor<1xf32>
    %31 = linalg.generic {indexing_maps = [affine_map<(d0, d1) -> (d0, d1)>, affine_map<(d0, d1) -> (d0)>], iterator_types = ["parallel", "reduction"]} ins(%28#0 : tensor<1x768xf32>) outs(%30 : tensor<1xf32>) {
    ^bb0(%in: f32, %out: f32):
      %44 = arith.mulf %in, %in : f32
      %45 = arith.addf %out, %44 : f32
      linalg.yield %45 : f32
    } -> tensor<1xf32>
    %32 = tensor.empty() : tensor<1xf32>
    %33 = linalg.generic {indexing_maps = [affine_map<(d0) -> (d0)>, affine_map<(d0) -> (d0)>], iterator_types = ["parallel"]} ins(%31 : tensor<1xf32>) outs(%32 : tensor<1xf32>) {
    ^bb0(%in: f32, %out: f32):
      %44 = arith.divf %in, %cst_3 : f32
      %45 = arith.addf %44, %cst_11 : f32
      %46 = math.rsqrt %45 : f32
      linalg.yield %46 : f32
    } -> tensor<1xf32>
    %34 = tensor.empty() : tensor<1x768xf32>
    %35 = linalg.generic {indexing_maps = [affine_map<(d0, d1) -> (d0, d1)>, affine_map<(d0, d1) -> (d0)>, affine_map<(d0, d1) -> (d1)>, affine_map<(d0, d1) -> (d0, d1)>], iterator_types = ["parallel", "parallel"]} ins(%28#0, %33, %21 : tensor<1x768xf32>, tensor<1xf32>, tensor<768xf32>) outs(%34 : tensor<1x768xf32>) {
    ^bb0(%in: f32, %in_40: f32, %in_41: f32, %out: f32):
      %44 = arith.mulf %in, %in_40 : f32
      %45 = arith.mulf %44, %in_41 : f32
      linalg.yield %45 : f32
    } -> tensor<1x768xf32>
    %36 = tensor.empty() : tensor<1x32000xf32>
…
    %1114 = llvm.add %1113, %1103 : i64
    %1115 = llvm.getelementptr %1112[%1114] : (!llvm.ptr, i64) -> !llvm.ptr, f32
    %1116 = llvm.load %1115 : !llvm.ptr -> f32
    %1117 = llvm.getelementptr %1082[%1087] : (!llvm.ptr, i64) -> !llvm.ptr, f32
    %1118 = llvm.mul %1101, %37 : i64
    %1119 = llvm.add %1118, %1103 : i64
    %1120 = llvm.getelementptr %1117[%1119] : (!llvm.ptr, i64) -> !llvm.ptr, f32
    %1121 = llvm.load %1120 : !llvm.ptr -> f32
    %1122 = llvm.fmul %1111, %1116  : f32
    %1123 = llvm.fadd %1121, %1122  : f32
    llvm.store %1123, %1120 : f32, !llvm.ptr
    %1124 = llvm.add %1105, %59 : i64
    llvm.br ^bb269(%1124 : i64)
  ^bb271:  // pred: ^bb269
    %1125 = llvm.add %1103, %59 : i64
    llvm.br ^bb267(%1125 : i64)
  ^bb272:  // pred: ^bb267
    %1126 = llvm.add %1101, %59 : i64
    llvm.br ^bb265(%1126 : i64)
  ^bb273:  // pred: ^bb265
    %1127 = llvm.add %1092, %35 : i64
    llvm.br ^bb263(%1127 : i64)
  ^bb274:  // pred: ^bb263
    %1128 = llvm.add %1087, %35 : i64
    llvm.br ^bb261(%1128 : i64)
  ^bb275:  // pred: ^bb261
    %1129 = llvm.add %1085, %34 : i64
    llvm.br ^bb259(%1129 : i64)
  ^bb276:  // pred: ^bb259
    %1130 = llvm.mul %765, %37 : i64
    %1131 = llvm.mul %752, %37 : i64
    %1132 = llvm.mul %1131, %117 : i64
    %1133 = llvm.getelementptr %762[%1130] : (!llvm.ptr, i64) -> !llvm.ptr, f32
    "llvm.intr.memcpy"(%1133, %1082, %1132) <{isVolatile = false}> : (!llvm.ptr, !llvm.ptr, i64) -> ()
    %1134 = llvm.add %765, %59 : i64
    llvm.br ^bb146(%1134 : i64)
  ^bb277:  // pred: ^bb146
    %1135 = llvm.call @malloc(%135) : (i64) -> !llvm.ptr
    %1136 = llvm.ptrtoint %1135 : !llvm.ptr to i64
    %1137 = llvm.add %1136, %83 : i64
    %1138 = llvm.urem %1137, %37  : i64
    %1139 = llvm.sub %1137, %1138 : i64
    %1140 = llvm.inttoptr %1139 : i64 to !llvm.ptr
    llvm.br ^bb278(%61 : i64)
  ^bb278(%1141: i64):  // 2 preds: ^bb277, ^bb285
    %1142 = llvm.icmp "slt" %1141, %36 : i64
    llvm.cond_br %1142, ^bb279, ^bb286
  ^bb279:  // pred: ^bb278
    llvm.br ^bb280(%61 : i64)
  ^bb280(%1143: i64):  // 2 preds: ^bb279, ^bb284
    %1144 = llvm.icmp "slt" %1143, %59 : i64
    llvm.cond_br %1144, ^bb281, ^bb285
  ^bb281:  // pred: ^bb280
    llvm.br ^bb282(%61 : i64)
  ^bb282(%1145: i64):  // 2 preds: ^bb281, ^bb283
    %1146 = llvm.icmp "slt" %1145, %35 : i64
    llvm.cond_br %1146, ^bb283, ^bb284
  ^bb283:  // pred: ^bb282
    %1147 = llvm.getelementptr %1140[%1141] : (!llvm.ptr, i64) -> !llvm.ptr, f32
    %1148 = llvm.mul %1143, %36 : i64
    %1149 = llvm.add %1148, %1145 : i64
    %1150 = llvm.getelementptr %1147[%1149] : (!llvm.ptr, i64) -> !llvm.ptr, f32
    llvm.store %49, %1150 : f32, !llvm.ptr
    %1151 = llvm.add %1145, %59 : i64
    llvm.br ^bb282(%1151 : i64)
  ^bb284:  // pred: ^bb282
    %1152 = llvm.add %1143, %59 : i64
    llvm.br ^bb280(%1152 : i64)
  ^bb285:  // pred: ^bb280
    %1153 = llvm.add %1141, %35 : i64
    llvm.br ^bb278(%1153 : i64)
  ^bb286:  // pred: ^bb278
    llvm.br ^bb287(%61 : i64)
  ^bb287(%1154: i64):  // 2 preds: ^bb286, ^bb306
    %1155 = llvm.icmp "slt" %1154, %36 : i64
    llvm.cond_br %1155, ^bb288, ^bb307
  ^bb288:  // pred: ^bb287
    llvm.br ^bb289(%61 : i64)
  ^bb289(%1156: i64):  // 2 preds: ^bb288, ^bb305
    %1157 = llvm.icmp "slt" %1156, %36 : i64
    llvm.cond_br %1157, ^bb290, ^bb306
  ^bb290:  // pred: ^bb289
    llvm.br ^bb291(%61 : i64)
  ^bb291(%1158: i64):  // 2 preds: ^bb290, ^bb304
    %1159 = llvm.icmp "slt" %1158, %34 : i64
    llvm.cond_br %1159, ^bb292, ^bb305
  ^bb292:  // pred: ^bb291
    %1160 = llvm.add %1154, %1158 : i64
    llvm.br ^bb293(%61 : i64)
  ^bb293(%1161: i64):  // 2 preds: ^bb292, ^bb303
    %1162 = llvm.icmp "slt" %1161, %34 : i64
    llvm.cond_br %1162, ^bb294, ^bb304
  ^bb294:  // pred: ^bb293
    %1163 = llvm.add %1156, %1161 : i64
    %1164 = llvm.extractvalue %97[1] : !llvm.struct<(ptr, ptr, i64, array<3 x i64>, array<3 x i64>)> 
    %1165 = llvm.mul %154, %7 : i64
    %1166 = llvm.mul %1156, %36 : i64
    %1167 = llvm.add %1165, %1166 : i64
    %1168 = llvm.mul %1161, %36 : i64
    %1169 = llvm.add %1167, %1168 : i64
    %1170 = llvm.add %1169, %1154 : i64
    %1171 = llvm.add %1170, %1158 : i64
    llvm.br ^bb295(%61 : i64)
  ^bb295(%1172: i64):  // 2 preds: ^bb294, ^bb302
    %1173 = llvm.icmp "slt" %1172, %59 : i64
    llvm.cond_br %1173, ^bb296, ^bb303
  ^bb296:  // pred: ^bb295
    llvm.br ^bb297(%61 : i64)
  ^bb297(%1174: i64):  // 2 preds: ^bb296, ^bb301
    %1175 = llvm.icmp "slt" %1174, %35 : i64
    llvm.cond_br %1175, ^bb298, ^bb302
  ^bb298:  // pred: ^bb297
    llvm.br ^bb299(%61 : i64)
  ^bb299(%1176: i64):  // 2 preds: ^bb298, ^bb300
    %1177 = llvm.icmp "slt" %1176, %35 : i64
    llvm.cond_br %1177, ^bb300, ^bb301
  ^bb300:  // pred: ^bb299
    %1178 = llvm.getelementptr %762[%1163] : (!llvm.ptr, i64) -> !llvm.ptr, f32
    %1179 = llvm.mul %1172, %36 : i64
    %1180 = llvm.add %1179, %1176 : i64
    %1181 = llvm.getelementptr %1178[%1180] : (!llvm.ptr, i64) -> !llvm.ptr, f32
    %1182 = llvm.load %1181 : !llvm.ptr -> f32
    %1183 = llvm.getelementptr %1164[%1171] : (!llvm.ptr, i64) -> !llvm.ptr, f32
    %1184 = llvm.mul %1176, %36 : i64
    %1185 = llvm.add %1184, %1174 : i64
    %1186 = llvm.getelementptr %1183[%1185] : (!llvm.ptr, i64) -> !llvm.ptr, f32
    %1187 = llvm.load %1186 : !llvm.ptr -> f32
    %1188 = llvm.getelementptr %1140[%1160] : (!llvm.ptr, i64) -> !llvm.ptr, f32
    %1189 = llvm.add %1179, %1174 : i64
    %1190 = llvm.getelementptr %1188[%1189] : (!llvm.ptr, i64) -> !llvm.ptr, f32
    %1191 = llvm.load %1190 : !llvm.ptr -> f32
    %1192 = llvm.fmul %1182, %1187  : f32
    %1193 = llvm.fadd %1191, %1192  : f32
    llvm.store %1193, %1190 : f32, !llvm.ptr
    %1194 = llvm.add %1176, %59 : i64
    llvm.br ^bb299(%1194 : i64)
  ^bb301:  // pred: ^bb299
    %1195 = llvm.add %1174, %59 : i64
    llvm.br ^bb297(%1195 : i64)
  ^bb302:  // pred: ^bb297
    %1196 = llvm.add %1172, %59 : i64
    llvm.br ^bb295(%1196 : i64)
  ^bb303:  // pred: ^bb295
    %1197 = llvm.add %1161, %35 : i64
    llvm.br ^bb293(%1197 : i64)
  ^bb304:  // pred: ^bb293
    %1198 = llvm.add %1158, %35 : i64
    llvm.br ^bb291(%1198 : i64)
  ^bb305:  // pred: ^bb291
    %1199 = llvm.add %1156, %34 : i64
    llvm.br ^bb289(%1199 : i64)
  ^bb306:  // pred: ^bb289
    %1200 = llvm.add %1154, %34 : i64
    llvm.br ^bb287(%1200 : i64)
  ^bb307:  // pred: ^bb287
    %1201 = llvm.call @malloc(%135) : (i64) -> !llvm.ptr
    %1202 = llvm.ptrtoint %1201 : !llvm.ptr to i64
    %1203 = llvm.add %1202, %83 : i64
    %1204 = llvm.urem %1203, %37  : i64
    %1205 = llvm.sub %1203, %1204 : i64
    %1206 = llvm.inttoptr %1205 : i64 to !llvm.ptr
    llvm.br ^bb308(%61 : i64)
  ^bb308(%1207: i64):  // 2 preds: ^bb307, ^bb315
    %1208 = llvm.icmp "slt" %1207, %36 : i64
    llvm.cond_br %1208, ^bb309, ^bb316
  ^bb309:  // pred: ^bb308
    %1209 = llvm.extractvalue %155[1] : !llvm.struct<(ptr, ptr, i64, array<2 x i64>, array<2 x i64>)> 
    llvm.br ^bb310(%61 : i64)
  ^bb310(%1210: i64):  // 2 preds: ^bb309, ^bb314
    %1211 = llvm.icmp "slt" %1210, %59 : i64
    llvm.cond_br %1211, ^bb311, ^bb315
  ^bb311:  // pred: ^bb310
    llvm.br ^bb312(%61 : i64)
  ^bb312(%1212: i64):  // 2 preds: ^bb311, ^bb313
    %1213 = llvm.icmp "slt" %1212, %35 : i64
    llvm.cond_br %1213, ^bb313, ^bb314
  ^bb313:  // pred: ^bb312
    %1214 = llvm.getelementptr %1209[%1207] : (!llvm.ptr, i64) -> !llvm.ptr, f32
    %1215 = llvm.mul %1210, %36 : i64
    %1216 = llvm.add %1215, %1212 : i64
    %1217 = llvm.getelementptr %1214[%1216] : (!llvm.ptr, i64) -> !llvm.ptr, f32
    %1218 = llvm.load %1217 : !llvm.ptr -> f32
    %1219 = llvm.getelementptr %1140[%1207] : (!llvm.ptr, i64) -> !llvm.ptr, f32
    %1220 = llvm.getelementptr %1219[%1216] : (!llvm.ptr, i64) -> !llvm.ptr, f32
    %1221 = llvm.load %1220 : !llvm.ptr -> f32
    %1222 = llvm.fadd %1218, %1221  : f32
    %1223 = llvm.getelementptr %1206[%1207] : (!llvm.ptr, i64) -> !llvm.ptr, f32
    %1224 = llvm.getelementptr %1223[%1216] : (!llvm.ptr, i64) -> !llvm.ptr, f32
    llvm.store %1222, %1224 : f32, !llvm.ptr
    %1225 = llvm.add %1212, %59 : i64
    llvm.br ^bb312(%1225 : i64)
  ^bb314:  // pred: ^bb312
    %1226 = llvm.add %1210, %59 : i64
    llvm.br ^bb310(%1226 : i64)
  ^bb315:  // pred: ^bb310
    %1227 = llvm.add %1207, %35 : i64
    llvm.br ^bb308(%1227 : i64)
  ^bb316:  // pred: ^bb308
    %1228 = llvm.call @malloc(%157) : (i64) -> !llvm.ptr
    %1229 = llvm.ptrtoint %1228 : !llvm.ptr to i64
    %1230 = llvm.add %1229, %83 : i64
    %1231 = llvm.urem %1230, %37  : i64
    %1232 = llvm.sub %1230, %1231 : i64
    %1233 = llvm.inttoptr %1232 : i64 to !llvm.ptr
    llvm.br ^bb317(%61 : i64)
  ^bb317(%1234: i64):  // 2 preds: ^bb316, ^bb318
    %1235 = llvm.icmp "slt" %1234, %59 : i64
    llvm.cond_br %1235, ^bb318, ^bb319
  ^bb318:  // pred: ^bb317
    %1236 = llvm.getelementptr %1233[%1234] : (!llvm.ptr, i64) -> !llvm.ptr, f32
    llvm.store %49, %1236 : f32, !llvm.ptr
    %1237 = llvm.add %1234, %59 : i64
    llvm.br ^bb317(%1237 : i64)
  ^bb319:  // pred: ^bb317
    llvm.br ^bb320(%61 : i64)
  ^bb320(%1238: i64):  // 2 preds: ^bb319, ^bb330
    %1239 = llvm.icmp "slt" %1238, %36 : i64
    llvm.cond_br %1239, ^bb321, ^bb331
  ^bb321:  // pred: ^bb320
    llvm.br ^bb322(%61 : i64)
  ^bb322(%1240: i64):  // 2 preds: ^bb321, ^bb329
    %1241 = llvm.icmp "slt" %1240, %34 : i64
    llvm.cond_br %1241, ^bb323, ^bb330
  ^bb323:  // pred: ^bb322
    %1242 = llvm.add %1238, %1240 : i64
    llvm.br ^bb324(%61 : i64)
  ^bb324(%1243: i64):  // 2 preds: ^bb323, ^bb328
    %1244 = llvm.icmp "slt" %1243, %59 : i64
    llvm.cond_br %1244, ^bb325, ^bb329
  ^bb325:  // pred: ^bb324
    llvm.br ^bb326(%61 : i64)
  ^bb326(%1245: i64):  // 2 preds: ^bb325, ^bb327
    %1246 = llvm.icmp "slt" %1245, %35 : i64
    llvm.cond_br %1246, ^bb327, ^bb328
  ^bb327:  // pred: ^bb326
    %1247 = llvm.getelementptr %1206[%1242] : (!llvm.ptr, i64) -> !llvm.ptr, f32
    %1248 = llvm.mul %1243, %36 : i64
    %1249 = llvm.add %1248, %1245 : i64
    %1250 = llvm.getelementptr %1247[%1249] : (!llvm.ptr, i64) -> !llvm.ptr, f32
    %1251 = llvm.load %1250 : !llvm.ptr -> f32
    %1252 = llvm.getelementptr %1233[%1243] : (!llvm.ptr, i64) -> !llvm.ptr, f32
    %1253 = llvm.load %1252 : !llvm.ptr -> f32
    %1254 = llvm.fmul %1251, %1251  : f32
    %1255 = llvm.fadd %1253, %1254  : f32
    llvm.store %1255, %1252 : f32, !llvm.ptr
    %1256 = llvm.add %1245, %59 : i64
    llvm.br ^bb326(%1256 : i64)
  ^bb328:  // pred: ^bb326
    %1257 = llvm.add %1243, %59 : i64
    llvm.br ^bb324(%1257 : i64)
  ^bb329:  // pred: ^bb324
    %1258 = llvm.add %1240, %35 : i64
    llvm.br ^bb322(%1258 : i64)
  ^bb330:  // pred: ^bb322
    %1259 = llvm.add %1238, %34 : i64
    llvm.br ^bb320(%1259 : i64)
  ^bb331:  // pred: ^bb320
    %1260 = llvm.call @malloc(%157) : (i64) -> !llvm.ptr
    %1261 = llvm.ptrtoint %1260 : !llvm.ptr to i64
    %1262 = llvm.add %1261, %83 : i64
    %1263 = llvm.urem %1262, %37  : i64
    %1264 = llvm.sub %1262, %1263 : i64
    %1265 = llvm.inttoptr %1264 : i64 to !llvm.ptr
    llvm.br ^bb332(%61 : i64)
  ^bb332(%1266: i64):  // 2 preds: ^bb331, ^bb333
    %1267 = llvm.icmp "slt" %1266, %59 : i64
    llvm.cond_br %1267, ^bb333, ^bb334
  ^bb333:  // pred: ^bb332
    %1268 = llvm.getelementptr %1233[%1266] : (!llvm.ptr, i64) -> !llvm.ptr, f32
    %1269 = llvm.load %1268 : !llvm.ptr -> f32
    %1270 = llvm.fdiv %1269, %41  : f32
    %1271 = llvm.fadd %1270, %48  : f32
    %1272 = llvm.intr.sqrt(%1271)  : (f32) -> f32
    %1273 = llvm.fdiv %42, %1272  : f32
    %1274 = llvm.getelementptr %1265[%1266] : (!llvm.ptr, i64) -> !llvm.ptr, f32
    llvm.store %1273, %1274 : f32, !llvm.ptr
    %1275 = llvm.add %1266, %59 : i64
    llvm.br ^bb332(%1275 : i64)
  ^bb334:  // pred: ^bb332
    %1276 = llvm.call @malloc(%135) : (i64) -> !llvm.ptr
    %1277 = llvm.ptrtoint %1276 : !llvm.ptr to i64
    %1278 = llvm.add %1277, %83 : i64
    %1279 = llvm.urem %1278, %37  : i64
    %1280 = llvm.sub %1278, %1279 : i64
    %1281 = llvm.inttoptr %1280 : i64 to !llvm.ptr
    llvm.br ^bb335(%61 : i64)
  ^bb335(%1282: i64):  // 2 preds: ^bb334, ^bb342
    %1283 = llvm.icmp "slt" %1282, %36 : i64
    llvm.cond_br %1283, ^bb336, ^bb343
  ^bb336:  // pred: ^bb335
    %1284 = llvm.extractvalue %98[1] : !llvm.struct<(ptr, ptr, i64, array<2 x i64>, array<2 x i64>)> 
    %1285 = llvm.mul %154, %36 : i64
    %1286 = llvm.add %1285, %1282 : i64
    llvm.br ^bb337(%61 : i64)
  ^bb337(%1287: i64):  // 2 preds: ^bb336, ^bb341
    %1288 = llvm.icmp "slt" %1287, %59 : i64
    llvm.cond_br %1288, ^bb338, ^bb342
  ^bb338:  // pred: ^bb337
    llvm.br ^bb339(%61 : i64)
  ^bb339(%1289: i64):  // 2 preds: ^bb338, ^bb340
    %1290 = llvm.icmp "slt" %1289, %35 : i64
    llvm.cond_br %1290, ^bb340, ^bb341
  ^bb340:  // pred: ^bb339
    %1291 = llvm.getelementptr %1206[%1282] : (!llvm.ptr, i64) -> !llvm.ptr, f32
    %1292 = llvm.mul %1287, %36 : i64
    %1293 = llvm.add %1292, %1289 : i64
    %1294 = llvm.getelementptr %1291[%1293] : (!llvm.ptr, i64) -> !llvm.ptr, f32
    %1295 = llvm.load %1294 : !llvm.ptr -> f32
    %1296 = llvm.getelementptr %1265[%1287] : (!llvm.ptr, i64) -> !llvm.ptr, f32
    %1297 = llvm.load %1296 : !llvm.ptr -> f32
    %1298 = llvm.getelementptr %1284[%1286] : (!llvm.ptr, i64) -> !llvm.ptr, f32
    %1299 = llvm.getelementptr %1298[%1289] : (!llvm.ptr, i64) -> !llvm.ptr, f32
    %1300 = llvm.load %1299 : !llvm.ptr -> f32
    %1301 = llvm.fmul %1295, %1297  : f32
    %1302 = llvm.fmul %1301, %1300  : f32
    %1303 = llvm.getelementptr %1281[%1282] : (!llvm.ptr, i64) -> !llvm.ptr, f32
    %1304 = llvm.getelementptr %1303[%1293] : (!llvm.ptr, i64) -> !llvm.ptr, f32
    llvm.store %1302, %1304 : f32, !llvm.ptr
    %1305 = llvm.add %1289, %59 : i64
    llvm.br ^bb339(%1305 : i64)
  ^bb341:  // pred: ^bb339
    %1306 = llvm.add %1287, %59 : i64
    llvm.br ^bb337(%1306 : i64)
  ^bb342:  // pred: ^bb337
    %1307 = llvm.add %1282, %35 : i64
    llvm.br ^bb335(%1307 : i64)
  ^bb343:  // pred: ^bb335
    %1308 = llvm.getelementptr %33[2048] : (!llvm.ptr) -> !llvm.ptr, f32
    %1309 = llvm.ptrtoint %1308 : !llvm.ptr to i64
    %1310 = llvm.add %1309, %37 : i64
    %1311 = llvm.call @malloc(%1310) : (i64) -> !llvm.ptr
    %1312 = llvm.ptrtoint %1311 : !llvm.ptr to i64
    %1313 = llvm.add %1312, %83 : i64
    %1314 = llvm.urem %1313, %37  : i64
    %1315 = llvm.sub %1313, %1314 : i64
    %1316 = llvm.inttoptr %1315 : i64 to !llvm.ptr
    llvm.br ^bb344(%61 : i64)
  ^bb344(%1317: i64):  // 2 preds: ^bb343, ^bb351
    %1318 = llvm.icmp "slt" %1317, %39 : i64
    llvm.cond_br %1318, ^bb345, ^bb352
  ^bb345:  // pred: ^bb344
    llvm.br ^bb346(%61 : i64)
  ^bb346(%1319: i64):  // 2 preds: ^bb345, ^bb350
    %1320 = llvm.icmp "slt" %1319, %59 : i64
    llvm.cond_br %1320, ^bb347, ^bb351
  ^bb347:  // pred: ^bb346
    llvm.br ^bb348(%61 : i64)
  ^bb348(%1321: i64):  // 2 preds: ^bb347, ^bb349
    %1322 = llvm.icmp "slt" %1321, %35 : i64
    llvm.cond_br %1322, ^bb349, ^bb350
  ^bb349:  // pred: ^bb348
    %1323 = llvm.getelementptr %1316[%1317] : (!llvm.ptr, i64) -> !llvm.ptr, f32
    %1324 = llvm.mul %1319, %39 : i64
    %1325 = llvm.add %1324, %1321 : i64
    %1326 = llvm.getelementptr %1323[%1325] : (!llvm.ptr, i64) -> !llvm.ptr, f32
    llvm.store %49, %1326 : f32, !llvm.ptr
    %1327 = llvm.add %1321, %59 : i64
    llvm.br ^bb348(%1327 : i64)
  ^bb350:  // pred: ^bb348
    %1328 = llvm.add %1319, %59 : i64
    llvm.br ^bb346(%1328 : i64)
  ^bb351:  // pred: ^bb346
    %1329 = llvm.add %1317, %35 : i64
    llvm.br ^bb344(%1329 : i64)
  ^bb352:  // pred: ^bb344
    llvm.br ^bb353(%61 : i64)
  ^bb353(%1330: i64):  // 2 preds: ^bb352, ^bb372
    %1331 = llvm.icmp "slt" %1330, %39 : i64
    llvm.cond_br %1331, ^bb354, ^bb373
  ^bb354:  // pred: ^bb353
    llvm.br ^bb355(%61 : i64)
  ^bb355(%1332: i64):  // 2 preds: ^bb354, ^bb371
    %1333 = llvm.icmp "slt" %1332, %36 : i64
    llvm.cond_br %1333, ^bb356, ^bb372
  ^bb356:  // pred: ^bb355
    llvm.br ^bb357(%61 : i64)
  ^bb357(%1334: i64):  // 2 preds: ^bb356, ^bb370
    %1335 = llvm.icmp "slt" %1334, %34 : i64
    llvm.cond_br %1335, ^bb358, ^bb371
  ^bb358:  // pred: ^bb357
    %1336 = llvm.add %1330, %1334 : i64
    llvm.br ^bb359(%61 : i64)
  ^bb359(%1337: i64):  // 2 preds: ^bb358, ^bb369
    %1338 = llvm.icmp "slt" %1337, %34 : i64
    llvm.cond_br %1338, ^bb360, ^bb370
  ^bb360:  // pred: ^bb359
    %1339 = llvm.add %1332, %1337 : i64
    %1340 = llvm.extractvalue %99[1] : !llvm.struct<(ptr, ptr, i64, array<3 x i64>, array<3 x i64>)> 
    %1341 = llvm.mul %154, %0 : i64
    %1342 = llvm.mul %1332, %39 : i64
    %1343 = llvm.add %1341, %1342 : i64
    %1344 = llvm.mul %1337, %39 : i64
    %1345 = llvm.add %1343, %1344 : i64
    %1346 = llvm.add %1345, %1330 : i64
    %1347 = llvm.add %1346, %1334 : i64
    llvm.br ^bb361(%61 : i64)
  ^bb361(%1348: i64):  // 2 preds: ^bb360, ^bb368
    %1349 = llvm.icmp "slt" %1348, %59 : i64
    llvm.cond_br %1349, ^bb362, ^bb369
  ^bb362:  // pred: ^bb361
    llvm.br ^bb363(%61 : i64)
  ^bb363(%1350: i64):  // 2 preds: ^bb362, ^bb367
    %1351 = llvm.icmp "slt" %1350, %35 : i64
    llvm.cond_br %1351, ^bb364, ^bb368
  ^bb364:  // pred: ^bb363
    llvm.br ^bb365(%61 : i64)
  ^bb365(%1352: i64):  // 2 preds: ^bb364, ^bb366
    %1353 = llvm.icmp "slt" %1352, %35 : i64
    llvm.cond_br %1353, ^bb366, ^bb367
  ^bb366:  // pred: ^bb365
    %1354 = llvm.getelementptr %1281[%1339] : (!llvm.ptr, i64) -> !llvm.ptr, f32
    %1355 = llvm.mul %1348, %36 : i64
    %1356 = llvm.add %1355, %1352 : i64
    %1357 = llvm.getelementptr %1354[%1356] : (!llvm.ptr, i64) -> !llvm.ptr, f32
    %1358 = llvm.load %1357 : !llvm.ptr -> f32
    %1359 = llvm.getelementptr %1340[%1347] : (!llvm.ptr, i64) -> !llvm.ptr, f32
    %1360 = llvm.mul %1352, %39 : i64
    %1361 = llvm.add %1360, %1350 : i64
    %1362 = llvm.getelementptr %1359[%1361] : (!llvm.ptr, i64) -> !llvm.ptr, f32
    %1363 = llvm.load %1362 : !llvm.ptr -> f32
    %1364 = llvm.getelementptr %1316[%1336] : (!llvm.ptr, i64) -> !llvm.ptr, f32
    %1365 = llvm.mul %1348, %39 : i64
    %1366 = llvm.add %1365, %1350 : i64
    %1367 = llvm.getelementptr %1364[%1366] : (!llvm.ptr, i64) -> !llvm.ptr, f32
    %1368 = llvm.load %1367 : !llvm.ptr -> f32
    %1369 = llvm.fmul %1358, %1363  : f32
    %1370 = llvm.fadd %1368, %1369  : f32
    llvm.store %1370, %1367 : f32, !llvm.ptr
    %1371 = llvm.add %1352, %59 : i64
    llvm.br ^bb365(%1371 : i64)
  ^bb367:  // pred: ^bb365
    %1372 = llvm.add %1350, %59 : i64
    llvm.br ^bb363(%1372 : i64)
  ^bb368:  // pred: ^bb363
    %1373 = llvm.add %1348, %59 : i64
    llvm.br ^bb361(%1373 : i64)
  ^bb369:  // pred: ^bb361
    %1374 = llvm.add %1337, %35 : i64
    llvm.br ^bb359(%1374 : i64)
  ^bb370:  // pred: ^bb359
    %1375 = llvm.add %1334, %35 : i64
    llvm.br ^bb357(%1375 : i64)
  ^bb371:  // pred: ^bb357
    %1376 = llvm.add %1332, %34 : i64
    llvm.br ^bb355(%1376 : i64)
  ^bb372:  // pred: ^bb355
    %1377 = llvm.add %1330, %34 : i64
    llvm.br ^bb353(%1377 : i64)
  ^bb373:  // pred: ^bb353
    %1378 = llvm.call @malloc(%1310) : (i64) -> !llvm.ptr
    %1379 = llvm.ptrtoint %1378 : !llvm.ptr to i64
    %1380 = llvm.add %1379, %83 : i64
    %1381 = llvm.urem %1380, %37  : i64
    %1382 = llvm.sub %1380, %1381 : i64
    %1383 = llvm.inttoptr %1382 : i64 to !llvm.ptr
    llvm.br ^bb374(%61 : i64)
  ^bb374(%1384: i64):  // 2 preds: ^bb373, ^bb381
    %1385 = llvm.icmp "slt" %1384, %39 : i64
    llvm.cond_br %1385, ^bb375, ^bb382
  ^bb375:  // pred: ^bb374
    llvm.br ^bb376(%61 : i64)
  ^bb376(%1386: i64):  // 2 preds: ^bb375, ^bb380
    %1387 = llvm.icmp "slt" %1386, %59 : i64
    llvm.cond_br %1387, ^bb377, ^bb381
  ^bb377:  // pred: ^bb376
    llvm.br ^bb378(%61 : i64)
  ^bb378(%1388: i64):  // 2 preds: ^bb377, ^bb379
    %1389 = llvm.icmp "slt" %1388, %35 : i64
    llvm.cond_br %1389, ^bb379, ^bb380
  ^bb379:  // pred: ^bb378
    %1390 = llvm.getelementptr %1383[%1384] : (!llvm.ptr, i64) -> !llvm.ptr, f32
    %1391 = llvm.mul %1386, %39 : i64
    %1392 = llvm.add %1391, %1388 : i64
    %1393 = llvm.getelementptr %1390[%1392] : (!llvm.ptr, i64) -> !llvm.ptr, f32
    llvm.store %49, %1393 : f32, !llvm.ptr
    %1394 = llvm.add %1388, %59 : i64
    llvm.br ^bb378(%1394 : i64)
  ^bb380:  // pred: ^bb378
    %1395 = llvm.add %1386, %59 : i64
    llvm.br ^bb376(%1395 : i64)
  ^bb381:  // pred: ^bb376
    %1396 = llvm.add %1384, %35 : i64
    llvm.br ^bb374(%1396 : i64)
  ^bb382:  // pred: ^bb374
    llvm.br ^bb383(%61 : i64)
  ^bb383(%1397: i64):  // 2 preds: ^bb382, ^bb402
    %1398 = llvm.icmp "slt" %1397, %39 : i64
    llvm.cond_br %1398, ^bb384, ^bb403
  ^bb384:  // pred: ^bb383
    llvm.br ^bb385(%61 : i64)
  ^bb385(%1399: i64):  // 2 preds: ^bb384, ^bb401
    %1400 = llvm.icmp "slt" %1399, %36 : i64
    llvm.cond_br %1400, ^bb386, ^bb402
  ^bb386:  // pred: ^bb385
    llvm.br ^bb387(%61 : i64)
  ^bb387(%1401: i64):  // 2 preds: ^bb386, ^bb400
    %1402 = llvm.icmp "slt" %1401, %34 : i64
    llvm.cond_br %1402, ^bb388, ^bb401
  ^bb388:  // pred: ^bb387
    %1403 = llvm.add %1397, %1401 : i64
    llvm.br ^bb389(%61 : i64)
  ^bb389(%1404: i64):  // 2 preds: ^bb388, ^bb399
    %1405 = llvm.icmp "slt" %1404, %34 : i64
    llvm.cond_br %1405, ^bb390, ^bb400
  ^bb390:  // pred: ^bb389
    %1406 = llvm.add %1399, %1404 : i64
    %1407 = llvm.extractvalue %101[1] : !llvm.struct<(ptr, ptr, i64, array<3 x i64>, array<3 x i64>)> 
    %1408 = llvm.mul %154, %0 : i64
    %1409 = llvm.mul %1399, %39 : i64
    %1410 = llvm.add %1408, %1409 : i64
    %1411 = llvm.mul %1404, %39 : i64
    %1412 = llvm.add %1410, %1411 : i64
    %1413 = llvm.add %1412, %1397 : i64
    %1414 = llvm.add %1413, %1401 : i64
    llvm.br ^bb391(%61 : i64)
  ^bb391(%1415: i64):  // 2 preds: ^bb390, ^bb398
    %1416 = llvm.icmp "slt" %1415, %59 : i64
    llvm.cond_br %1416, ^bb392, ^bb399
  ^bb392:  // pred: ^bb391
    llvm.br ^bb393(%61 : i64)
  ^bb393(%1417: i64):  // 2 preds: ^bb392, ^bb397
    %1418 = llvm.icmp "slt" %1417, %35 : i64
    llvm.cond_br %1418, ^bb394, ^bb398
  ^bb394:  // pred: ^bb393
    llvm.br ^bb395(%61 : i64)
  ^bb395(%1419: i64):  // 2 preds: ^bb394, ^bb396
    %1420 = llvm.icmp "slt" %1419, %35 : i64
    llvm.cond_br %1420, ^bb396, ^bb397
  ^bb396:  // pred: ^bb395
    %1421 = llvm.getelementptr %1281[%1406] : (!llvm.ptr, i64) -> !llvm.ptr, f32
    %1422 = llvm.mul %1415, %36 : i64
    %1423 = llvm.add %1422, %1419 : i64
    %1424 = llvm.getelementptr %1421[%1423] : (!llvm.ptr, i64) -> !llvm.ptr, f32
    %1425 = llvm.load %1424 : !llvm.ptr -> f32
    %1426 = llvm.getelementptr %1407[%1414] : (!llvm.ptr, i64) -> !llvm.ptr, f32
    %1427 = llvm.mul %1419, %39 : i64
    %1428 = llvm.add %1427, %1417 : i64
    %1429 = llvm.getelementptr %1426[%1428] : (!llvm.ptr, i64) -> !llvm.ptr, f32
    %1430 = llvm.load %1429 : !llvm.ptr -> f32
    %1431 = llvm.getelementptr %1383[%1403] : (!llvm.ptr, i64) -> !llvm.ptr, f32
    %1432 = llvm.mul %1415, %39 : i64
    %1433 = llvm.add %1432, %1417 : i64
    %1434 = llvm.getelementptr %1431[%1433] : (!llvm.ptr, i64) -> !llvm.ptr, f32
    %1435 = llvm.load %1434 : !llvm.ptr -> f32
    %1436 = llvm.fmul %1425, %1430  : f32
    %1437 = llvm.fadd %1435, %1436  : f32
    llvm.store %1437, %1434 : f32, !llvm.ptr
    %1438 = llvm.add %1419, %59 : i64
    llvm.br ^bb395(%1438 : i64)
  ^bb397:  // pred: ^bb395
    %1439 = llvm.add %1417, %59 : i64
    llvm.br ^bb393(%1439 : i64)
  ^bb398:  // pred: ^bb393
    %1440 = llvm.add %1415, %59 : i64
    llvm.br ^bb391(%1440 : i64)
  ^bb399:  // pred: ^bb391
    %1441 = llvm.add %1404, %35 : i64
    llvm.br ^bb389(%1441 : i64)
  ^bb400:  // pred: ^bb389
    %1442 = llvm.add %1401, %35 : i64
    llvm.br ^bb387(%1442 : i64)
  ^bb401:  // pred: ^bb387
    %1443 = llvm.add %1399, %34 : i64
    llvm.br ^bb385(%1443 : i64)
  ^bb402:  // pred: ^bb385
    %1444 = llvm.add %1397, %34 : i64
    llvm.br ^bb383(%1444 : i64)
  ^bb403:  // pred: ^bb383
    %1445 = llvm.call @malloc(%1310) : (i64) -> !llvm.ptr
    %1446 = llvm.ptrtoint %1445 : !llvm.ptr to i64
    %1447 = llvm.add %1446, %83 : i64
    %1448 = llvm.urem %1447, %37  : i64
    %1449 = llvm.sub %1447, %1448 : i64
    %1450 = llvm.inttoptr %1449 : i64 to !llvm.ptr
    llvm.br ^bb404(%61 : i64)
  ^bb404(%1451: i64):  // 2 preds: ^bb403, ^bb411
    %1452 = llvm.icmp "slt" %1451, %39 : i64
    llvm.cond_br %1452, ^bb405, ^bb412
  ^bb405:  // pred: ^bb404
    llvm.br ^bb406(%61 : i64)
  ^bb406(%1453: i64):  // 2 preds: ^bb405, ^bb410
    %1454 = llvm.icmp "slt" %1453, %59 : i64
    llvm.cond_br %1454, ^bb407, ^bb411
  ^bb407:  // pred: ^bb406
    llvm.br ^bb408(%61 : i64)
  ^bb408(%1455: i64):  // 2 preds: ^bb407, ^bb409
    %1456 = llvm.icmp "slt" %1455, %35 : i64
    llvm.cond_br %1456, ^bb409, ^bb410
  ^bb409:  // pred: ^bb408
    %1457 = llvm.getelementptr %1316[%1451] : (!llvm.ptr, i64) -> !llvm.ptr, f32
    %1458 = llvm.mul %1453, %39 : i64
    %1459 = llvm.add %1458, %1455 : i64
    %1460 = llvm.getelementptr %1457[%1459] : (!llvm.ptr, i64) -> !llvm.ptr, f32
    %1461 = llvm.load %1460 : !llvm.ptr -> f32
    %1462 = llvm.fneg %1461  : f32
    %1463 = llvm.intr.exp(%1462)  : (f32) -> f32
    %1464 = llvm.fadd %1463, %42  : f32
    %1465 = llvm.fdiv %1461, %1464  : f32
    %1466 = llvm.getelementptr %1450[%1451] : (!llvm.ptr, i64) -> !llvm.ptr, f32
    %1467 = llvm.getelementptr %1466[%1459] : (!llvm.ptr, i64) -> !llvm.ptr, f32
    llvm.store %1465, %1467 : f32, !llvm.ptr
    %1468 = llvm.add %1455, %59 : i64
    llvm.br ^bb408(%1468 : i64)
  ^bb410:  // pred: ^bb408
    %1469 = llvm.add %1453, %59 : i64
    llvm.br ^bb406(%1469 : i64)
  ^bb411:  // pred: ^bb406
    %1470 = llvm.add %1451, %35 : i64
    llvm.br ^bb404(%1470 : i64)
  ^bb412:  // pred: ^bb404
    %1471 = llvm.call @malloc(%1310) : (i64) -> !llvm.ptr
    %1472 = llvm.ptrtoint %1471 : !llvm.ptr to i64
    %1473 = llvm.add %1472, %83 : i64
    %1474 = llvm.urem %1473, %37  : i64
    %1475 = llvm.sub %1473, %1474 : i64
    %1476 = llvm.inttoptr %1475 : i64 to !llvm.ptr
    llvm.br ^bb413(%61 : i64)
  ^bb413(%1477: i64):  // 2 preds: ^bb412, ^bb420
    %1478 = llvm.icmp "slt" %1477, %39 : i64
    llvm.cond_br %1478, ^bb414, ^bb421
  ^bb414:  // pred: ^bb413
    llvm.br ^bb415(%61 : i64)
  ^bb415(%1479: i64):  // 2 preds: ^bb414, ^bb419
    %1480 = llvm.icmp "slt" %1479, %59 : i64
    llvm.cond_br %1480, ^bb416, ^bb420
  ^bb416:  // pred: ^bb415
    llvm.br ^bb417(%61 : i64)
  ^bb417(%1481: i64):  // 2 preds: ^bb416, ^bb418
    %1482 = llvm.icmp "slt" %1481, %35 : i64
    llvm.cond_br %1482, ^bb418, ^bb419
  ^bb418:  // pred: ^bb417
    %1483 = llvm.getelementptr %1450[%1477] : (!llvm.ptr, i64) -> !llvm.ptr, f32
    %1484 = llvm.mul %1479, %39 : i64
    %1485 = llvm.add %1484, %1481 : i64
    %1486 = llvm.getelementptr %1483[%1485] : (!llvm.ptr, i64) -> !llvm.ptr, f32
    %1487 = llvm.load %1486 : !llvm.ptr -> f32
    %1488 = llvm.getelementptr %1383[%1477] : (!llvm.ptr, i64) -> !llvm.ptr, f32
    %1489 = llvm.getelementptr %1488[%1485] : (!llvm.ptr, i64) -> !llvm.ptr, f32
    %1490 = llvm.load %1489 : !llvm.ptr -> f32
    %1491 = llvm.fmul %1487, %1490  : f32
    %1492 = llvm.getelementptr %1476[%1477] : (!llvm.ptr, i64) -> !llvm.ptr, f32
    %1493 = llvm.getelementptr %1492[%1485] : (!llvm.ptr, i64) -> !llvm.ptr, f32
    llvm.store %1491, %1493 : f32, !llvm.ptr
    %1494 = llvm.add %1481, %59 : i64
    llvm.br ^bb417(%1494 : i64)
  ^bb419:  // pred: ^bb417
    %1495 = llvm.add %1479, %59 : i64
    llvm.br ^bb415(%1495 : i64)
  ^bb420:  // pred: ^bb415
    %1496 = llvm.add %1477, %35 : i64
    llvm.br ^bb413(%1496 : i64)
  ^bb421:  // pred: ^bb413
    %1497 = llvm.call @malloc(%135) : (i64) -> !llvm.ptr
    %1498 = llvm.ptrtoint %1497 : !llvm.ptr to i64
    %1499 = llvm.add %1498, %83 : i64
    %1500 = llvm.urem %1499, %37  : i64
    %1501 = llvm.sub %1499, %1500 : i64
    %1502 = llvm.inttoptr %1501 : i64 to !llvm.ptr
    llvm.br ^bb422(%61 : i64)
  ^bb422(%1503: i64):  // 2 preds: ^bb421, ^bb429
    %1504 = llvm.icmp "slt" %1503, %36 : i64
    llvm.cond_br %1504, ^bb423, ^bb430
  ^bb423:  // pred: ^bb422
    llvm.br ^bb424(%61 : i64)
  ^bb424(%1505: i64):  // 2 preds: ^bb423, ^bb428
    %1506 = llvm.icmp "slt" %1505, %59 : i64
    llvm.cond_br %1506, ^bb425, ^bb429
  ^bb425:  // pred: ^bb424
    llvm.br ^bb426(%61 : i64)
  ^bb426(%1507: i64):  // 2 preds: ^bb425, ^bb427
    %1508 = llvm.icmp "slt" %1507, %35 : i64
    llvm.cond_br %1508, ^bb427, ^bb428
  ^bb427:  // pred: ^bb426
    %1509 = llvm.getelementptr %1502[%1503] : (!llvm.ptr, i64) -> !llvm.ptr, f32
    %1510 = llvm.mul %1505, %36 : i64
    %1511 = llvm.add %1510, %1507 : i64
    %1512 = llvm.getelementptr %1509[%1511] : (!llvm.ptr, i64) -> !llvm.ptr, f32
    llvm.store %49, %1512 : f32, !llvm.ptr
    %1513 = llvm.add %1507, %59 : i64
    llvm.br ^bb426(%1513 : i64)
  ^bb428:  // pred: ^bb426
    %1514 = llvm.add %1505, %59 : i64
    llvm.br ^bb424(%1514 : i64)
  ^bb429:  // pred: ^bb424
    %1515 = llvm.add %1503, %35 : i64
    llvm.br ^bb422(%1515 : i64)
  ^bb430:  // pred: ^bb422
    llvm.br ^bb431(%61 : i64)
  ^bb431(%1516: i64):  // 2 preds: ^bb430, ^bb450
    %1517 = llvm.icmp "slt" %1516, %36 : i64
    llvm.cond_br %1517, ^bb432, ^bb451
  ^bb432:  // pred: ^bb431
    llvm.br ^bb433(%61 : i64)
  ^bb433(%1518: i64):  // 2 preds: ^bb432, ^bb449
    %1519 = llvm.icmp "slt" %1518, %39 : i64
    llvm.cond_br %1519, ^bb434, ^bb450
  ^bb434:  // pred: ^bb433
    llvm.br ^bb435(%61 : i64)
  ^bb435(%1520: i64):  // 2 preds: ^bb434, ^bb448
    %1521 = llvm.icmp "slt" %1520, %34 : i64
    llvm.cond_br %1521, ^bb436, ^bb449
  ^bb436:  // pred: ^bb435
    %1522 = llvm.add %1516, %1520 : i64
    llvm.br ^bb437(%61 : i64)
  ^bb437(%1523: i64):  // 2 preds: ^bb436, ^bb447
    %1524 = llvm.icmp "slt" %1523, %34 : i64
    llvm.cond_br %1524, ^bb438, ^bb448
  ^bb438:  // pred: ^bb437
    %1525 = llvm.add %1518, %1523 : i64
    %1526 = llvm.extractvalue %100[1] : !llvm.struct<(ptr, ptr, i64, array<3 x i64>, array<3 x i64>)> 
    %1527 = llvm.mul %154, %0 : i64
    %1528 = llvm.mul %1518, %36 : i64
    %1529 = llvm.add %1527, %1528 : i64
    %1530 = llvm.mul %1523, %36 : i64
    %1531 = llvm.add %1529, %1530 : i64
    %1532 = llvm.add %1531, %1516 : i64
    %1533 = llvm.add %1532, %1520 : i64
    llvm.br ^bb439(%61 : i64)
  ^bb439(%1534: i64):  // 2 preds: ^bb438, ^bb446
    %1535 = llvm.icmp "slt" %1534, %59 : i64
    llvm.cond_br %1535, ^bb440, ^bb447
  ^bb440:  // pred: ^bb439
    llvm.br ^bb441(%61 : i64)
  ^bb441(%1536: i64):  // 2 preds: ^bb440, ^bb445
    %1537 = llvm.icmp "slt" %1536, %35 : i64
    llvm.cond_br %1537, ^bb442, ^bb446
  ^bb442:  // pred: ^bb441
    llvm.br ^bb443(%61 : i64)
  ^bb443(%1538: i64):  // 2 preds: ^bb442, ^bb444
    %1539 = llvm.icmp "slt" %1538, %35 : i64
    llvm.cond_br %1539, ^bb444, ^bb445
  ^bb444:  // pred: ^bb443
    %1540 = llvm.getelementptr %1476[%1525] : (!llvm.ptr, i64) -> !llvm.ptr, f32
    %1541 = llvm.mul %1534, %39 : i64
    %1542 = llvm.add %1541, %1538 : i64
    %1543 = llvm.getelementptr %1540[%1542] : (!llvm.ptr, i64) -> !llvm.ptr, f32
    %1544 = llvm.load %1543 : !llvm.ptr -> f32
    %1545 = llvm.getelementptr %1526[%1533] : (!llvm.ptr, i64) -> !llvm.ptr, f32
    %1546 = llvm.mul %1538, %36 : i64
    %1547 = llvm.add %1546, %1536 : i64
    %1548 = llvm.getelementptr %1545[%1547] : (!llvm.ptr, i64) -> !llvm.ptr, f32
    %1549 = llvm.load %1548 : !llvm.ptr -> f32
    %1550 = llvm.getelementptr %1502[%1522] : (!llvm.ptr, i64) -> !llvm.ptr, f32
    %1551 = llvm.mul %1534, %36 : i64
    %1552 = llvm.add %1551, %1536 : i64
    %1553 = llvm.getelementptr %1550[%1552] : (!llvm.ptr, i64) -> !llvm.ptr, f32
    %1554 = llvm.load %1553 : !llvm.ptr -> f32
    %1555 = llvm.fmul %1544, %1549  : f32
    %1556 = llvm.fadd %1554, %1555  : f32
    llvm.store %1556, %1553 : f32, !llvm.ptr
    %1557 = llvm.add %1538, %59 : i64
    llvm.br ^bb443(%1557 : i64)
  ^bb445:  // pred: ^bb443
    %1558 = llvm.add %1536, %59 : i64
    llvm.br ^bb441(%1558 : i64)
  ^bb446:  // pred: ^bb441
    %1559 = llvm.add %1534, %59 : i64
    llvm.br ^bb439(%1559 : i64)
  ^bb447:  // pred: ^bb439
    %1560 = llvm.add %1523, %35 : i64
    llvm.br ^bb437(%1560 : i64)
  ^bb448:  // pred: ^bb437
    %1561 = llvm.add %1520, %35 : i64
    llvm.br ^bb435(%1561 : i64)
  ^bb449:  // pred: ^bb435
    %1562 = llvm.add %1518, %34 : i64
    llvm.br ^bb433(%1562 : i64)
  ^bb450:  // pred: ^bb433
    %1563 = llvm.add %1516, %34 : i64
    llvm.br ^bb431(%1563 : i64)
  ^bb451:  // pred: ^bb431
    %1564 = llvm.call @malloc(%135) : (i64) -> !llvm.ptr
    %1565 = llvm.ptrtoint %1564 : !llvm.ptr to i64
    %1566 = llvm.add %1565, %83 : i64
    %1567 = llvm.urem %1566, %37  : i64
    %1568 = llvm.sub %1566, %1567 : i64
    %1569 = llvm.inttoptr %1568 : i64 to !llvm.ptr
    %1570 = llvm.insertvalue %1564, %8[0] : !llvm.struct<(ptr, ptr, i64, array<2 x i64>, array<2 x i64>)> 
    %1571 = llvm.insertvalue %1569, %1570[1] : !llvm.struct<(ptr, ptr, i64, array<2 x i64>, array<2 x i64>)> 
    %1572 = llvm.insertvalue %61, %1571[2] : !llvm.struct<(ptr, ptr, i64, array<2 x i64>, array<2 x i64>)> 
    %1573 = llvm.insertvalue %59, %1572[3, 0] : !llvm.struct<(ptr, ptr, i64, array<2 x i64>, array<2 x i64>)> 
    %1574 = llvm.insertvalue %36, %1573[3, 1] : !llvm.struct<(ptr, ptr, i64, array<2 x i64>, array<2 x i64>)> 
    %1575 = llvm.insertvalue %36, %1574[4, 0] : !llvm.struct<(ptr, ptr, i64, array<2 x i64>, array<2 x i64>)> 
    %1576 = llvm.insertvalue %59, %1575[4, 1] : !llvm.struct<(ptr, ptr, i64, array<2 x i64>, array<2 x i64>)> 
    llvm.br ^bb452(%61 : i64)
  ^bb452(%1577: i64):  // 2 preds: ^bb451, ^bb459
    %1578 = llvm.icmp "slt" %1577, %36 : i64
    llvm.cond_br %1578, ^bb453, ^bb460
  ^bb453:  // pred: ^bb452
    llvm.br ^bb454(%61 : i64)
  ^bb454(%1579: i64):  // 2 preds: ^bb453, ^bb458
    %1580 = llvm.icmp "slt" %1579, %59 : i64
    llvm.cond_br %1580, ^bb455, ^bb459
  ^bb455:  // pred: ^bb454
    llvm.br ^bb456(%61 : i64)
  ^bb456(%1581: i64):  // 2 preds: ^bb455, ^bb457
    %1582 = llvm.icmp "slt" %1581, %35 : i64
    llvm.cond_br %1582, ^bb457, ^bb458
  ^bb457:  // pred: ^bb456
    %1583 = llvm.getelementptr %1206[%1577] : (!llvm.ptr, i64) -> !llvm.ptr, f32
    %1584 = llvm.mul %1579, %36 : i64
    %1585 = llvm.add %1584, %1581 : i64
    %1586 = llvm.getelementptr %1583[%1585] : (!llvm.ptr, i64) -> !llvm.ptr, f32
    %1587 = llvm.load %1586 : !llvm.ptr -> f32
    %1588 = llvm.getelementptr %1502[%1577] : (!llvm.ptr, i64) -> !llvm.ptr, f32
    %1589 = llvm.getelementptr %1588[%1585] : (!llvm.ptr, i64) -> !llvm.ptr, f32
    %1590 = llvm.load %1589 : !llvm.ptr -> f32
    %1591 = llvm.fadd %1587, %1590  : f32
    %1592 = llvm.getelementptr %1569[%1577] : (!llvm.ptr, i64) -> !llvm.ptr, f32
    %1593 = llvm.getelementptr %1592[%1585] : (!llvm.ptr, i64) -> !llvm.ptr, f32
    llvm.store %1591, %1593 : f32, !llvm.ptr
    %1594 = llvm.add %1581, %59 : i64
    llvm.br ^bb456(%1594 : i64)
  ^bb458:  // pred: ^bb456
    %1595 = llvm.add %1579, %59 : i64
    llvm.br ^bb454(%1595 : i64)
  ^bb459:  // pred: ^bb454
    %1596 = llvm.add %1577, %35 : i64
    llvm.br ^bb452(%1596 : i64)
  ^bb460:  // pred: ^bb452
    %1597 = llvm.add %154, %59 : i64
    llvm.br ^bb3(%1597, %1576 : i64, !llvm.struct<(ptr, ptr, i64, array<2 x i64>, array<2 x i64>)>)
  ^bb461:  // pred: ^bb3
    %1598 = llvm.add %117, %37 : i64
    %1599 = llvm.call @malloc(%1598) : (i64) -> !llvm.ptr
    %1600 = llvm.ptrtoint %1599 : !llvm.ptr to i64
    %1601 = llvm.add %1600, %83 : i64
    %1602 = llvm.urem %1601, %37  : i64
    %1603 = llvm.sub %1601, %1602 : i64
    %1604 = llvm.inttoptr %1603 : i64 to !llvm.ptr
    llvm.br ^bb462(%61 : i64)
  ^bb462(%1605: i64):  // 2 preds: ^bb461, ^bb463
    %1606 = llvm.icmp "slt" %1605, %59 : i64
    llvm.cond_br %1606, ^bb463, ^bb464
  ^bb463:  // pred: ^bb462
    %1607 = llvm.getelementptr %1604[%1605] : (!llvm.ptr, i64) -> !llvm.ptr, f32
    llvm.store %49, %1607 : f32, !llvm.ptr
    %1608 = llvm.add %1605, %59 : i64
    llvm.br ^bb462(%1608 : i64)
  ^bb464:  // pred: ^bb462
    llvm.br ^bb465(%61 : i64)
  ^bb465(%1609: i64):  // 2 preds: ^bb464, ^bb475
    %1610 = llvm.icmp "slt" %1609, %36 : i64
    llvm.cond_br %1610, ^bb466, ^bb476
  ^bb466:  // pred: ^bb465
    llvm.br ^bb467(%61 : i64)
  ^bb467(%1611: i64):  // 2 preds: ^bb466, ^bb474
    %1612 = llvm.icmp "slt" %1611, %34 : i64
    llvm.cond_br %1612, ^bb468, ^bb475
  ^bb468:  // pred: ^bb467
    %1613 = llvm.extractvalue %155[1] : !llvm.struct<(ptr, ptr, i64, array<2 x i64>, array<2 x i64>)> 
    %1614 = llvm.add %1609, %1611 : i64
    llvm.br ^bb469(%61 : i64)
  ^bb469(%1615: i64):  // 2 preds: ^bb468, ^bb473
    %1616 = llvm.icmp "slt" %1615, %59 : i64
    llvm.cond_br %1616, ^bb470, ^bb474
  ^bb470:  // pred: ^bb469
    llvm.br ^bb471(%61 : i64)
  ^bb471(%1617: i64):  // 2 preds: ^bb470, ^bb472
    %1618 = llvm.icmp "slt" %1617, %35 : i64
    llvm.cond_br %1618, ^bb472, ^bb473
  ^bb472:  // pred: ^bb471
    %1619 = llvm.getelementptr %1613[%1614] : (!llvm.ptr, i64) -> !llvm.ptr, f32
    %1620 = llvm.mul %1615, %36 : i64
    %1621 = llvm.add %1620, %1617 : i64
    %1622 = llvm.getelementptr %1619[%1621] : (!llvm.ptr, i64) -> !llvm.ptr, f32
    %1623 = llvm.load %1622 : !llvm.ptr -> f32
    %1624 = llvm.getelementptr %1604[%1615] : (!llvm.ptr, i64) -> !llvm.ptr, f32
    %1625 = llvm.load %1624 : !llvm.ptr -> f32
    %1626 = llvm.fmul %1623, %1623  : f32
    %1627 = llvm.fadd %1625, %1626  : f32
    llvm.store %1627, %1624 : f32, !llvm.ptr
    %1628 = llvm.add %1617, %59 : i64
    llvm.br ^bb471(%1628 : i64)
  ^bb473:  // pred: ^bb471
    %1629 = llvm.add %1615, %59 : i64
    llvm.br ^bb469(%1629 : i64)
  ^bb474:  // pred: ^bb469
    %1630 = llvm.add %1611, %35 : i64
    llvm.br ^bb467(%1630 : i64)
  ^bb475:  // pred: ^bb467
    %1631 = llvm.add %1609, %34 : i64
    llvm.br ^bb465(%1631 : i64)
  ^bb476:  // pred: ^bb465
    %1632 = llvm.call @malloc(%1598) : (i64) -> !llvm.ptr
    %1633 = llvm.ptrtoint %1632 : !llvm.ptr to i64
    %1634 = llvm.add %1633, %83 : i64
    %1635 = llvm.urem %1634, %37  : i64
    %1636 = llvm.sub %1634, %1635 : i64
    %1637 = llvm.inttoptr %1636 : i64 to !llvm.ptr
    llvm.br ^bb477(%61 : i64)
  ^bb477(%1638: i64):  // 2 preds: ^bb476, ^bb478
    %1639 = llvm.icmp "slt" %1638, %59 : i64
    llvm.cond_br %1639, ^bb478, ^bb479
  ^bb478:  // pred: ^bb477
    %1640 = llvm.getelementptr %1604[%1638] : (!llvm.ptr, i64) -> !llvm.ptr, f32
    %1641 = llvm.load %1640 : !llvm.ptr -> f32
    %1642 = llvm.fdiv %1641, %41  : f32
    %1643 = llvm.fadd %1642, %48  : f32
    %1644 = llvm.intr.sqrt(%1643)  : (f32) -> f32
    %1645 = llvm.fdiv %42, %1644  : f32
    %1646 = llvm.getelementptr %1637[%1638] : (!llvm.ptr, i64) -> !llvm.ptr, f32
    llvm.store %1645, %1646 : f32, !llvm.ptr
    %1647 = llvm.add %1638, %59 : i64
    llvm.br ^bb477(%1647 : i64)
  ^bb479:  // pred: ^bb477
    %1648 = llvm.call @malloc(%135) : (i64) -> !llvm.ptr
    %1649 = llvm.ptrtoint %1648 : !llvm.ptr to i64
    %1650 = llvm.add %1649, %83 : i64
    %1651 = llvm.urem %1650, %37  : i64
    %1652 = llvm.sub %1650, %1651 : i64
    %1653 = llvm.inttoptr %1652 : i64 to !llvm.ptr
    llvm.br ^bb480(%61 : i64)
  ^bb480(%1654: i64):  // 2 preds: ^bb479, ^bb487
    %1655 = llvm.icmp "slt" %1654, %36 : i64
    llvm.cond_br %1655, ^bb481, ^bb488
  ^bb481:  // pred: ^bb480
    %1656 = llvm.extractvalue %155[1] : !llvm.struct<(ptr, ptr, i64, array<2 x i64>, array<2 x i64>)> 
    %1657 = llvm.extractvalue %102[1] : !llvm.struct<(ptr, ptr, i64, array<1 x i64>, array<1 x i64>)> 
    llvm.br ^bb482(%61 : i64)
  ^bb482(%1658: i64):  // 2 preds: ^bb481, ^bb486
    %1659 = llvm.icmp "slt" %1658, %59 : i64
    llvm.cond_br %1659, ^bb483, ^bb487
  ^bb483:  // pred: ^bb482
    llvm.br ^bb484(%61 : i64)
  ^bb484(%1660: i64):  // 2 preds: ^bb483, ^bb485
    %1661 = llvm.icmp "slt" %1660, %35 : i64
    llvm.cond_br %1661, ^bb485, ^bb486
  ^bb485:  // pred: ^bb484
    %1662 = llvm.getelementptr %1656[%1654] : (!llvm.ptr, i64) -> !llvm.ptr, f32
    %1663 = llvm.mul %1658, %36 : i64
    %1664 = llvm.add %1663, %1660 : i64
    %1665 = llvm.getelementptr %1662[%1664] : (!llvm.ptr, i64) -> !llvm.ptr, f32
    %1666 = llvm.load %1665 : !llvm.ptr -> f32
    %1667 = llvm.getelementptr %1637[%1658] : (!llvm.ptr, i64) -> !llvm.ptr, f32
    %1668 = llvm.load %1667 : !llvm.ptr -> f32
    %1669 = llvm.getelementptr %1657[%1654] : (!llvm.ptr, i64) -> !llvm.ptr, f32
    %1670 = llvm.getelementptr %1669[%1660] : (!llvm.ptr, i64) -> !llvm.ptr, f32
    %1671 = llvm.load %1670 : !llvm.ptr -> f32
    %1672 = llvm.fmul %1666, %1668  : f32
    %1673 = llvm.fmul %1672, %1671  : f32
    %1674 = llvm.getelementptr %1653[%1654] : (!llvm.ptr, i64) -> !llvm.ptr, f32
    %1675 = llvm.getelementptr %1674[%1664] : (!llvm.ptr, i64) -> !llvm.ptr, f32
    llvm.store %1673, %1675 : f32, !llvm.ptr
    %1676 = llvm.add %1660, %59 : i64
    llvm.br ^bb484(%1676 : i64)
  ^bb486:  // pred: ^bb484
    %1677 = llvm.add %1658, %59 : i64
    llvm.br ^bb482(%1677 : i64)
  ^bb487:  // pred: ^bb482
    %1678 = llvm.add %1654, %35 : i64
    llvm.br ^bb480(%1678 : i64)
  ^bb488:  // pred: ^bb480
    %1679 = llvm.getelementptr %33[32000] : (!llvm.ptr) -> !llvm.ptr, f32
    %1680 = llvm.ptrtoint %1679 : !llvm.ptr to i64
    %1681 = llvm.add %1680, %37 : i64
    %1682 = llvm.call @malloc(%1681) : (i64) -> !llvm.ptr
    %1683 = llvm.ptrtoint %1682 : !llvm.ptr to i64
    %1684 = llvm.add %1683, %83 : i64
    %1685 = llvm.urem %1684, %37  : i64
    %1686 = llvm.sub %1684, %1685 : i64
    %1687 = llvm.inttoptr %1686 : i64 to !llvm.ptr
    llvm.br ^bb489(%61 : i64)
  ^bb489(%1688: i64):  // 2 preds: ^bb488, ^bb496
    %1689 = llvm.icmp "slt" %1688, %40 : i64
    llvm.cond_br %1689, ^bb490, ^bb497
  ^bb490:  // pred: ^bb489
    llvm.br ^bb491(%61 : i64)
  ^bb491(%1690: i64):  // 2 preds: ^bb490, ^bb495
    %1691 = llvm.icmp "slt" %1690, %59 : i64
    llvm.cond_br %1691, ^bb492, ^bb496
  ^bb492:  // pred: ^bb491
    llvm.br ^bb493(%61 : i64)
  ^bb493(%1692: i64):  // 2 preds: ^bb492, ^bb494
    %1693 = llvm.icmp "slt" %1692, %35 : i64
    llvm.cond_br %1693, ^bb494, ^bb495
  ^bb494:  // pred: ^bb493
    %1694 = llvm.getelementptr %1687[%1688] : (!llvm.ptr, i64) -> !llvm.ptr, f32
    %1695 = llvm.mul %1690, %40 : i64
    %1696 = llvm.add %1695, %1692 : i64
    %1697 = llvm.getelementptr %1694[%1696] : (!llvm.ptr, i64) -> !llvm.ptr, f32
    llvm.store %49, %1697 : f32, !llvm.ptr
    %1698 = llvm.add %1692, %59 : i64
    llvm.br ^bb493(%1698 : i64)
  ^bb495:  // pred: ^bb493
    %1699 = llvm.add %1690, %59 : i64
    llvm.br ^bb491(%1699 : i64)
  ^bb496:  // pred: ^bb491
    %1700 = llvm.add %1688, %35 : i64
    llvm.br ^bb489(%1700 : i64)
  ^bb497:  // pred: ^bb489
    llvm.br ^bb498(%61 : i64)
  ^bb498(%1701: i64):  // 2 preds: ^bb497, ^bb517
    %1702 = llvm.icmp "slt" %1701, %40 : i64
    llvm.cond_br %1702, ^bb499, ^bb518
  ^bb499:  // pred: ^bb498
    llvm.br ^bb500(%61 : i64)
  ^bb500(%1703: i64):  // 2 preds: ^bb499, ^bb516
    %1704 = llvm.icmp "slt" %1703, %36 : i64
    llvm.cond_br %1704, ^bb501, ^bb517
  ^bb501:  // pred: ^bb500
    llvm.br ^bb502(%61 : i64)
  ^bb502(%1705: i64):  // 2 preds: ^bb501, ^bb515
    %1706 = llvm.icmp "slt" %1705, %34 : i64
    llvm.cond_br %1706, ^bb503, ^bb516
  ^bb503:  // pred: ^bb502
    %1707 = llvm.add %1701, %1705 : i64
    llvm.br ^bb504(%61 : i64)
  ^bb504(%1708: i64):  // 2 preds: ^bb503, ^bb514
    %1709 = llvm.icmp "slt" %1708, %34 : i64
    llvm.cond_br %1709, ^bb505, ^bb515
  ^bb505:  // pred: ^bb504
    %1710 = llvm.add %1703, %1708 : i64
    %1711 = llvm.extractvalue %103[1] : !llvm.struct<(ptr, ptr, i64, array<2 x i64>, array<2 x i64>)> 
    %1712 = llvm.mul %1703, %40 : i64
    %1713 = llvm.mul %1708, %40 : i64
    %1714 = llvm.add %1712, %1713 : i64
    %1715 = llvm.add %1714, %1701 : i64
    %1716 = llvm.add %1715, %1705 : i64
    llvm.br ^bb506(%61 : i64)
  ^bb506(%1717: i64):  // 2 preds: ^bb505, ^bb513
    %1718 = llvm.icmp "slt" %1717, %59 : i64
    llvm.cond_br %1718, ^bb507, ^bb514
  ^bb507:  // pred: ^bb506
    llvm.br ^bb508(%61 : i64)
  ^bb508(%1719: i64):  // 2 preds: ^bb507, ^bb512
    %1720 = llvm.icmp "slt" %1719, %35 : i64
    llvm.cond_br %1720, ^bb509, ^bb513
  ^bb509:  // pred: ^bb508
    llvm.br ^bb510(%61 : i64)
  ^bb510(%1721: i64):  // 2 preds: ^bb509, ^bb511
    %1722 = llvm.icmp "slt" %1721, %35 : i64
    llvm.cond_br %1722, ^bb511, ^bb512
  ^bb511:  // pred: ^bb510
    %1723 = llvm.getelementptr %1653[%1710] : (!llvm.ptr, i64) -> !llvm.ptr, f32
    %1724 = llvm.mul %1717, %36 : i64
    %1725 = llvm.add %1724, %1721 : i64
    %1726 = llvm.getelementptr %1723[%1725] : (!llvm.ptr, i64) -> !llvm.ptr, f32
    %1727 = llvm.load %1726 : !llvm.ptr -> f32
    %1728 = llvm.getelementptr %1711[%1716] : (!llvm.ptr, i64) -> !llvm.ptr, f32
    %1729 = llvm.mul %1721, %40 : i64
    %1730 = llvm.add %1729, %1719 : i64
    %1731 = llvm.getelementptr %1728[%1730] : (!llvm.ptr, i64) -> !llvm.ptr, f32
    %1732 = llvm.load %1731 : !llvm.ptr -> f32
    %1733 = llvm.getelementptr %1687[%1707] : (!llvm.ptr, i64) -> !llvm.ptr, f32
    %1734 = llvm.mul %1717, %40 : i64
    %1735 = llvm.add %1734, %1719 : i64
    %1736 = llvm.getelementptr %1733[%1735] : (!llvm.ptr, i64) -> !llvm.ptr, f32
    %1737 = llvm.load %1736 : !llvm.ptr -> f32
    %1738 = llvm.fmul %1727, %1732  : f32
    %1739 = llvm.fadd %1737, %1738  : f32
    llvm.store %1739, %1736 : f32, !llvm.ptr
    %1740 = llvm.add %1721, %59 : i64
    llvm.br ^bb510(%1740 : i64)
  ^bb512:  // pred: ^bb510
    %1741 = llvm.add %1719, %59 : i64
    llvm.br ^bb508(%1741 : i64)
  ^bb513:  // pred: ^bb508
    %1742 = llvm.add %1717, %59 : i64
    llvm.br ^bb506(%1742 : i64)
  ^bb514:  // pred: ^bb506
    %1743 = llvm.add %1708, %35 : i64
    llvm.br ^bb504(%1743 : i64)
  ^bb515:  // pred: ^bb504
    %1744 = llvm.add %1705, %35 : i64
    llvm.br ^bb502(%1744 : i64)
  ^bb516:  // pred: ^bb502
    %1745 = llvm.add %1703, %34 : i64
    llvm.br ^bb500(%1745 : i64)
  ^bb517:  // pred: ^bb500
    %1746 = llvm.add %1701, %34 : i64
    llvm.br ^bb498(%1746 : i64)
  ^bb518:  // pred: ^bb498
    %1747 = llvm.call @malloc(%1598) : (i64) -> !llvm.ptr
    %1748 = llvm.ptrtoint %1747 : !llvm.ptr to i64
    %1749 = llvm.add %1748, %83 : i64
    %1750 = llvm.urem %1749, %37  : i64
    %1751 = llvm.sub %1749, %1750 : i64
    %1752 = llvm.inttoptr %1751 : i64 to !llvm.ptr
    llvm.br ^bb519(%61 : i64)
  ^bb519(%1753: i64):  // 2 preds: ^bb518, ^bb520
    %1754 = llvm.icmp "slt" %1753, %59 : i64
    llvm.cond_br %1754, ^bb520, ^bb521
  ^bb520:  // pred: ^bb519
    %1755 = llvm.getelementptr %1752[%1753] : (!llvm.ptr, i64) -> !llvm.ptr, f32
    llvm.store %43, %1755 : f32, !llvm.ptr
    %1756 = llvm.add %1753, %59 : i64
    llvm.br ^bb519(%1756 : i64)
  ^bb521:  // pred: ^bb519
    %1757 = llvm.getelementptr %33[1] : (!llvm.ptr) -> !llvm.ptr, i64
    %1758 = llvm.ptrtoint %1757 : !llvm.ptr to i64
    %1759 = llvm.add %1758, %37 : i64
    %1760 = llvm.call @malloc(%1759) : (i64) -> !llvm.ptr
    %1761 = llvm.ptrtoint %1760 : !llvm.ptr to i64
    %1762 = llvm.add %1761, %83 : i64
    %1763 = llvm.urem %1762, %37  : i64
    %1764 = llvm.sub %1762, %1763 : i64
    %1765 = llvm.inttoptr %1764 : i64 to !llvm.ptr
    llvm.br ^bb522(%61 : i64)
  ^bb522(%1766: i64):  // 2 preds: ^bb521, ^bb523
    %1767 = llvm.icmp "slt" %1766, %59 : i64
    llvm.cond_br %1767, ^bb523, ^bb524
  ^bb523:  // pred: ^bb522
    %1768 = llvm.getelementptr %1765[%1766] : (!llvm.ptr, i64) -> !llvm.ptr, i64
    llvm.store %53, %1768 : i64, !llvm.ptr
    %1769 = llvm.add %1766, %59 : i64
    llvm.br ^bb522(%1769 : i64)
  ^bb524:  // pred: ^bb522
    llvm.br ^bb525(%61 : i64)
  ^bb525(%1770: i64):  // 2 preds: ^bb524, ^bb535
    %1771 = llvm.icmp "slt" %1770, %40 : i64
    llvm.cond_br %1771, ^bb526, ^bb536
  ^bb526:  // pred: ^bb525
    llvm.br ^bb527(%61 : i64)
  ^bb527(%1772: i64):  // 2 preds: ^bb526, ^bb534
    %1773 = llvm.icmp "slt" %1772, %34 : i64
    llvm.cond_br %1773, ^bb528, ^bb535
  ^bb528:  // pred: ^bb527
    %1774 = llvm.add %1770, %1772 : i64
    llvm.br ^bb529(%61 : i64)
  ^bb529(%1775: i64):  // 2 preds: ^bb528, ^bb533
    %1776 = llvm.icmp "slt" %1775, %59 : i64
    llvm.cond_br %1776, ^bb530, ^bb534
  ^bb530:  // pred: ^bb529
    llvm.br ^bb531(%61 : i64)
  ^bb531(%1777: i64):  // 2 preds: ^bb530, ^bb532
    %1778 = llvm.icmp "slt" %1777, %35 : i64
    llvm.cond_br %1778, ^bb532, ^bb533
  ^bb532:  // pred: ^bb531
    %1779 = llvm.getelementptr %1687[%1774] : (!llvm.ptr, i64) -> !llvm.ptr, f32
    %1780 = llvm.mul %1775, %40 : i64
    %1781 = llvm.add %1780, %1777 : i64
    %1782 = llvm.getelementptr %1779[%1781] : (!llvm.ptr, i64) -> !llvm.ptr, f32
    %1783 = llvm.load %1782 : !llvm.ptr -> f32
    %1784 = llvm.getelementptr %1752[%1775] : (!llvm.ptr, i64) -> !llvm.ptr, f32
    %1785 = llvm.load %1784 : !llvm.ptr -> f32
    %1786 = llvm.getelementptr %1765[%1775] : (!llvm.ptr, i64) -> !llvm.ptr, i64
    %1787 = llvm.load %1786 : !llvm.ptr -> i64
    %1788 = llvm.add %1770, %1777 : i64
    %1789 = llvm.add %1788, %1772 : i64
    %1790 = llvm.fcmp "ogt" %1783, %1785 : f32
    %1791 = llvm.select %1790, %1783, %1785 : i1, f32
    %1792 = llvm.select %1790, %1789, %1787 : i1, i64
    llvm.store %1791, %1784 : f32, !llvm.ptr
    llvm.store %1792, %1786 : i64, !llvm.ptr
    %1793 = llvm.add %1777, %59 : i64
    llvm.br ^bb531(%1793 : i64)
  ^bb533:  // pred: ^bb531
    %1794 = llvm.add %1775, %59 : i64
    llvm.br ^bb529(%1794 : i64)
  ^bb534:  // pred: ^bb529
    %1795 = llvm.add %1772, %35 : i64
    llvm.br ^bb527(%1795 : i64)
  ^bb535:  // pred: ^bb527
    %1796 = llvm.add %1770, %34 : i64
    llvm.br ^bb525(%1796 : i64)
  ^bb536:  // pred: ^bb525
    %1797 = llvm.load %1765 : !llvm.ptr -> i64
    llvm.call @decode(%128, %1797) : (i64, i64) -> ()
    llvm.br ^bb1(%1797, %130 : i64, i64)
  ^bb537:  // pred: ^bb1
    llvm.call @end(%52) : (i64) -> ()
    llvm.call @free_tokenizer() : () -> ()
    llvm.return
  }
}

