module{
func.func @host() {
  %c32 = arith.constant 32 : index
  %c32_0 = arith.constant 32 : index
  %c32_1 = arith.constant 32 : index
  %c32_2 = arith.constant 32 : index
  %c32_3 = arith.constant 32 : index
  %c32_4 = arith.constant 32 : index
  %c32_5 = arith.constant 32 : index
  %c32_6 = arith.constant 32 : index
  %c32_7 = arith.constant 32 : index
  %c32_8 = arith.constant 32 : index
  %c32_9 = arith.constant 32 : index
  %c32_10 = arith.constant 32 : index
  %c32_11 = arith.constant 32 : index
  %c32_12 = arith.constant 32 : index
  %c32_13 = arith.constant 32 : index
  %c32_14 = arith.constant 32 : index
  %c32_15 = arith.constant 32 : index
  %c32_16 = arith.constant 32 : index
  %c32_17 = arith.constant 32 : index
  %c32_18 = arith.constant 32 : index
  %c32_19 = arith.constant 32 : index
  %c32_20 = arith.constant 32 : index
  %c32_21 = arith.constant 32 : index
  %c32_22 = arith.constant 32 : index
  %c32_23 = arith.constant 32 : index
  %c32_24 = arith.constant 32 : index
  %c32_25 = arith.constant 32 : index
  %c32_26 = arith.constant 32 : index
  %c32_27 = arith.constant 32 : index
  %c32_28 = arith.constant 32 : index
  %c32_29 = arith.constant 32 : index
  %c32_30 = arith.constant 32 : index
  %c32_31 = arith.constant 32 : index
  %c32_32 = arith.constant 32 : index
  %c32_33 = arith.constant 32 : index
  %c32_34 = arith.constant 32 : index
  %c32_35 = arith.constant 32 : index
  %c32_36 = arith.constant 32 : index
  %c32_37 = arith.constant 32 : index
  %c32_38 = arith.constant 32 : index
  %c32_39 = arith.constant 32 : index
  %c32_40 = arith.constant 32 : index
  %c32_41 = arith.constant 32 : index
  %c32_42 = arith.constant 32 : index
  %c32_43 = arith.constant 32 : index
  %c32_44 = arith.constant 32 : index
  %c32_45 = arith.constant 32 : index
  %c32_46 = arith.constant 32 : index
  %c32_47 = arith.constant 32 : index
  %c32_48 = arith.constant 32 : index
  %c32_49 = arith.constant 32 : index
  %c32_50 = arith.constant 32 : index
  %c32_51 = arith.constant 32 : index
  %c32_52 = arith.constant 32 : index
  %c32_53 = arith.constant 32 : index
  %c32_54 = arith.constant 32 : index
  %c32_55 = arith.constant 32 : index
  %c32_56 = arith.constant 32 : index
  %c32_57 = arith.constant 32 : index
  %c32_58 = arith.constant 32 : index
  %c32_59 = arith.constant 32 : index
  %c32_60 = arith.constant 32 : index
  %c32_61 = arith.constant 32 : index
  %c32_62 = arith.constant 32 : index
  %c32_63 = arith.constant 32 : index
  %c32_64 = arith.constant 32 : index
  %c32_65 = arith.constant 32 : index
  %c32_66 = arith.constant 32 : index
  %c32_67 = arith.constant 32 : index
  %c32_68 = arith.constant 32 : index
  %c32_69 = arith.constant 32 : index
  %c32_70 = arith.constant 32 : index
  %c32_71 = arith.constant 32 : index
  %c32_72 = arith.constant 32 : index
  %c32_73 = arith.constant 32 : index
  %c32_74 = arith.constant 32 : index
  %c32_75 = arith.constant 32 : index
  %c32_76 = arith.constant 32 : index
  %c32_77 = arith.constant 32 : index
  %c32_78 = arith.constant 32 : index
  %c32_79 = arith.constant 32 : index
  %c32_80 = arith.constant 32 : index
  %c32_81 = arith.constant 32 : index
  %c32_82 = arith.constant 32 : index
  %c32_83 = arith.constant 32 : index
  %c32_84 = arith.constant 32 : index
  %c32_85 = arith.constant 32 : index
  %c32_86 = arith.constant 32 : index
  %c32_87 = arith.constant 32 : index
  %c32_88 = arith.constant 32 : index
  %c32_89 = arith.constant 32 : index
  %c32_90 = arith.constant 32 : index
  %c32_91 = arith.constant 32 : index
  %c32_92 = arith.constant 32 : index
  %c32_93 = arith.constant 32 : index
  %c32_94 = arith.constant 32 : index
  %c32_95 = arith.constant 32 : index
  %c32_96 = arith.constant 32 : index
  %c32_97 = arith.constant 32 : index
  %c32_98 = arith.constant 32 : index
  %c32_99 = arith.constant 32 : index
  %c32_100 = arith.constant 32 : index
  %c32_101 = arith.constant 32 : index
  %c32_102 = arith.constant 32 : index
  %c128 = arith.constant 128 : index
  %c128_103 = arith.constant 128 : index
  %c128_104 = arith.constant 128 : index
  %c128_105 = arith.constant 128 : index
  %c128_106 = arith.constant 128 : index
  %c128_107 = arith.constant 128 : index
  %c128_108 = arith.constant 128 : index
  %c128_109 = arith.constant 128 : index
  %c128_110 = arith.constant 128 : index
  %c128_111 = arith.constant 128 : index
  %c128_112 = arith.constant 128 : index
  %c128_113 = arith.constant 128 : index
  %c128_114 = arith.constant 128 : index
  %c128_115 = arith.constant 128 : index
  %c128_116 = arith.constant 128 : index
  %c128_117 = arith.constant 128 : index
  %c128_118 = arith.constant 128 : index
  %c128_119 = arith.constant 128 : index
  %c128_120 = arith.constant 128 : index
  %c128_121 = arith.constant 128 : index
  %c128_122 = arith.constant 128 : index
  %c128_123 = arith.constant 128 : index
  %c128_124 = arith.constant 128 : index
  %c128_125 = arith.constant 128 : index
  %c128_126 = arith.constant 128 : index
  %c128_127 = arith.constant 128 : index
  %c128_128 = arith.constant 128 : index
  %c128_129 = arith.constant 128 : index
  %c128_130 = arith.constant 128 : index
  %c128_131 = arith.constant 128 : index
  %c128_132 = arith.constant 128 : index
  %c128_133 = arith.constant 128 : index
  %c128_134 = arith.constant 128 : index
  %c128_135 = arith.constant 128 : index
  %c128_136 = arith.constant 128 : index
  %c128_137 = arith.constant 128 : index
  %c128_138 = arith.constant 128 : index
  %c128_139 = arith.constant 128 : index
  %c128_140 = arith.constant 128 : index
  %c128_141 = arith.constant 128 : index
  %cst = arith.constant dense<[1, 1, 64]> : tensor<3xi64>
  %cst_142 = arith.constant dense<[1, 1, 768]> : tensor<3xi64>
  %cst_143 = arith.constant dense<[1, 768]> : tensor<2xi64>
  %cst_144 = arith.constant dense<[1, 12, 64]> : tensor<3xi64>
  %cst_145 = arith.constant 7.680000e+02 : f32
  %cst_146 = arith.constant 1.000000e+00 : f32
  %cst_147 = arith.constant 0xFF800000 : f32
  %cst_148 = arith.constant -1.000000e+09 : f32
  %cst_149 = arith.constant dense<0.000000e+00> : tensor<1x12x64xf32>
  %cst_150 = arith.constant -2.000000e+00 : f32
  %cst_151 = arith.constant 6.400000e+01 : f32
  %cst_152 = arith.constant 1.000000e+04 : f32
  %cst_153 = arith.constant 9.99999974E-6 : f32
  %cst_154 = arith.constant 0.000000e+00 : f32
  %cst_155 = arith.constant 1.250000e-01 : f32
  %c64_i64 = arith.constant 64 : i64
  %c128_i64 = arith.constant 128 : i64
  %c0_i64 = arith.constant 0 : i64
  %c1_i64 = arith.constant 1 : i64
  %cst_156 = arith.constant dense<0.000000e+00> : tensor<12x1024x768xf32>
  %cst_157 = arith.constant dense<[47, 104, 111, 109, 101, 47, 110, 120, 47, 121, 99, 121, 47, 112, 98, 47, 99, 104, 101, 114, 114, 121, 47, 117, 116, 105, 108, 115, 47, 115, 116, 111, 114, 105, 101, 115, 49, 49, 48, 77, 47, 111, 117, 116, 112, 117, 116, 95, 119, 99, 108, 115, 46, 98, 105, 110, 0]> : tensor<57xi8>
  %cst_158 = arith.constant dense<[47, 104, 111, 109, 101, 47, 110, 120, 47, 121, 99, 121, 47, 112, 98, 47, 99, 104, 101, 114, 114, 121, 47, 117, 116, 105, 108, 115, 47, 115, 116, 111, 114, 105, 101, 115, 49, 49, 48, 77, 47, 102, 105, 110, 97, 108, 95, 114, 109, 115, 95, 110, 111, 114, 109, 46, 98, 105, 110, 0]> : tensor<60xi8>
  %cst_159 = arith.constant dense<[47, 104, 111, 109, 101, 47, 110, 120, 47, 121, 99, 121, 47, 112, 98, 47, 99, 104, 101, 114, 114, 121, 47, 117, 116, 105, 108, 115, 47, 115, 116, 111, 114, 105, 101, 115, 49, 49, 48, 77, 47, 108, 97, 121, 101, 114, 115, 95, 119, 51, 46, 98, 105, 110, 0]> : tensor<55xi8>
  %cst_160 = arith.constant dense<[47, 104, 111, 109, 101, 47, 110, 120, 47, 121, 99, 121, 47, 112, 98, 47, 99, 104, 101, 114, 114, 121, 47, 117, 116, 105, 108, 115, 47, 115, 116, 111, 114, 105, 101, 115, 49, 49, 48, 77, 47, 108, 97, 121, 101, 114, 115, 95, 119, 50, 46, 98, 105, 110, 0]> : tensor<55xi8>
  %c2048_i64 = arith.constant 2048 : i64
  %cst_161 = arith.constant dense<[47, 104, 111, 109, 101, 47, 110, 120, 47, 121, 99, 121, 47, 112, 98, 47, 99, 104, 101, 114, 114, 121, 47, 117, 116, 105, 108, 115, 47, 115, 116, 111, 114, 105, 101, 115, 49, 49, 48, 77, 47, 108, 97, 121, 101, 114, 115, 95, 119, 49, 46, 98, 105, 110, 0]> : tensor<55xi8>
  %cst_162 = arith.constant dense<[47, 104, 111, 109, 101, 47, 110, 120, 47, 121, 99, 121, 47, 112, 98, 47, 99, 104, 101, 114, 114, 121, 47, 117, 116, 105, 108, 115, 47, 115, 116, 111, 114, 105, 101, 115, 49, 49, 48, 77, 47, 108, 97, 121, 101, 114, 115, 95, 114, 109, 115, 95, 102, 102, 110, 95, 119, 101, 105, 103, 104, 116, 46, 98, 105, 110, 0]> : tensor<67xi8>
  %cst_163 = arith.constant dense<[47, 104, 111, 109, 101, 47, 110, 120, 47, 121, 99, 121, 47, 112, 98, 47, 99, 104, 101, 114, 114, 121, 47, 117, 116, 105, 108, 115, 47, 115, 116, 111, 114, 105, 101, 115, 49, 49, 48, 77, 47, 108, 97, 121, 101, 114, 115, 95, 119, 111, 46, 98, 105, 110, 0]> : tensor<55xi8>
  %cst_164 = arith.constant dense<[47, 104, 111, 109, 101, 47, 110, 120, 47, 121, 99, 121, 47, 112, 98, 47, 99, 104, 101, 114, 114, 121, 47, 117, 116, 105, 108, 115, 47, 115, 116, 111, 114, 105, 101, 115, 49, 49, 48, 77, 47, 108, 97, 121, 101, 114, 115, 95, 119, 118, 46, 98, 105, 110, 0]> : tensor<55xi8>
  %cst_165 = arith.constant dense<[47, 104, 111, 109, 101, 47, 110, 120, 47, 121, 99, 121, 47, 112, 98, 47, 99, 104, 101, 114, 114, 121, 47, 117, 116, 105, 108, 115, 47, 115, 116, 111, 114, 105, 101, 115, 49, 49, 48, 77, 47, 108, 97, 121, 101, 114, 115, 95, 119, 107, 46, 98, 105, 110, 0]> : tensor<55xi8>
  %cst_166 = arith.constant dense<[47, 104, 111, 109, 101, 47, 110, 120, 47, 121, 99, 121, 47, 112, 98, 47, 99, 104, 101, 114, 114, 121, 47, 117, 116, 105, 108, 115, 47, 115, 116, 111, 114, 105, 101, 115, 49, 49, 48, 77, 47, 108, 97, 121, 101, 114, 115, 95, 119, 113, 46, 98, 105, 110, 0]> : tensor<55xi8>
  %c12_i64 = arith.constant 12 : i64
  %cst_167 = arith.constant dense<[47, 104, 111, 109, 101, 47, 110, 120, 47, 121, 99, 121, 47, 112, 98, 47, 99, 104, 101, 114, 114, 121, 47, 117, 116, 105, 108, 115, 47, 115, 116, 111, 114, 105, 101, 115, 49, 49, 48, 77, 47, 108, 97, 121, 101, 114, 115, 95, 114, 109, 115, 95, 97, 116, 116, 95, 119, 101, 105, 103, 104, 116, 46, 98, 105, 110, 0]> : tensor<67xi8>
  %c768_i64 = arith.constant 768 : i64
  %cst_168 = arith.constant dense<[47, 104, 111, 109, 101, 47, 110, 120, 47, 121, 99, 121, 47, 112, 98, 47, 99, 104, 101, 114, 114, 121, 47, 117, 116, 105, 108, 115, 47, 115, 116, 111, 114, 105, 101, 115, 49, 49, 48, 77, 47, 116, 111, 107, 101, 110, 95, 101, 109, 98, 101, 100, 100, 105, 110, 103, 115, 46, 98, 105, 110, 0]> : tensor<62xi8>
  %c0 = arith.constant 0 : index
  %c12 = arith.constant 12 : index
  %c1 = arith.constant 1 : index
  %c32000_i64 = arith.constant 32000 : i64
  %cst_169 = arith.constant dense<[47, 104, 111, 109, 101, 47, 110, 120, 47, 121, 99, 121, 47, 112, 98, 47, 99, 104, 101, 114, 114, 121, 47, 116, 101, 115, 116, 115, 47, 108, 108, 97, 109, 97, 47, 116, 111, 107, 101, 110, 105, 122, 101, 114, 46, 98, 105, 110, 0]> : tensor<49xi8>
  %cast = tensor.cast %cst_169 : tensor<49xi8> to tensor<?xi8>
  call @build_tokenizer(%c32000_i64, %cast) : (i64, tensor<?xi8>) -> ()
  %cast_170 = tensor.cast %cst_168 : tensor<62xi8> to tensor<?xi8>
  %0 = call @cherry_read_weight_2d_32000_768_f32(%cast_170, %c32000_i64, %c768_i64) : (tensor<?xi8>, i64, i64) -> memref<32000x768xf32>
  %1 = bufferization.to_tensor %0 restrict : memref<32000x768xf32>
  %cast_171 = tensor.cast %cst_167 : tensor<67xi8> to tensor<?xi8>
  %2 = call @cherry_read_weight_2d_12_768_f32(%cast_171, %c12_i64, %c768_i64) : (tensor<?xi8>, i64, i64) -> memref<12x768xf32>
  %3 = bufferization.to_tensor %2 restrict : memref<12x768xf32>
  %cast_172 = tensor.cast %cst_166 : tensor<55xi8> to tensor<?xi8>
  %4 = call @cherry_read_weight_3d_12_768_768_f32(%cast_172, %c12_i64, %c768_i64, %c768_i64) : (tensor<?xi8>, i64, i64, i64) -> memref<12x768x768xf32>
  %5 = bufferization.to_tensor %4 restrict : memref<12x768x768xf32>
  %cast_173 = tensor.cast %cst_165 : tensor<55xi8> to tensor<?xi8>
  %6 = call @cherry_read_weight_3d_12_768_768_f32(%cast_173, %c12_i64, %c768_i64, %c768_i64) : (tensor<?xi8>, i64, i64, i64) -> memref<12x768x768xf32>
  %7 = bufferization.to_tensor %6 restrict : memref<12x768x768xf32>
  %cast_174 = tensor.cast %cst_164 : tensor<55xi8> to tensor<?xi8>
  %8 = call @cherry_read_weight_3d_12_768_768_f32(%cast_174, %c12_i64, %c768_i64, %c768_i64) : (tensor<?xi8>, i64, i64, i64) -> memref<12x768x768xf32>
  %9 = bufferization.to_tensor %8 restrict : memref<12x768x768xf32>
  %cast_175 = tensor.cast %cst_163 : tensor<55xi8> to tensor<?xi8>
  %10 = call @cherry_read_weight_3d_12_768_768_f32(%cast_175, %c12_i64, %c768_i64, %c768_i64) : (tensor<?xi8>, i64, i64, i64) -> memref<12x768x768xf32>
  %11 = bufferization.to_tensor %10 restrict : memref<12x768x768xf32>
  %cast_176 = tensor.cast %cst_162 : tensor<67xi8> to tensor<?xi8>
  %12 = call @cherry_read_weight_2d_12_768_f32(%cast_176, %c12_i64, %c768_i64) : (tensor<?xi8>, i64, i64) -> memref<12x768xf32>
  %13 = bufferization.to_tensor %12 restrict : memref<12x768xf32>
  %cast_177 = tensor.cast %cst_161 : tensor<55xi8> to tensor<?xi8>
  %14 = call @cherry_read_weight_3d_12_768_2048_f32(%cast_177, %c12_i64, %c768_i64, %c2048_i64) : (tensor<?xi8>, i64, i64, i64) -> memref<12x768x2048xf32>
  %15 = bufferization.to_tensor %14 restrict : memref<12x768x2048xf32>
  %cast_178 = tensor.cast %cst_160 : tensor<55xi8> to tensor<?xi8>
  %16 = call @cherry_read_weight_3d_12_2048_768_f32(%cast_178, %c12_i64, %c2048_i64, %c768_i64) : (tensor<?xi8>, i64, i64, i64) -> memref<12x2048x768xf32>
  %17 = bufferization.to_tensor %16 restrict : memref<12x2048x768xf32>
  %cast_179 = tensor.cast %cst_159 : tensor<55xi8> to tensor<?xi8>
  %18 = call @cherry_read_weight_3d_12_768_2048_f32(%cast_179, %c12_i64, %c768_i64, %c2048_i64) : (tensor<?xi8>, i64, i64, i64) -> memref<12x768x2048xf32>
  %19 = bufferization.to_tensor %18 restrict : memref<12x768x2048xf32>
  %cast_180 = tensor.cast %cst_158 : tensor<60xi8> to tensor<?xi8>
  %20 = call @cherry_read_weight_1d_768_f32(%cast_180, %c768_i64) : (tensor<?xi8>, i64) -> memref<768xf32>
  %21 = bufferization.to_tensor %20 restrict : memref<768xf32>
  %cast_181 = tensor.cast %cst_157 : tensor<57xi8> to tensor<?xi8>
  %22 = call @cherry_read_weight_2d_768_32000_f32(%cast_181, %c768_i64, %c32000_i64) : (tensor<?xi8>, i64, i64) -> memref<768x32000xf32>
  %23 = bufferization.to_tensor %22 restrict : memref<768x32000xf32>
  call @start() : () -> ()
  %24:4 = scf.while (%arg0 = %c1_i64, %arg1 = %c0_i64, %arg2 = %cst_156, %arg3 = %cst_156) : (i64, i64, tensor<12x1024x768xf32>, tensor<12x1024x768xf32>) -> (i64, i64, tensor<12x1024x768xf32>, tensor<12x1024x768xf32>) {
    %25 = arith.cmpi slt, %arg1, %c128_i64 : i64
    scf.condition(%25) %arg0, %arg1, %arg2, %arg3 : i64, i64, tensor<12x1024x768xf32>, tensor<12x1024x768xf32>
  } do {
  ^bb0(%arg0: i64, %arg1: i64, %arg2: tensor<12x1024x768xf32>, %arg3: tensor<12x1024x768xf32>):
    %25 = arith.addi %arg1, %c1_i64 : i64
    %26 = arith.addi %arg1, %c1_i64 : i64
    %27 = arith.index_cast %arg0 : i64 to index
    %extracted_slice = tensor.extract_slice %1[%27, %c0] [1, 768] [1, 1] : tensor<32000x768xf32> to tensor<1x768xf32>
    %28:3 = scf.for %arg4 = %c0 to %c12 step %c1 iter_args(%arg5 = %extracted_slice, %arg6 = %arg2, %arg7 = %arg3) -> (tensor<1x768xf32>, tensor<12x1024x768xf32>, tensor<12x1024x768xf32>) {
      %44 = arith.index_cast %arg4 : index to i64
      %45 = arith.index_cast %44 : i64 to index
      %extracted_slice_225 = tensor.extract_slice %3[%45, %c0] [1, 768] [1, 1] : tensor<12x768xf32> to tensor<768xf32>
      %46 = tensor.empty() : tensor<1xf32>
      %c0_226 = arith.constant 0 : index
      %c1_227 = arith.constant 1 : index
      %c32_228 = arith.constant 32 : index
      %47 = scf.for %arg8 = %c0_226 to %c1_227 step %c32_228 iter_args(%arg9 = %46) -> (tensor<1xf32>) {
        %118 = affine.min affine_map<(d0) -> (-d0 + 1, 32)>(%arg8)
        %extracted_slice_448 = tensor.extract_slice %arg9[%arg8] [%118] [1] : tensor<1xf32> to tensor<?xf32>
        %119 = linalg.generic {indexing_maps = [affine_map<(d0) -> ()>, affine_map<(d0) -> (d0)>], iterator_types = ["parallel"]} ins(%cst_154 : f32) outs(%extracted_slice_448 : tensor<?xf32>) {
        ^bb0(%in: f32, %out: f32):
          linalg.yield %in : f32
        } -> tensor<?xf32>
        %inserted_slice_449 = tensor.insert_slice %119 into %arg9[%arg8] [%118] [1] : tensor<?xf32> into tensor<1xf32>
        scf.yield %inserted_slice_449 : tensor<1xf32>
      }
      %c0_229 = arith.constant 0 : index
      %c1_230 = arith.constant 1 : index
      %c128_231 = arith.constant 128 : index
      %c0_232 = arith.constant 0 : index
      %c768_233 = arith.constant 768 : index
      %c128_234 = arith.constant 128 : index
      %48 = scf.for %arg8 = %c0_229 to %c1_230 step %c128_231 iter_args(%arg9 = %47) -> (tensor<1xf32>) {
        %118 = scf.for %arg10 = %c0_232 to %c768_233 step %c128_234 iter_args(%arg11 = %arg9) -> (tensor<1xf32>) {
          %119 = affine.min affine_map<(d0) -> (-d0 + 1, 128)>(%arg8)
          %120 = affine.min affine_map<(d0) -> (-d0 + 1, 128)>(%arg8)
          %extracted_slice_448 = tensor.extract_slice %arg5[%arg8, %arg10] [%119, 128] [1, 1] : tensor<1x768xf32> to tensor<?x128xf32>
          %extracted_slice_449 = tensor.extract_slice %arg11[%arg8] [%120] [1] : tensor<1xf32> to tensor<?xf32>
          %c0_450 = arith.constant 0 : index
          %c0_451 = arith.constant 0 : index
          %c0_452 = arith.constant 0 : index
          %c32_453 = arith.constant 32 : index
          %c0_454 = arith.constant 0 : index
          %c128_455 = arith.constant 128 : index
          %c32_456 = arith.constant 32 : index
          %121 = scf.for %arg12 = %c0_452 to %119 step %c32_453 iter_args(%arg13 = %extracted_slice_449) -> (tensor<?xf32>) {
            %122 = scf.for %arg14 = %c0_454 to %c128_455 step %c32_456 iter_args(%arg15 = %arg13) -> (tensor<?xf32>) {
              %123 = affine.apply affine_map<(d0) -> (d0 - 1)>(%119)
              %124 = affine.apply affine_map<(d0) -> (d0 - 1)>(%119)
              %125 = affine.min affine_map<(d0, d1) -> (d0 - d1, 32)>(%119, %arg12)
              %126 = affine.apply affine_map<(d0) -> (d0 - 1)>(%119)
              %127 = affine.apply affine_map<(d0) -> (d0 - 1)>(%119)
              %128 = affine.min affine_map<(d0, d1) -> (d0 - d1, 32)>(%119, %arg12)
              %extracted_slice_458 = tensor.extract_slice %extracted_slice_448[%arg12, %arg14] [%125, 32] [1, 1] : tensor<?x128xf32> to tensor<?x32xf32>
              %extracted_slice_459 = tensor.extract_slice %arg15[%arg12] [%128] [1] : tensor<?xf32> to tensor<?xf32>
              %129 = linalg.generic {indexing_maps = [affine_map<(d0, d1) -> (d0, d1)>, affine_map<(d0, d1) -> (d0)>], iterator_types = ["parallel", "reduction"]} ins(%extracted_slice_458 : tensor<?x32xf32>) outs(%extracted_slice_459 : tensor<?xf32>) {
              ^bb0(%in: f32, %out: f32):
                %130 = arith.mulf %in, %in : f32
                %131 = arith.addf %out, %130 : f32
                linalg.yield %131 : f32
              } -> tensor<?xf32>
              %inserted_slice_460 = tensor.insert_slice %129 into %arg15[%arg12] [%128] [1] : tensor<?xf32> into tensor<?xf32>
              scf.yield %inserted_slice_460 : tensor<?xf32>
            }
            scf.yield %122 : tensor<?xf32>
          }
          %inserted_slice_457 = tensor.insert_slice %121 into %arg11[%arg8] [%120] [1] : tensor<?xf32> into tensor<1xf32>
          scf.yield %inserted_slice_457 : tensor<1xf32>
        }
        scf.yield %118 : tensor<1xf32>
      }
      %49 = tensor.empty() : tensor<1xf32>
      %c0_235 = arith.constant 0 : index
      %c1_236 = arith.constant 1 : index
      %c32_237 = arith.constant 32 : index
      %50 = scf.for %arg8 = %c0_235 to %c1_236 step %c32_237 iter_args(%arg9 = %49) -> (tensor<1xf32>) {
        %118 = affine.min affine_map<(d0) -> (-d0 + 1, 32)>(%arg8)
        %119 = affine.min affine_map<(d0) -> (-d0 + 1, 32)>(%arg8)
        %extracted_slice_448 = tensor.extract_slice %48[%arg8] [%118] [1] : tensor<1xf32> to tensor<?xf32>
        %extracted_slice_449 = tensor.extract_slice %arg9[%arg8] [%119] [1] : tensor<1xf32> to tensor<?xf32>
        %120 = linalg.generic {indexing_maps = [affine_map<(d0) -> (d0)>, affine_map<(d0) -> (d0)>], iterator_types = ["parallel"]} ins(%extracted_slice_448 : tensor<?xf32>) outs(%extracted_slice_449 : tensor<?xf32>) {
        ^bb0(%in: f32, %out: f32):
          %121 = arith.divf %in, %cst_145 : f32
          %122 = arith.addf %121, %cst_153 : f32
          %123 = math.rsqrt %122 : f32
          linalg.yield %123 : f32
        } -> tensor<?xf32>
        %inserted_slice_450 = tensor.insert_slice %120 into %arg9[%arg8] [%119] [1] : tensor<?xf32> into tensor<1xf32>
        scf.yield %inserted_slice_450 : tensor<1xf32>
      }
      %51 = tensor.empty() : tensor<1x768xf32>
      %c0_238 = arith.constant 0 : index
      %c1_239 = arith.constant 1 : index
      %c32_240 = arith.constant 32 : index
      %c0_241 = arith.constant 0 : index
      %c768_242 = arith.constant 768 : index
      %c32_243 = arith.constant 32 : index
      %52 = scf.for %arg8 = %c0_238 to %c1_239 step %c32_240 iter_args(%arg9 = %51) -> (tensor<1x768xf32>) {
        %118 = scf.for %arg10 = %c0_241 to %c768_242 step %c32_243 iter_args(%arg11 = %arg9) -> (tensor<1x768xf32>) {
          %119 = affine.min affine_map<(d0) -> (-d0 + 1, 32)>(%arg8)
          %120 = affine.min affine_map<(d0) -> (-d0 + 1, 32)>(%arg8)
          %121 = affine.min affine_map<(d0) -> (-d0 + 1, 32)>(%arg8)
          %extracted_slice_448 = tensor.extract_slice %arg5[%arg8, %arg10] [%119, 32] [1, 1] : tensor<1x768xf32> to tensor<?x32xf32>
          %extracted_slice_449 = tensor.extract_slice %50[%arg8] [%120] [1] : tensor<1xf32> to tensor<?xf32>
          %extracted_slice_450 = tensor.extract_slice %extracted_slice_225[%arg10] [32] [1] : tensor<768xf32> to tensor<32xf32>
          %extracted_slice_451 = tensor.extract_slice %arg11[%arg8, %arg10] [%121, 32] [1, 1] : tensor<1x768xf32> to tensor<?x32xf32>
          %122 = linalg.generic {indexing_maps = [affine_map<(d0, d1) -> (d0, d1)>, affine_map<(d0, d1) -> (d0)>, affine_map<(d0, d1) -> (d1)>, affine_map<(d0, d1) -> (d0, d1)>], iterator_types = ["parallel", "parallel"]} ins(%extracted_slice_448, %extracted_slice_449, %extracted_slice_450 : tensor<?x32xf32>, tensor<?xf32>, tensor<32xf32>) outs(%extracted_slice_451 : tensor<?x32xf32>) {
          ^bb0(%in: f32, %in_453: f32, %in_454: f32, %out: f32):
            %123 = arith.mulf %in, %in_453 : f32
            %124 = arith.mulf %123, %in_454 : f32
            linalg.yield %124 : f32
          } -> tensor<?x32xf32>
          %inserted_slice_452 = tensor.insert_slice %122 into %arg11[%arg8, %arg10] [%121, 32] [1, 1] : tensor<?x32xf32> into tensor<1x768xf32>
          scf.yield %inserted_slice_452 : tensor<1x768xf32>
        }
        scf.yield %118 : tensor<1x768xf32>
      }
      %53 = arith.index_cast %44 : i64 to index
      %extracted_slice_244 = tensor.extract_slice %5[%53, %c0, %c0] [1, 768, 768] [1, 1, 1] : tensor<12x768x768xf32> to tensor<768x768xf32>
      %54 = arith.index_cast %44 : i64 to index
      %extracted_slice_245 = tensor.extract_slice %7[%54, %c0, %c0] [1, 768, 768] [1, 1, 1] : tensor<12x768x768xf32> to tensor<768x768xf32>
      %55 = arith.index_cast %44 : i64 to index
      %extracted_slice_246 = tensor.extract_slice %9[%55, %c0, %c0] [1, 768, 768] [1, 1, 1] : tensor<12x768x768xf32> to tensor<768x768xf32>
      %56 = tensor.empty() : tensor<1x768xf32>
      %c0_247 = arith.constant 0 : index
      %c1_248 = arith.constant 1 : index
      %c32_249 = arith.constant 32 : index
      %c0_250 = arith.constant 0 : index
      %c768_251 = arith.constant 768 : index
      %c32_252 = arith.constant 32 : index
      %57 = scf.for %arg8 = %c0_247 to %c1_248 step %c32_249 iter_args(%arg9 = %56) -> (tensor<1x768xf32>) {
        %118 = scf.for %arg10 = %c0_250 to %c768_251 step %c32_252 iter_args(%arg11 = %arg9) -> (tensor<1x768xf32>) {
          %119 = affine.min affine_map<(d0) -> (-d0 + 1, 32)>(%arg8)
          %extracted_slice_448 = tensor.extract_slice %arg11[%arg8, %arg10] [%119, 32] [1, 1] : tensor<1x768xf32> to tensor<?x32xf32>
          %120 = linalg.generic {indexing_maps = [affine_map<(d0, d1) -> ()>, affine_map<(d0, d1) -> (d0, d1)>], iterator_types = ["parallel", "parallel"]} ins(%cst_154 : f32) outs(%extracted_slice_448 : tensor<?x32xf32>) {
          ^bb0(%in: f32, %out: f32):
            linalg.yield %in : f32
          } -> tensor<?x32xf32>
          %inserted_slice_449 = tensor.insert_slice %120 into %arg11[%arg8, %arg10] [%119, 32] [1, 1] : tensor<?x32xf32> into tensor<1x768xf32>
          scf.yield %inserted_slice_449 : tensor<1x768xf32>
        }
        scf.yield %118 : tensor<1x768xf32>
      }
      %c0_253 = arith.constant 0 : index
      %c1_254 = arith.constant 1 : index
      %c128_255 = arith.constant 128 : index
      %c0_256 = arith.constant 0 : index
      %c768_257 = arith.constant 768 : index
      %c128_258 = arith.constant 128 : index
      %c0_259 = arith.constant 0 : index
      %c768_260 = arith.constant 768 : index
      %c128_261 = arith.constant 128 : index
      %58 = scf.for %arg8 = %c0_253 to %c1_254 step %c128_255 iter_args(%arg9 = %57) -> (tensor<1x768xf32>) {
        %118 = scf.for %arg10 = %c0_256 to %c768_257 step %c128_258 iter_args(%arg11 = %arg9) -> (tensor<1x768xf32>) {
          %119 = scf.for %arg12 = %c0_259 to %c768_260 step %c128_261 iter_args(%arg13 = %arg11) -> (tensor<1x768xf32>) {
            %120 = affine.min affine_map<(d0) -> (-d0 + 1, 128)>(%arg8)
            %121 = affine.min affine_map<(d0) -> (-d0 + 1, 128)>(%arg8)
            %extracted_slice_448 = tensor.extract_slice %52[%arg8, %arg12] [%120, 128] [1, 1] : tensor<1x768xf32> to tensor<?x128xf32>
            %extracted_slice_449 = tensor.extract_slice %extracted_slice_244[%arg12, %arg10] [128, 128] [1, 1] : tensor<768x768xf32> to tensor<128x128xf32>
            %extracted_slice_450 = tensor.extract_slice %arg13[%arg8, %arg10] [%121, 128] [1, 1] : tensor<1x768xf32> to tensor<?x128xf32>
            %c0_451 = arith.constant 0 : index
            %c0_452 = arith.constant 0 : index
            %c0_453 = arith.constant 0 : index
            %c32_454 = arith.constant 32 : index
            %c0_455 = arith.constant 0 : index
            %c128_456 = arith.constant 128 : index
            %c32_457 = arith.constant 32 : index
            %c0_458 = arith.constant 0 : index
            %c128_459 = arith.constant 128 : index
            %c32_460 = arith.constant 32 : index
            %122 = scf.for %arg14 = %c0_453 to %120 step %c32_454 iter_args(%arg15 = %extracted_slice_450) -> (tensor<?x128xf32>) {
              %123 = scf.for %arg16 = %c0_455 to %c128_456 step %c32_457 iter_args(%arg17 = %arg15) -> (tensor<?x128xf32>) {
                %124 = scf.for %arg18 = %c0_458 to %c128_459 step %c32_460 iter_args(%arg19 = %arg17) -> (tensor<?x128xf32>) {
                  %125 = affine.apply affine_map<(d0) -> (d0 - 1)>(%120)
                  %126 = affine.apply affine_map<(d0) -> (d0 - 1)>(%120)
                  %127 = affine.min affine_map<(d0, d1) -> (d0 - d1, 32)>(%120, %arg14)
                  %128 = affine.apply affine_map<(d0) -> (d0 - 1)>(%120)
                  %129 = affine.apply affine_map<(d0) -> (d0 - 1)>(%120)
                  %130 = affine.min affine_map<(d0, d1) -> (d0 - d1, 32)>(%120, %arg14)
                  %extracted_slice_462 = tensor.extract_slice %extracted_slice_448[%arg14, %arg18] [%127, 32] [1, 1] : tensor<?x128xf32> to tensor<?x32xf32>
                  %extracted_slice_463 = tensor.extract_slice %extracted_slice_449[%arg18, %arg16] [32, 32] [1, 1] : tensor<128x128xf32> to tensor<32x32xf32>
                  %extracted_slice_464 = tensor.extract_slice %arg19[%arg14, %arg16] [%130, 32] [1, 1] : tensor<?x128xf32> to tensor<?x32xf32>
                  %131 = linalg.generic {indexing_maps = [affine_map<(d0, d1, d2) -> (d0, d2)>, affine_map<(d0, d1, d2) -> (d2, d1)>, affine_map<(d0, d1, d2) -> (d0, d1)>], iterator_types = ["parallel", "parallel", "reduction"]} ins(%extracted_slice_462, %extracted_slice_463 : tensor<?x32xf32>, tensor<32x32xf32>) outs(%extracted_slice_464 : tensor<?x32xf32>) {
                  ^bb0(%in: f32, %in_466: f32, %out: f32):
                    %132 = arith.mulf %in, %in_466 : f32
                    %133 = arith.addf %out, %132 : f32
                    linalg.yield %133 : f32
                  } -> tensor<?x32xf32>
                  %inserted_slice_465 = tensor.insert_slice %131 into %arg19[%arg14, %arg16] [%130, 32] [1, 1] : tensor<?x32xf32> into tensor<?x128xf32>
                  scf.yield %inserted_slice_465 : tensor<?x128xf32>
                }
                scf.yield %124 : tensor<?x128xf32>
              }
              scf.yield %123 : tensor<?x128xf32>
            }
            %inserted_slice_461 = tensor.insert_slice %122 into %arg13[%arg8, %arg10] [%121, 128] [1, 1] : tensor<?x128xf32> into tensor<1x768xf32>
            scf.yield %inserted_slice_461 : tensor<1x768xf32>
          }
          scf.yield %119 : tensor<1x768xf32>
        }
        scf.yield %118 : tensor<1x768xf32>
      }
      %59 = tensor.empty() : tensor<1x768xf32>
      %c0_262 = arith.constant 0 : index
      %c1_263 = arith.constant 1 : index
      %c32_264 = arith.constant 32 : index
      %c0_265 = arith.constant 0 : index
      %c768_266 = arith.constant 768 : index
      %c32_267 = arith.constant 32 : index
      %60 = scf.for %arg8 = %c0_262 to %c1_263 step %c32_264 iter_args(%arg9 = %59) -> (tensor<1x768xf32>) {
        %118 = scf.for %arg10 = %c0_265 to %c768_266 step %c32_267 iter_args(%arg11 = %arg9) -> (tensor<1x768xf32>) {
          %119 = affine.min affine_map<(d0) -> (-d0 + 1, 32)>(%arg8)
          %extracted_slice_448 = tensor.extract_slice %arg11[%arg8, %arg10] [%119, 32] [1, 1] : tensor<1x768xf32> to tensor<?x32xf32>
          %120 = linalg.generic {indexing_maps = [affine_map<(d0, d1) -> ()>, affine_map<(d0, d1) -> (d0, d1)>], iterator_types = ["parallel", "parallel"]} ins(%cst_154 : f32) outs(%extracted_slice_448 : tensor<?x32xf32>) {
          ^bb0(%in: f32, %out: f32):
            linalg.yield %in : f32
          } -> tensor<?x32xf32>
          %inserted_slice_449 = tensor.insert_slice %120 into %arg11[%arg8, %arg10] [%119, 32] [1, 1] : tensor<?x32xf32> into tensor<1x768xf32>
          scf.yield %inserted_slice_449 : tensor<1x768xf32>
        }
        scf.yield %118 : tensor<1x768xf32>
      }
      %c0_268 = arith.constant 0 : index
      %c1_269 = arith.constant 1 : index
      %c128_270 = arith.constant 128 : index
      %c0_271 = arith.constant 0 : index
      %c768_272 = arith.constant 768 : index
      %c128_273 = arith.constant 128 : index
      %c0_274 = arith.constant 0 : index
      %c768_275 = arith.constant 768 : index
      %c128_276 = arith.constant 128 : index
      %61 = scf.for %arg8 = %c0_268 to %c1_269 step %c128_270 iter_args(%arg9 = %60) -> (tensor<1x768xf32>) {
        %118 = scf.for %arg10 = %c0_271 to %c768_272 step %c128_273 iter_args(%arg11 = %arg9) -> (tensor<1x768xf32>) {
          %119 = scf.for %arg12 = %c0_274 to %c768_275 step %c128_276 iter_args(%arg13 = %arg11) -> (tensor<1x768xf32>) {
            %120 = affine.min affine_map<(d0) -> (-d0 + 1, 128)>(%arg8)
            %121 = affine.min affine_map<(d0) -> (-d0 + 1, 128)>(%arg8)
            %extracted_slice_448 = tensor.extract_slice %52[%arg8, %arg12] [%120, 128] [1, 1] : tensor<1x768xf32> to tensor<?x128xf32>
            %extracted_slice_449 = tensor.extract_slice %extracted_slice_245[%arg12, %arg10] [128, 128] [1, 1] : tensor<768x768xf32> to tensor<128x128xf32>
            %extracted_slice_450 = tensor.extract_slice %arg13[%arg8, %arg10] [%121, 128] [1, 1] : tensor<1x768xf32> to tensor<?x128xf32>
            %c0_451 = arith.constant 0 : index
            %c0_452 = arith.constant 0 : index
            %c0_453 = arith.constant 0 : index
            %c32_454 = arith.constant 32 : index
            %c0_455 = arith.constant 0 : index
            %c128_456 = arith.constant 128 : index
            %c32_457 = arith.constant 32 : index
            %c0_458 = arith.constant 0 : index
            %c128_459 = arith.constant 128 : index
            %c32_460 = arith.constant 32 : index
            %122 = scf.for %arg14 = %c0_453 to %120 step %c32_454 iter_args(%arg15 = %extracted_slice_450) -> (tensor<?x128xf32>) {
              %123 = scf.for %arg16 = %c0_455 to %c128_456 step %c32_457 iter_args(%arg17 = %arg15) -> (tensor<?x128xf32>) {
                %124 = scf.for %arg18 = %c0_458 to %c128_459 step %c32_460 iter_args(%arg19 = %arg17) -> (tensor<?x128xf32>) {
                  %125 = affine.apply affine_map<(d0) -> (d0 - 1)>(%120)
                  %126 = affine.apply affine_map<(d0) -> (d0 - 1)>(%120)
                  %127 = affine.min affine_map<(d0, d1) -> (d0 - d1, 32)>(%120, %arg14)
                  %128 = affine.apply affine_map<(d0) -> (d0 - 1)>(%120)
                  %129 = affine.apply affine_map<(d0) -> (d0 - 1)>(%120)
                  %130 = affine.min affine_map<(d0, d1) -> (d0 - d1, 32)>(%120, %arg14)
                  %extracted_slice_462 = tensor.extract_slice %extracted_slice_448[%arg14, %arg18] [%127, 32] [1, 1] : tensor<?x128xf32> to tensor<?x32xf32>
                  %extracted_slice_463 = tensor.extract_slice %extracted_slice_449[%arg18, %arg16] [32, 32] [1, 1] : tensor<128x128xf32> to tensor<32x32xf32>
                  %extracted_slice_464 = tensor.extract_slice %arg19[%arg14, %arg16] [%130, 32] [1, 1] : tensor<?x128xf32> to tensor<?x32xf32>
                  %131 = linalg.generic {indexing_maps = [affine_map<(d0, d1, d2) -> (d0, d2)>, affine_map<(d0, d1, d2) -> (d2, d1)>, affine_map<(d0, d1, d2) -> (d0, d1)>], iterator_types = ["parallel", "parallel", "reduction"]} ins(%extracted_slice_462, %extracted_slice_463 : tensor<?x32xf32>, tensor<32x32xf32>) outs(%extracted_slice_464 : tensor<?x32xf32>) {
                  ^bb0(%in: f32, %in_466: f32, %out: f32):
                    %132 = arith.mulf %in, %in_466 : f32
                    %133 = arith.addf %out, %132 : f32
                    linalg.yield %133 : f32
                  } -> tensor<?x32xf32>
                  %inserted_slice_465 = tensor.insert_slice %131 into %arg19[%arg14, %arg16] [%130, 32] [1, 1] : tensor<?x32xf32> into tensor<?x128xf32>
                  scf.yield %inserted_slice_465 : tensor<?x128xf32>
                }
                scf.yield %124 : tensor<?x128xf32>
              }
              scf.yield %123 : tensor<?x128xf32>
            }
            %inserted_slice_461 = tensor.insert_slice %122 into %arg13[%arg8, %arg10] [%121, 128] [1, 1] : tensor<?x128xf32> into tensor<1x768xf32>
            scf.yield %inserted_slice_461 : tensor<1x768xf32>
          }
          scf.yield %119 : tensor<1x768xf32>
        }
        scf.yield %118 : tensor<1x768xf32>
      }
      %62 = tensor.empty() : tensor<1x768xf32>
      %c0_277 = arith.constant 0 : index
      %c1_278 = arith.constant 1 : index
      %c32_279 = arith.constant 32 : index
      %c0_280 = arith.constant 0 : index
      %c768_281 = arith.constant 768 : index
      %c32_282 = arith.constant 32 : index
      %63 = scf.for %arg8 = %c0_277 to %c1_278 step %c32_279 iter_args(%arg9 = %62) -> (tensor<1x768xf32>) {
        %118 = scf.for %arg10 = %c0_280 to %c768_281 step %c32_282 iter_args(%arg11 = %arg9) -> (tensor<1x768xf32>) {
          %119 = affine.min affine_map<(d0) -> (-d0 + 1, 32)>(%arg8)
          %extracted_slice_448 = tensor.extract_slice %arg11[%arg8, %arg10] [%119, 32] [1, 1] : tensor<1x768xf32> to tensor<?x32xf32>
          %120 = linalg.generic {indexing_maps = [affine_map<(d0, d1) -> ()>, affine_map<(d0, d1) -> (d0, d1)>], iterator_types = ["parallel", "parallel"]} ins(%cst_154 : f32) outs(%extracted_slice_448 : tensor<?x32xf32>) {
          ^bb0(%in: f32, %out: f32):
            linalg.yield %in : f32
          } -> tensor<?x32xf32>
          %inserted_slice_449 = tensor.insert_slice %120 into %arg11[%arg8, %arg10] [%119, 32] [1, 1] : tensor<?x32xf32> into tensor<1x768xf32>
          scf.yield %inserted_slice_449 : tensor<1x768xf32>
        }
        scf.yield %118 : tensor<1x768xf32>
      }
      %c0_283 = arith.constant 0 : index
      %c1_284 = arith.constant 1 : index
      %c128_285 = arith.constant 128 : index
      %c0_286 = arith.constant 0 : index
      %c768_287 = arith.constant 768 : index
      %c128_288 = arith.constant 128 : index
      %c0_289 = arith.constant 0 : index
      %c768_290 = arith.constant 768 : index
      %c128_291 = arith.constant 128 : index
      %64 = scf.for %arg8 = %c0_283 to %c1_284 step %c128_285 iter_args(%arg9 = %63) -> (tensor<1x768xf32>) {
        %118 = scf.for %arg10 = %c0_286 to %c768_287 step %c128_288 iter_args(%arg11 = %arg9) -> (tensor<1x768xf32>) {
          %119 = scf.for %arg12 = %c0_289 to %c768_290 step %c128_291 iter_args(%arg13 = %arg11) -> (tensor<1x768xf32>) {
            %120 = affine.min affine_map<(d0) -> (-d0 + 1, 128)>(%arg8)
            %121 = affine.min affine_map<(d0) -> (-d0 + 1, 128)>(%arg8)
            %extracted_slice_448 = tensor.extract_slice %52[%arg8, %arg12] [%120, 128] [1, 1] : tensor<1x768xf32> to tensor<?x128xf32>
            %extracted_slice_449 = tensor.extract_slice %extracted_slice_246[%arg12, %arg10] [128, 128] [1, 1] : tensor<768x768xf32> to tensor<128x128xf32>
            %extracted_slice_450 = tensor.extract_slice %arg13[%arg8, %arg10] [%121, 128] [1, 1] : tensor<1x768xf32> to tensor<?x128xf32>
            %c0_451 = arith.constant 0 : index
            %c0_452 = arith.constant 0 : index
            %c0_453 = arith.constant 0 : index
            %c32_454 = arith.constant 32 : index
            %c0_455 = arith.constant 0 : index
            %c128_456 = arith.constant 128 : index
            %c32_457 = arith.constant 32 : index
            %c0_458 = arith.constant 0 : index
            %c128_459 = arith.constant 128 : index
            %c32_460 = arith.constant 32 : index
            %122 = scf.for %arg14 = %c0_453 to %120 step %c32_454 iter_args(%arg15 = %extracted_slice_450) -> (tensor<?x128xf32>) {
              %123 = scf.for %arg16 = %c0_455 to %c128_456 step %c32_457 iter_args(%arg17 = %arg15) -> (tensor<?x128xf32>) {
                %124 = scf.for %arg18 = %c0_458 to %c128_459 step %c32_460 iter_args(%arg19 = %arg17) -> (tensor<?x128xf32>) {
                  %125 = affine.apply affine_map<(d0) -> (d0 - 1)>(%120)
                  %126 = affine.apply affine_map<(d0) -> (d0 - 1)>(%120)
                  %127 = affine.min affine_map<(d0, d1) -> (d0 - d1, 32)>(%120, %arg14)
                  %128 = affine.apply affine_map<(d0) -> (d0 - 1)>(%120)
                  %129 = affine.apply affine_map<(d0) -> (d0 - 1)>(%120)
                  %130 = affine.min affine_map<(d0, d1) -> (d0 - d1, 32)>(%120, %arg14)
                  %extracted_slice_462 = tensor.extract_slice %extracted_slice_448[%arg14, %arg18] [%127, 32] [1, 1] : tensor<?x128xf32> to tensor<?x32xf32>
                  %extracted_slice_463 = tensor.extract_slice %extracted_slice_449[%arg18, %arg16] [32, 32] [1, 1] : tensor<128x128xf32> to tensor<32x32xf32>
                  %extracted_slice_464 = tensor.extract_slice %arg19[%arg14, %arg16] [%130, 32] [1, 1] : tensor<?x128xf32> to tensor<?x32xf32>
                  %131 = linalg.generic {indexing_maps = [affine_map<(d0, d1, d2) -> (d0, d2)>, affine_map<(d0, d1, d2) -> (d2, d1)>, affine_map<(d0, d1, d2) -> (d0, d1)>], iterator_types = ["parallel", "parallel", "reduction"]} ins(%extracted_slice_462, %extracted_slice_463 : tensor<?x32xf32>, tensor<32x32xf32>) outs(%extracted_slice_464 : tensor<?x32xf32>) {
                  ^bb0(%in: f32, %in_466: f32, %out: f32):
                    %132 = arith.mulf %in, %in_466 : f32
                    %133 = arith.addf %out, %132 : f32
                    linalg.yield %133 : f32
                  } -> tensor<?x32xf32>
                  %inserted_slice_465 = tensor.insert_slice %131 into %arg19[%arg14, %arg16] [%130, 32] [1, 1] : tensor<?x32xf32> into tensor<?x128xf32>
                  scf.yield %inserted_slice_465 : tensor<?x128xf32>
                }
                scf.yield %124 : tensor<?x128xf32>
              }
              scf.yield %123 : tensor<?x128xf32>
            }
            %inserted_slice_461 = tensor.insert_slice %122 into %arg13[%arg8, %arg10] [%121, 128] [1, 1] : tensor<?x128xf32> into tensor<1x768xf32>
            scf.yield %inserted_slice_461 : tensor<1x768xf32>
          }
          scf.yield %119 : tensor<1x768xf32>
        }
        scf.yield %118 : tensor<1x768xf32>
      }
      %reshape = tensor.reshape %58(%cst_144) : (tensor<1x768xf32>, tensor<3xi64>) -> tensor<1x12x64xf32>
      %65 = tensor.empty() : tensor<32xf32>
      %66 = tensor.empty() : tensor<32xf32>
      %67 = arith.uitofp %arg1 : i64 to f32
      %c0_292 = arith.constant 0 : index
      %c32_293 = arith.constant 32 : index
      %c32_294 = arith.constant 32 : index
      %68:2 = scf.for %arg8 = %c0_292 to %c32_293 step %c32_294 iter_args(%arg9 = %65, %arg10 = %66) -> (tensor<32xf32>, tensor<32xf32>) {
        %extracted_slice_448 = tensor.extract_slice %arg9[%arg8] [32] [1] : tensor<32xf32> to tensor<32xf32>
        %extracted_slice_449 = tensor.extract_slice %arg10[%arg8] [32] [1] : tensor<32xf32> to tensor<32xf32>
        %118:2 = linalg.generic {indexing_maps = [affine_map<(d0) -> (d0)>, affine_map<(d0) -> (d0)>], iterator_types = ["parallel"]} outs(%extracted_slice_448, %extracted_slice_449 : tensor<32xf32>, tensor<32xf32>) {
        ^bb0(%out: f32, %out_452: f32):
          %119 = linalg.index 0 : index
          %120 = affine.apply affine_map<(d0, d1) -> (d0 + d1)>(%119, %arg8)
          %121 = arith.index_cast %120 : index to i64
          %122 = arith.uitofp %121 : i64 to f32
          %123 = arith.mulf %122, %cst_150 : f32
          %124 = arith.divf %123, %cst_151 : f32
          %125 = math.powf %cst_152, %124 : f32
          %126 = arith.mulf %67, %125 : f32
          %127 = math.cos %126 : f32
          %128 = math.sin %126 : f32
          linalg.yield %127, %128 : f32, f32
        } -> (tensor<32xf32>, tensor<32xf32>)
        %inserted_slice_450 = tensor.insert_slice %118#0 into %arg9[%arg8] [32] [1] : tensor<32xf32> into tensor<32xf32>
        %inserted_slice_451 = tensor.insert_slice %118#1 into %arg10[%arg8] [32] [1] : tensor<32xf32> into tensor<32xf32>
        scf.yield %inserted_slice_450, %inserted_slice_451 : tensor<32xf32>, tensor<32xf32>
      }
      %expanded = tensor.expand_shape %reshape [[0], [1], [2, 3]] output_shape [1, 12, 32, 2] : tensor<1x12x64xf32> into tensor<1x12x32x2xf32>
      %extracted_slice_295 = tensor.extract_slice %expanded[0, 0, 0, 0] [1, 12, 32, 1] [1, 1, 1, 1] : tensor<1x12x32x2xf32> to tensor<1x12x32x1xf32>
      %collapsed = tensor.collapse_shape %extracted_slice_295 [[0], [1], [2, 3]] : tensor<1x12x32x1xf32> into tensor<1x12x32xf32>
      %extracted_slice_296 = tensor.extract_slice %expanded[0, 0, 0, 1] [1, 12, 32, 1] [1, 1, 1, 1] : tensor<1x12x32x2xf32> to tensor<1x12x32x1xf32>
      %collapsed_297 = tensor.collapse_shape %extracted_slice_296 [[0], [1], [2, 3]] : tensor<1x12x32x1xf32> into tensor<1x12x32xf32>
      %69 = tensor.empty() : tensor<1x12x32xf32>
      %c0_298 = arith.constant 0 : index
      %c1_299 = arith.constant 1 : index
      %c32_300 = arith.constant 32 : index
      %c0_301 = arith.constant 0 : index
      %c12_302 = arith.constant 12 : index
      %c32_303 = arith.constant 32 : index
      %c0_304 = arith.constant 0 : index
      %c32_305 = arith.constant 32 : index
      %c32_306 = arith.constant 32 : index
      %70:2 = scf.for %arg8 = %c0_298 to %c1_299 step %c32_300 iter_args(%arg9 = %69, %arg10 = %69) -> (tensor<1x12x32xf32>, tensor<1x12x32xf32>) {
        %118:2 = scf.for %arg11 = %c0_301 to %c12_302 step %c32_303 iter_args(%arg12 = %arg9, %arg13 = %arg10) -> (tensor<1x12x32xf32>, tensor<1x12x32xf32>) {
          %119:2 = scf.for %arg14 = %c0_304 to %c32_305 step %c32_306 iter_args(%arg15 = %arg12, %arg16 = %arg13) -> (tensor<1x12x32xf32>, tensor<1x12x32xf32>) {
            %120 = affine.min affine_map<(d0) -> (-d0 + 1, 32)>(%arg8)
            %121 = affine.min affine_map<(d0) -> (-d0 + 12, 32)>(%arg11)
            %122 = affine.min affine_map<(d0) -> (-d0 + 1, 32)>(%arg8)
            %123 = affine.min affine_map<(d0) -> (-d0 + 12, 32)>(%arg11)
            %124 = affine.min affine_map<(d0) -> (-d0 + 1, 32)>(%arg8)
            %125 = affine.min affine_map<(d0) -> (-d0 + 12, 32)>(%arg11)
            %126 = affine.min affine_map<(d0) -> (-d0 + 1, 32)>(%arg8)
            %127 = affine.min affine_map<(d0) -> (-d0 + 12, 32)>(%arg11)
            %extracted_slice_448 = tensor.extract_slice %collapsed[%arg8, %arg11, %arg14] [%120, %121, 32] [1, 1, 1] : tensor<1x12x32xf32> to tensor<?x?x32xf32>
            %extracted_slice_449 = tensor.extract_slice %collapsed_297[%arg8, %arg11, %arg14] [%122, %123, 32] [1, 1, 1] : tensor<1x12x32xf32> to tensor<?x?x32xf32>
            %extracted_slice_450 = tensor.extract_slice %68#0[%arg14] [32] [1] : tensor<32xf32> to tensor<32xf32>
            %extracted_slice_451 = tensor.extract_slice %68#1[%arg14] [32] [1] : tensor<32xf32> to tensor<32xf32>
            %extracted_slice_452 = tensor.extract_slice %arg15[%arg8, %arg11, %arg14] [%124, %125, 32] [1, 1, 1] : tensor<1x12x32xf32> to tensor<?x?x32xf32>
            %extracted_slice_453 = tensor.extract_slice %arg16[%arg8, %arg11, %arg14] [%126, %127, 32] [1, 1, 1] : tensor<1x12x32xf32> to tensor<?x?x32xf32>
            %128:2 = linalg.generic {indexing_maps = [affine_map<(d0, d1, d2) -> (d0, d1, d2)>, affine_map<(d0, d1, d2) -> (d0, d1, d2)>, affine_map<(d0, d1, d2) -> (d2)>, affine_map<(d0, d1, d2) -> (d2)>, affine_map<(d0, d1, d2) -> (d0, d1, d2)>, affine_map<(d0, d1, d2) -> (d0, d1, d2)>], iterator_types = ["parallel", "parallel", "parallel"]} ins(%extracted_slice_448, %extracted_slice_449, %extracted_slice_450, %extracted_slice_451 : tensor<?x?x32xf32>, tensor<?x?x32xf32>, tensor<32xf32>, tensor<32xf32>) outs(%extracted_slice_452, %extracted_slice_453 : tensor<?x?x32xf32>, tensor<?x?x32xf32>) {
            ^bb0(%in: f32, %in_456: f32, %in_457: f32, %in_458: f32, %out: f32, %out_459: f32):
              %129 = arith.mulf %in, %in_457 : f32
              %130 = arith.mulf %in_456, %in_458 : f32
              %131 = arith.subf %129, %130 : f32
              %132 = arith.mulf %in_456, %in_457 : f32
              %133 = arith.mulf %in, %in_458 : f32
              %134 = arith.addf %132, %133 : f32
              linalg.yield %131, %134 : f32, f32
            } -> (tensor<?x?x32xf32>, tensor<?x?x32xf32>)
            %inserted_slice_454 = tensor.insert_slice %128#0 into %arg15[%arg8, %arg11, %arg14] [%124, %125, 32] [1, 1, 1] : tensor<?x?x32xf32> into tensor<1x12x32xf32>
            %inserted_slice_455 = tensor.insert_slice %128#1 into %arg16[%arg8, %arg11, %arg14] [%126, %127, 32] [1, 1, 1] : tensor<?x?x32xf32> into tensor<1x12x32xf32>
            scf.yield %inserted_slice_454, %inserted_slice_455 : tensor<1x12x32xf32>, tensor<1x12x32xf32>
          }
          scf.yield %119#0, %119#1 : tensor<1x12x32xf32>, tensor<1x12x32xf32>
        }
        scf.yield %118#0, %118#1 : tensor<1x12x32xf32>, tensor<1x12x32xf32>
      }
      %expanded_307 = tensor.expand_shape %70#0 [[0], [1], [2, 3]] output_shape [1, 12, 32, 1] : tensor<1x12x32xf32> into tensor<1x12x32x1xf32>
      %expanded_308 = tensor.expand_shape %70#1 [[0], [1], [2, 3]] output_shape [1, 12, 32, 1] : tensor<1x12x32xf32> into tensor<1x12x32x1xf32>
      %71 = tensor.empty() : tensor<1x12x32x2xf32>
      %inserted_slice = tensor.insert_slice %expanded_307 into %71[0, 0, 0, 0] [1, 12, 32, 1] [1, 1, 1, 1] : tensor<1x12x32x1xf32> into tensor<1x12x32x2xf32>
      %inserted_slice_309 = tensor.insert_slice %expanded_308 into %inserted_slice[0, 0, 0, 1] [1, 12, 32, 1] [1, 1, 1, 1] : tensor<1x12x32x1xf32> into tensor<1x12x32x2xf32>
      %collapsed_310 = tensor.collapse_shape %inserted_slice_309 [[0], [1], [2, 3]] : tensor<1x12x32x2xf32> into tensor<1x12x64xf32>
      %reshape_311 = tensor.reshape %collapsed_310(%cst_143) : (tensor<1x12x64xf32>, tensor<2xi64>) -> tensor<1x768xf32>
      %reshape_312 = tensor.reshape %61(%cst_144) : (tensor<1x768xf32>, tensor<3xi64>) -> tensor<1x12x64xf32>
      %72 = tensor.empty() : tensor<32xf32>
      %73 = tensor.empty() : tensor<32xf32>
      %74 = arith.uitofp %arg1 : i64 to f32
      %c0_313 = arith.constant 0 : index
      %c32_314 = arith.constant 32 : index
      %c32_315 = arith.constant 32 : index
      %75:2 = scf.for %arg8 = %c0_313 to %c32_314 step %c32_315 iter_args(%arg9 = %72, %arg10 = %73) -> (tensor<32xf32>, tensor<32xf32>) {
        %extracted_slice_448 = tensor.extract_slice %arg9[%arg8] [32] [1] : tensor<32xf32> to tensor<32xf32>
        %extracted_slice_449 = tensor.extract_slice %arg10[%arg8] [32] [1] : tensor<32xf32> to tensor<32xf32>
        %118:2 = linalg.generic {indexing_maps = [affine_map<(d0) -> (d0)>, affine_map<(d0) -> (d0)>], iterator_types = ["parallel"]} outs(%extracted_slice_448, %extracted_slice_449 : tensor<32xf32>, tensor<32xf32>) {
        ^bb0(%out: f32, %out_452: f32):
          %119 = linalg.index 0 : index
          %120 = affine.apply affine_map<(d0, d1) -> (d0 + d1)>(%119, %arg8)
          %121 = arith.index_cast %120 : index to i64
          %122 = arith.uitofp %121 : i64 to f32
          %123 = arith.mulf %122, %cst_150 : f32
          %124 = arith.divf %123, %cst_151 : f32
          %125 = math.powf %cst_152, %124 : f32
          %126 = arith.mulf %74, %125 : f32
          %127 = math.cos %126 : f32
          %128 = math.sin %126 : f32
          linalg.yield %127, %128 : f32, f32
        } -> (tensor<32xf32>, tensor<32xf32>)
        %inserted_slice_450 = tensor.insert_slice %118#0 into %arg9[%arg8] [32] [1] : tensor<32xf32> into tensor<32xf32>
        %inserted_slice_451 = tensor.insert_slice %118#1 into %arg10[%arg8] [32] [1] : tensor<32xf32> into tensor<32xf32>
        scf.yield %inserted_slice_450, %inserted_slice_451 : tensor<32xf32>, tensor<32xf32>
      }
      %expanded_316 = tensor.expand_shape %reshape_312 [[0], [1], [2, 3]] output_shape [1, 12, 32, 2] : tensor<1x12x64xf32> into tensor<1x12x32x2xf32>
      %extracted_slice_317 = tensor.extract_slice %expanded_316[0, 0, 0, 0] [1, 12, 32, 1] [1, 1, 1, 1] : tensor<1x12x32x2xf32> to tensor<1x12x32x1xf32>
      %collapsed_318 = tensor.collapse_shape %extracted_slice_317 [[0], [1], [2, 3]] : tensor<1x12x32x1xf32> into tensor<1x12x32xf32>
      %extracted_slice_319 = tensor.extract_slice %expanded_316[0, 0, 0, 1] [1, 12, 32, 1] [1, 1, 1, 1] : tensor<1x12x32x2xf32> to tensor<1x12x32x1xf32>
      %collapsed_320 = tensor.collapse_shape %extracted_slice_319 [[0], [1], [2, 3]] : tensor<1x12x32x1xf32> into tensor<1x12x32xf32>
      %76 = tensor.empty() : tensor<1x12x32xf32>
      %c0_321 = arith.constant 0 : index
      %c1_322 = arith.constant 1 : index
      %c32_323 = arith.constant 32 : index
      %c0_324 = arith.constant 0 : index
      %c12_325 = arith.constant 12 : index
      %c32_326 = arith.constant 32 : index
      %c0_327 = arith.constant 0 : index
      %c32_328 = arith.constant 32 : index
      %c32_329 = arith.constant 32 : index
      %77:2 = scf.for %arg8 = %c0_321 to %c1_322 step %c32_323 iter_args(%arg9 = %76, %arg10 = %76) -> (tensor<1x12x32xf32>, tensor<1x12x32xf32>) {
        %118:2 = scf.for %arg11 = %c0_324 to %c12_325 step %c32_326 iter_args(%arg12 = %arg9, %arg13 = %arg10) -> (tensor<1x12x32xf32>, tensor<1x12x32xf32>) {
          %119:2 = scf.for %arg14 = %c0_327 to %c32_328 step %c32_329 iter_args(%arg15 = %arg12, %arg16 = %arg13) -> (tensor<1x12x32xf32>, tensor<1x12x32xf32>) {
            %120 = affine.min affine_map<(d0) -> (-d0 + 1, 32)>(%arg8)
            %121 = affine.min affine_map<(d0) -> (-d0 + 12, 32)>(%arg11)
            %122 = affine.min affine_map<(d0) -> (-d0 + 1, 32)>(%arg8)
            %123 = affine.min affine_map<(d0) -> (-d0 + 12, 32)>(%arg11)
            %124 = affine.min affine_map<(d0) -> (-d0 + 1, 32)>(%arg8)
            %125 = affine.min affine_map<(d0) -> (-d0 + 12, 32)>(%arg11)
            %126 = affine.min affine_map<(d0) -> (-d0 + 1, 32)>(%arg8)
            %127 = affine.min affine_map<(d0) -> (-d0 + 12, 32)>(%arg11)
            %extracted_slice_448 = tensor.extract_slice %collapsed_318[%arg8, %arg11, %arg14] [%120, %121, 32] [1, 1, 1] : tensor<1x12x32xf32> to tensor<?x?x32xf32>
            %extracted_slice_449 = tensor.extract_slice %collapsed_320[%arg8, %arg11, %arg14] [%122, %123, 32] [1, 1, 1] : tensor<1x12x32xf32> to tensor<?x?x32xf32>
            %extracted_slice_450 = tensor.extract_slice %75#0[%arg14] [32] [1] : tensor<32xf32> to tensor<32xf32>
            %extracted_slice_451 = tensor.extract_slice %75#1[%arg14] [32] [1] : tensor<32xf32> to tensor<32xf32>
            %extracted_slice_452 = tensor.extract_slice %arg15[%arg8, %arg11, %arg14] [%124, %125, 32] [1, 1, 1] : tensor<1x12x32xf32> to tensor<?x?x32xf32>
            %extracted_slice_453 = tensor.extract_slice %arg16[%arg8, %arg11, %arg14] [%126, %127, 32] [1, 1, 1] : tensor<1x12x32xf32> to tensor<?x?x32xf32>
            %128:2 = linalg.generic {indexing_maps = [affine_map<(d0, d1, d2) -> (d0, d1, d2)>, affine_map<(d0, d1, d2) -> (d0, d1, d2)>, affine_map<(d0, d1, d2) -> (d2)>, affine_map<(d0, d1, d2) -> (d2)>, affine_map<(d0, d1, d2) -> (d0, d1, d2)>, affine_map<(d0, d1, d2) -> (d0, d1, d2)>], iterator_types = ["parallel", "parallel", "parallel"]} ins(%extracted_slice_448, %extracted_slice_449, %extracted_slice_450, %extracted_slice_451 : tensor<?x?x32xf32>, tensor<?x?x32xf32>, tensor<32xf32>, tensor<32xf32>) outs(%extracted_slice_452, %extracted_slice_453 : tensor<?x?x32xf32>, tensor<?x?x32xf32>) {
            ^bb0(%in: f32, %in_456: f32, %in_457: f32, %in_458: f32, %out: f32, %out_459: f32):
              %129 = arith.mulf %in, %in_457 : f32
              %130 = arith.mulf %in_456, %in_458 : f32
              %131 = arith.subf %129, %130 : f32
              %132 = arith.mulf %in_456, %in_457 : f32
              %133 = arith.mulf %in, %in_458 : f32
              %134 = arith.addf %132, %133 : f32
              linalg.yield %131, %134 : f32, f32
            } -> (tensor<?x?x32xf32>, tensor<?x?x32xf32>)
            %inserted_slice_454 = tensor.insert_slice %128#0 into %arg15[%arg8, %arg11, %arg14] [%124, %125, 32] [1, 1, 1] : tensor<?x?x32xf32> into tensor<1x12x32xf32>
            %inserted_slice_455 = tensor.insert_slice %128#1 into %arg16[%arg8, %arg11, %arg14] [%126, %127, 32] [1, 1, 1] : tensor<?x?x32xf32> into tensor<1x12x32xf32>
            scf.yield %inserted_slice_454, %inserted_slice_455 : tensor<1x12x32xf32>, tensor<1x12x32xf32>
          }
          scf.yield %119#0, %119#1 : tensor<1x12x32xf32>, tensor<1x12x32xf32>
        }
        scf.yield %118#0, %118#1 : tensor<1x12x32xf32>, tensor<1x12x32xf32>
      }
      %expanded_330 = tensor.expand_shape %77#0 [[0], [1], [2, 3]] output_shape [1, 12, 32, 1] : tensor<1x12x32xf32> into tensor<1x12x32x1xf32>
      %expanded_331 = tensor.expand_shape %77#1 [[0], [1], [2, 3]] output_shape [1, 12, 32, 1] : tensor<1x12x32xf32> into tensor<1x12x32x1xf32>
      %78 = tensor.empty() : tensor<1x12x32x2xf32>
      %inserted_slice_332 = tensor.insert_slice %expanded_330 into %78[0, 0, 0, 0] [1, 12, 32, 1] [1, 1, 1, 1] : tensor<1x12x32x1xf32> into tensor<1x12x32x2xf32>
      %inserted_slice_333 = tensor.insert_slice %expanded_331 into %inserted_slice_332[0, 0, 0, 1] [1, 12, 32, 1] [1, 1, 1, 1] : tensor<1x12x32x1xf32> into tensor<1x12x32x2xf32>
      %collapsed_334 = tensor.collapse_shape %inserted_slice_333 [[0], [1], [2, 3]] : tensor<1x12x32x2xf32> into tensor<1x12x64xf32>
      %reshape_335 = tensor.reshape %collapsed_334(%cst_142) : (tensor<1x12x64xf32>, tensor<3xi64>) -> tensor<1x1x768xf32>
      %79 = arith.index_cast %44 : i64 to index
      %80 = arith.index_cast %arg1 : i64 to index
      %inserted_slice_336 = tensor.insert_slice %reshape_335 into %arg6[%79, %80, 0] [1, 1, 768] [1, 1, 1] : tensor<1x1x768xf32> into tensor<12x1024x768xf32>
      %reshape_337 = tensor.reshape %64(%cst_142) : (tensor<1x768xf32>, tensor<3xi64>) -> tensor<1x1x768xf32>
      %81 = arith.index_cast %44 : i64 to index
      %82 = arith.index_cast %arg1 : i64 to index
      %inserted_slice_338 = tensor.insert_slice %reshape_337 into %arg7[%81, %82, 0] [1, 1, 768] [1, 1, 1] : tensor<1x1x768xf32> into tensor<12x1024x768xf32>
      %83 = arith.index_cast %44 : i64 to index
      %extracted_slice_339 = tensor.extract_slice %inserted_slice_336[%83, %c0, %c0] [1, 1024, 768] [1, 1, 1] : tensor<12x1024x768xf32> to tensor<1024x768xf32>
      %84 = arith.index_cast %44 : i64 to index
      %extracted_slice_340 = tensor.extract_slice %inserted_slice_338[%84, %c0, %c0] [1, 1024, 768] [1, 1, 1] : tensor<12x1024x768xf32> to tensor<1024x768xf32>
      %85 = scf.for %arg8 = %c0 to %c12 step %c1 iter_args(%arg9 = %cst_149) -> (tensor<1x12x64xf32>) {
        %118 = arith.index_cast %arg8 : index to i64
        %119 = arith.muli %118, %c64_i64 : i64
        %120 = arith.index_cast %119 : i64 to index
        %extracted_slice_448 = tensor.extract_slice %reshape_311[%c0, %120] [1, 64] [1, 1] : tensor<1x768xf32> to tensor<1x64xf32>
        %121 = arith.index_cast %119 : i64 to index
        %extracted_slice_449 = tensor.extract_slice %extracted_slice_339[%c0, %121] [1024, 64] [1, 1] : tensor<1024x768xf32> to tensor<1024x64xf32>
        %122 = tensor.empty() : tensor<64x1024xf32>
        %c0_450 = arith.constant 0 : index
        %c64 = arith.constant 64 : index
        %c32_451 = arith.constant 32 : index
        %c0_452 = arith.constant 0 : index
        %c1024 = arith.constant 1024 : index
        %c32_453 = arith.constant 32 : index
        %123 = scf.for %arg10 = %c0_450 to %c64 step %c32_451 iter_args(%arg11 = %122) -> (tensor<64x1024xf32>) {
          %147 = scf.for %arg12 = %c0_452 to %c1024 step %c32_453 iter_args(%arg13 = %arg11) -> (tensor<64x1024xf32>) {
            %extracted_slice_533 = tensor.extract_slice %extracted_slice_449[%arg12, %arg10] [32, 32] [1, 1] : tensor<1024x64xf32> to tensor<32x32xf32>
            %extracted_slice_534 = tensor.extract_slice %arg13[%arg10, %arg12] [32, 32] [1, 1] : tensor<64x1024xf32> to tensor<32x32xf32>
            %148 = linalg.generic {indexing_maps = [affine_map<(d0, d1) -> (d1, d0)>, affine_map<(d0, d1) -> (d0, d1)>], iterator_types = ["parallel", "parallel"]} ins(%extracted_slice_533 : tensor<32x32xf32>) outs(%extracted_slice_534 : tensor<32x32xf32>) {
            ^bb0(%in: f32, %out: f32):
              linalg.yield %in : f32
            } -> tensor<32x32xf32>
            %inserted_slice_535 = tensor.insert_slice %148 into %arg13[%arg10, %arg12] [32, 32] [1, 1] : tensor<32x32xf32> into tensor<64x1024xf32>
            scf.yield %inserted_slice_535 : tensor<64x1024xf32>
          }
          scf.yield %147 : tensor<64x1024xf32>
        }
        %124 = arith.index_cast %26 : i64 to index
        %extracted_slice_454 = tensor.extract_slice %123[0, 0] [64, %124] [1, 1] : tensor<64x1024xf32> to tensor<64x?xf32>
        %125 = tensor.empty(%124) : tensor<1x?xf32>
        %c1_455 = arith.constant 1 : index
        %dim = tensor.dim %125, %c1_455 : tensor<1x?xf32>
        %c0_456 = arith.constant 0 : index
        %c1_457 = arith.constant 1 : index
        %c32_458 = arith.constant 32 : index
        %c0_459 = arith.constant 0 : index
        %c32_460 = arith.constant 32 : index
        %126 = scf.for %arg10 = %c0_456 to %c1_457 step %c32_458 iter_args(%arg11 = %125) -> (tensor<1x?xf32>) {
          %147 = scf.for %arg12 = %c0_459 to %dim step %c32_460 iter_args(%arg13 = %arg11) -> (tensor<1x?xf32>) {
            %148 = affine.apply affine_map<(d0) -> (d0 - 1)>(%dim)
            %149 = affine.min affine_map<(d0) -> (-d0 + 1, 32)>(%arg10)
            %150 = affine.apply affine_map<(d0) -> (d0 - 1)>(%dim)
            %151 = affine.apply affine_map<(d0) -> (d0 - 1)>(%dim)
            %152 = affine.min affine_map<(d0, d1) -> (d0 - d1, 32)>(%dim, %arg12)
            %extracted_slice_533 = tensor.extract_slice %arg13[%arg10, %arg12] [%149, %152] [1, 1] : tensor<1x?xf32> to tensor<?x?xf32>
            %153 = linalg.generic {indexing_maps = [affine_map<(d0, d1) -> ()>, affine_map<(d0, d1) -> (d0, d1)>], iterator_types = ["parallel", "parallel"]} ins(%cst_154 : f32) outs(%extracted_slice_533 : tensor<?x?xf32>) {
            ^bb0(%in: f32, %out: f32):
              linalg.yield %in : f32
            } -> tensor<?x?xf32>
            %inserted_slice_534 = tensor.insert_slice %153 into %arg13[%arg10, %arg12] [%149, %152] [1, 1] : tensor<?x?xf32> into tensor<1x?xf32>
            scf.yield %inserted_slice_534 : tensor<1x?xf32>
          }
          scf.yield %147 : tensor<1x?xf32>
        }
        %c1_461 = arith.constant 1 : index
        %c1_462 = arith.constant 1 : index
        %dim_463 = tensor.dim %126, %c1_462 : tensor<1x?xf32>
        %c0_464 = arith.constant 0 : index
        %c1_465 = arith.constant 1 : index
        %c128_466 = arith.constant 128 : index
        %c0_467 = arith.constant 0 : index
        %c128_468 = arith.constant 128 : index
        %c0_469 = arith.constant 0 : index
        %c64_470 = arith.constant 64 : index
        %c128_471 = arith.constant 128 : index
        %127 = scf.for %arg10 = %c0_464 to %c1_465 step %c128_466 iter_args(%arg11 = %126) -> (tensor<1x?xf32>) {
          %147 = scf.for %arg12 = %c0_467 to %124 step %c128_468 iter_args(%arg13 = %arg11) -> (tensor<1x?xf32>) {
            %148 = scf.for %arg14 = %c0_469 to %c64_470 step %c128_471 iter_args(%arg15 = %arg13) -> (tensor<1x?xf32>) {
              %149 = affine.apply affine_map<(d0) -> (d0 - 1)>(%124)
              %150 = affine.min affine_map<(d0) -> (-d0 + 1, 128)>(%arg10)
              %151 = affine.apply affine_map<(d0) -> (d0 - 1)>(%124)
              %152 = affine.min affine_map<(d0) -> (-d0 + 64, 128)>(%arg14)
              %153 = affine.apply affine_map<(d0) -> (d0 - 1)>(%124)
              %154 = affine.min affine_map<(d0) -> (-d0 + 64, 128)>(%arg14)
              %155 = affine.apply affine_map<(d0) -> (d0 - 1)>(%124)
              %156 = affine.apply affine_map<(d0) -> (d0 - 1)>(%124)
              %157 = affine.min affine_map<(d0, d1) -> (d0 - d1, 128)>(%124, %arg12)
              %158 = affine.apply affine_map<(d0) -> (d0 - 1)>(%124)
              %159 = affine.min affine_map<(d0) -> (-d0 + 1, 128)>(%arg10)
              %160 = affine.apply affine_map<(d0) -> (d0 - 1)>(%124)
              %161 = affine.apply affine_map<(d0) -> (d0 - 1)>(%124)
              %162 = affine.min affine_map<(d0, d1) -> (d0 - d1, 128)>(%124, %arg12)
              %extracted_slice_533 = tensor.extract_slice %extracted_slice_448[%arg10, %arg14] [%150, %152] [1, 1] : tensor<1x64xf32> to tensor<?x?xf32>
              %extracted_slice_534 = tensor.extract_slice %extracted_slice_454[%arg14, %arg12] [%154, %157] [1, 1] : tensor<64x?xf32> to tensor<?x?xf32>
              %extracted_slice_535 = tensor.extract_slice %arg15[%arg10, %arg12] [%159, %162] [1, 1] : tensor<1x?xf32> to tensor<?x?xf32>
              %c0_536 = arith.constant 0 : index
              %c1_537 = arith.constant 1 : index
              %c0_538 = arith.constant 0 : index
              %c1_539 = arith.constant 1 : index
              %c0_540 = arith.constant 0 : index
              %c1_541 = arith.constant 1 : index
              %c0_542 = arith.constant 0 : index
              %c32_543 = arith.constant 32 : index
              %c0_544 = arith.constant 0 : index
              %c32_545 = arith.constant 32 : index
              %c0_546 = arith.constant 0 : index
              %c32_547 = arith.constant 32 : index
              %163 = scf.for %arg16 = %c0_542 to %150 step %c32_543 iter_args(%arg17 = %extracted_slice_535) -> (tensor<?x?xf32>) {
                %164 = scf.for %arg18 = %c0_544 to %157 step %c32_545 iter_args(%arg19 = %arg17) -> (tensor<?x?xf32>) {
                  %165 = scf.for %arg20 = %c0_546 to %152 step %c32_547 iter_args(%arg21 = %arg19) -> (tensor<?x?xf32>) {
                    %166 = affine.apply affine_map<(d0) -> (d0 - 1)>(%150)
                    %167 = affine.apply affine_map<(d0) -> (d0 - 1)>(%157)
                    %168 = affine.apply affine_map<(d0) -> (d0 - 1)>(%152)
                    %169 = affine.apply affine_map<(d0) -> (d0 - 1)>(%150)
                    %170 = affine.min affine_map<(d0, d1) -> (d0 - d1, 32)>(%150, %arg16)
                    %171 = affine.apply affine_map<(d0) -> (d0 - 1)>(%150)
                    %172 = affine.apply affine_map<(d0) -> (d0 - 1)>(%157)
                    %173 = affine.apply affine_map<(d0) -> (d0 - 1)>(%152)
                    %174 = affine.apply affine_map<(d0) -> (d0 - 1)>(%152)
                    %175 = affine.min affine_map<(d0, d1) -> (d0 - d1, 32)>(%152, %arg20)
                    %176 = affine.apply affine_map<(d0) -> (d0 - 1)>(%150)
                    %177 = affine.apply affine_map<(d0) -> (d0 - 1)>(%157)
                    %178 = affine.apply affine_map<(d0) -> (d0 - 1)>(%152)
                    %179 = affine.apply affine_map<(d0) -> (d0 - 1)>(%152)
                    %180 = affine.min affine_map<(d0, d1) -> (d0 - d1, 32)>(%152, %arg20)
                    %181 = affine.apply affine_map<(d0) -> (d0 - 1)>(%150)
                    %182 = affine.apply affine_map<(d0) -> (d0 - 1)>(%157)
                    %183 = affine.apply affine_map<(d0) -> (d0 - 1)>(%152)
                    %184 = affine.apply affine_map<(d0) -> (d0 - 1)>(%157)
                    %185 = affine.min affine_map<(d0, d1) -> (d0 - d1, 32)>(%157, %arg18)
                    %186 = affine.apply affine_map<(d0) -> (d0 - 1)>(%150)
                    %187 = affine.apply affine_map<(d0) -> (d0 - 1)>(%157)
                    %188 = affine.apply affine_map<(d0) -> (d0 - 1)>(%152)
                    %189 = affine.apply affine_map<(d0) -> (d0 - 1)>(%150)
                    %190 = affine.min affine_map<(d0, d1) -> (d0 - d1, 32)>(%150, %arg16)
                    %191 = affine.apply affine_map<(d0) -> (d0 - 1)>(%150)
                    %192 = affine.apply affine_map<(d0) -> (d0 - 1)>(%157)
                    %193 = affine.apply affine_map<(d0) -> (d0 - 1)>(%152)
                    %194 = affine.apply affine_map<(d0) -> (d0 - 1)>(%157)
                    %195 = affine.min affine_map<(d0, d1) -> (d0 - d1, 32)>(%157, %arg18)
                    %extracted_slice_549 = tensor.extract_slice %extracted_slice_533[%arg16, %arg20] [%170, %175] [1, 1] : tensor<?x?xf32> to tensor<?x?xf32>
                    %extracted_slice_550 = tensor.extract_slice %extracted_slice_534[%arg20, %arg18] [%180, %185] [1, 1] : tensor<?x?xf32> to tensor<?x?xf32>
                    %extracted_slice_551 = tensor.extract_slice %arg21[%arg16, %arg18] [%190, %195] [1, 1] : tensor<?x?xf32> to tensor<?x?xf32>
                    %196 = linalg.generic {indexing_maps = [affine_map<(d0, d1, d2) -> (d0, d2)>, affine_map<(d0, d1, d2) -> (d2, d1)>, affine_map<(d0, d1, d2) -> (d0, d1)>], iterator_types = ["parallel", "parallel", "reduction"]} ins(%extracted_slice_549, %extracted_slice_550 : tensor<?x?xf32>, tensor<?x?xf32>) outs(%extracted_slice_551 : tensor<?x?xf32>) {
                    ^bb0(%in: f32, %in_553: f32, %out: f32):
                      %197 = arith.mulf %in, %in_553 : f32
                      %198 = arith.addf %out, %197 : f32
                      linalg.yield %198 : f32
                    } -> tensor<?x?xf32>
                    %inserted_slice_552 = tensor.insert_slice %196 into %arg21[%arg16, %arg18] [%190, %195] [1, 1] : tensor<?x?xf32> into tensor<?x?xf32>
                    scf.yield %inserted_slice_552 : tensor<?x?xf32>
                  }
                  scf.yield %165 : tensor<?x?xf32>
                }
                scf.yield %164 : tensor<?x?xf32>
              }
              %inserted_slice_548 = tensor.insert_slice %163 into %arg15[%arg10, %arg12] [%159, %162] [1, 1] : tensor<?x?xf32> into tensor<1x?xf32>
              scf.yield %inserted_slice_548 : tensor<1x?xf32>
            }
            scf.yield %148 : tensor<1x?xf32>
          }
          scf.yield %147 : tensor<1x?xf32>
        }
        %128 = tensor.empty() : tensor<1x1024xf32>
        %c0_472 = arith.constant 0 : index
        %c1_473 = arith.constant 1 : index
        %c32_474 = arith.constant 32 : index
        %c0_475 = arith.constant 0 : index
        %c1024_476 = arith.constant 1024 : index
        %c32_477 = arith.constant 32 : index
        %129 = scf.for %arg10 = %c0_472 to %c1_473 step %c32_474 iter_args(%arg11 = %128) -> (tensor<1x1024xf32>) {
          %147 = scf.for %arg12 = %c0_475 to %c1024_476 step %c32_477 iter_args(%arg13 = %arg11) -> (tensor<1x1024xf32>) {
            %148 = affine.min affine_map<(d0) -> (-d0 + 1, 32)>(%arg10)
            %extracted_slice_533 = tensor.extract_slice %arg13[%arg10, %arg12] [%148, 32] [1, 1] : tensor<1x1024xf32> to tensor<?x32xf32>
            %149 = linalg.generic {indexing_maps = [affine_map<(d0, d1) -> ()>, affine_map<(d0, d1) -> (d0, d1)>], iterator_types = ["parallel", "parallel"]} ins(%cst_148 : f32) outs(%extracted_slice_533 : tensor<?x32xf32>) {
            ^bb0(%in: f32, %out: f32):
              linalg.yield %in : f32
            } -> tensor<?x32xf32>
            %inserted_slice_534 = tensor.insert_slice %149 into %arg13[%arg10, %arg12] [%148, 32] [1, 1] : tensor<?x32xf32> into tensor<1x1024xf32>
            scf.yield %inserted_slice_534 : tensor<1x1024xf32>
          }
          scf.yield %147 : tensor<1x1024xf32>
        }
        %inserted_slice_478 = tensor.insert_slice %127 into %129[0, 0] [1, %124] [1, 1] : tensor<1x?xf32> into tensor<1x1024xf32>
        %130 = tensor.empty() : tensor<1x1024xf32>
        %c0_479 = arith.constant 0 : index
        %c1_480 = arith.constant 1 : index
        %c32_481 = arith.constant 32 : index
        %c0_482 = arith.constant 0 : index
        %c1024_483 = arith.constant 1024 : index
        %c32_484 = arith.constant 32 : index
        %131 = scf.for %arg10 = %c0_479 to %c1_480 step %c32_481 iter_args(%arg11 = %130) -> (tensor<1x1024xf32>) {
          %147 = scf.for %arg12 = %c0_482 to %c1024_483 step %c32_484 iter_args(%arg13 = %arg11) -> (tensor<1x1024xf32>) {
            %148 = affine.min affine_map<(d0) -> (-d0 + 1, 32)>(%arg10)
            %149 = affine.min affine_map<(d0) -> (-d0 + 1, 32)>(%arg10)
            %extracted_slice_533 = tensor.extract_slice %inserted_slice_478[%arg10, %arg12] [%148, 32] [1, 1] : tensor<1x1024xf32> to tensor<?x32xf32>
            %extracted_slice_534 = tensor.extract_slice %arg13[%arg10, %arg12] [%149, 32] [1, 1] : tensor<1x1024xf32> to tensor<?x32xf32>
            %150 = linalg.generic {indexing_maps = [affine_map<(d0, d1) -> (d0, d1)>, affine_map<(d0, d1) -> (d0, d1)>], iterator_types = ["parallel", "parallel"]} ins(%extracted_slice_533 : tensor<?x32xf32>) outs(%extracted_slice_534 : tensor<?x32xf32>) {
            ^bb0(%in: f32, %out: f32):
              %151 = arith.mulf %in, %cst_155 : f32
              linalg.yield %151 : f32
            } -> tensor<?x32xf32>
            %inserted_slice_535 = tensor.insert_slice %150 into %arg13[%arg10, %arg12] [%149, 32] [1, 1] : tensor<?x32xf32> into tensor<1x1024xf32>
            scf.yield %inserted_slice_535 : tensor<1x1024xf32>
          }
          scf.yield %147 : tensor<1x1024xf32>
        }
        %132 = tensor.empty() : tensor<1xf32>
        %c0_485 = arith.constant 0 : index
        %c1_486 = arith.constant 1 : index
        %c32_487 = arith.constant 32 : index
        %133 = scf.for %arg10 = %c0_485 to %c1_486 step %c32_487 iter_args(%arg11 = %132) -> (tensor<1xf32>) {
          %147 = affine.min affine_map<(d0) -> (-d0 + 1, 32)>(%arg10)
          %extracted_slice_533 = tensor.extract_slice %arg11[%arg10] [%147] [1] : tensor<1xf32> to tensor<?xf32>
          %148 = linalg.generic {indexing_maps = [affine_map<(d0) -> ()>, affine_map<(d0) -> (d0)>], iterator_types = ["parallel"]} ins(%cst_147 : f32) outs(%extracted_slice_533 : tensor<?xf32>) {
          ^bb0(%in: f32, %out: f32):
            linalg.yield %in : f32
          } -> tensor<?xf32>
          %inserted_slice_534 = tensor.insert_slice %148 into %arg11[%arg10] [%147] [1] : tensor<?xf32> into tensor<1xf32>
          scf.yield %inserted_slice_534 : tensor<1xf32>
        }
        %c0_488 = arith.constant 0 : index
        %c1_489 = arith.constant 1 : index
        %c128_490 = arith.constant 128 : index
        %c0_491 = arith.constant 0 : index
        %c1024_492 = arith.constant 1024 : index
        %c128_493 = arith.constant 128 : index
        %134 = scf.for %arg10 = %c0_488 to %c1_489 step %c128_490 iter_args(%arg11 = %133) -> (tensor<1xf32>) {
          %147 = scf.for %arg12 = %c0_491 to %c1024_492 step %c128_493 iter_args(%arg13 = %arg11) -> (tensor<1xf32>) {
            %148 = affine.min affine_map<(d0) -> (-d0 + 1, 128)>(%arg10)
            %149 = affine.min affine_map<(d0) -> (-d0 + 1, 128)>(%arg10)
            %extracted_slice_533 = tensor.extract_slice %131[%arg10, %arg12] [%148, 128] [1, 1] : tensor<1x1024xf32> to tensor<?x128xf32>
            %extracted_slice_534 = tensor.extract_slice %arg13[%arg10] [%149] [1] : tensor<1xf32> to tensor<?xf32>
            %c0_535 = arith.constant 0 : index
            %c0_536 = arith.constant 0 : index
            %c0_537 = arith.constant 0 : index
            %c32_538 = arith.constant 32 : index
            %c0_539 = arith.constant 0 : index
            %c128_540 = arith.constant 128 : index
            %c32_541 = arith.constant 32 : index
            %150 = scf.for %arg14 = %c0_537 to %148 step %c32_538 iter_args(%arg15 = %extracted_slice_534) -> (tensor<?xf32>) {
              %151 = scf.for %arg16 = %c0_539 to %c128_540 step %c32_541 iter_args(%arg17 = %arg15) -> (tensor<?xf32>) {
                %152 = affine.apply affine_map<(d0) -> (d0 - 1)>(%148)
                %153 = affine.apply affine_map<(d0) -> (d0 - 1)>(%148)
                %154 = affine.min affine_map<(d0, d1) -> (d0 - d1, 32)>(%148, %arg14)
                %155 = affine.apply affine_map<(d0) -> (d0 - 1)>(%148)
                %156 = affine.apply affine_map<(d0) -> (d0 - 1)>(%148)
                %157 = affine.min affine_map<(d0, d1) -> (d0 - d1, 32)>(%148, %arg14)
                %extracted_slice_543 = tensor.extract_slice %extracted_slice_533[%arg14, %arg16] [%154, 32] [1, 1] : tensor<?x128xf32> to tensor<?x32xf32>
                %extracted_slice_544 = tensor.extract_slice %arg17[%arg14] [%157] [1] : tensor<?xf32> to tensor<?xf32>
                %158 = linalg.generic {indexing_maps = [affine_map<(d0, d1) -> (d0, d1)>, affine_map<(d0, d1) -> (d0)>], iterator_types = ["parallel", "reduction"]} ins(%extracted_slice_543 : tensor<?x32xf32>) outs(%extracted_slice_544 : tensor<?xf32>) {
                ^bb0(%in: f32, %out: f32):
                  %159 = arith.maxnumf %in, %out : f32
                  linalg.yield %159 : f32
                } -> tensor<?xf32>
                %inserted_slice_545 = tensor.insert_slice %158 into %arg17[%arg14] [%157] [1] : tensor<?xf32> into tensor<?xf32>
                scf.yield %inserted_slice_545 : tensor<?xf32>
              }
              scf.yield %151 : tensor<?xf32>
            }
            %inserted_slice_542 = tensor.insert_slice %150 into %arg13[%arg10] [%149] [1] : tensor<?xf32> into tensor<1xf32>
            scf.yield %inserted_slice_542 : tensor<1xf32>
          }
          scf.yield %147 : tensor<1xf32>
        }
        %135 = tensor.empty() : tensor<1x1024xf32>
        %c0_494 = arith.constant 0 : index
        %c1_495 = arith.constant 1 : index
        %c32_496 = arith.constant 32 : index
        %c0_497 = arith.constant 0 : index
        %c1024_498 = arith.constant 1024 : index
        %c32_499 = arith.constant 32 : index
        %136 = scf.for %arg10 = %c0_494 to %c1_495 step %c32_496 iter_args(%arg11 = %135) -> (tensor<1x1024xf32>) {
          %147 = scf.for %arg12 = %c0_497 to %c1024_498 step %c32_499 iter_args(%arg13 = %arg11) -> (tensor<1x1024xf32>) {
            %148 = affine.min affine_map<(d0) -> (-d0 + 1, 32)>(%arg10)
            %149 = affine.min affine_map<(d0) -> (-d0 + 1, 32)>(%arg10)
            %150 = affine.min affine_map<(d0) -> (-d0 + 1, 32)>(%arg10)
            %extracted_slice_533 = tensor.extract_slice %131[%arg10, %arg12] [%148, 32] [1, 1] : tensor<1x1024xf32> to tensor<?x32xf32>
            %extracted_slice_534 = tensor.extract_slice %134[%arg10] [%149] [1] : tensor<1xf32> to tensor<?xf32>
            %extracted_slice_535 = tensor.extract_slice %arg13[%arg10, %arg12] [%150, 32] [1, 1] : tensor<1x1024xf32> to tensor<?x32xf32>
            %151 = linalg.generic {indexing_maps = [affine_map<(d0, d1) -> (d0, d1)>, affine_map<(d0, d1) -> (d0)>, affine_map<(d0, d1) -> (d0, d1)>], iterator_types = ["parallel", "parallel"]} ins(%extracted_slice_533, %extracted_slice_534 : tensor<?x32xf32>, tensor<?xf32>) outs(%extracted_slice_535 : tensor<?x32xf32>) {
            ^bb0(%in: f32, %in_537: f32, %out: f32):
              %152 = arith.subf %in, %in_537 : f32
              %153 = math.exp %152 : f32
              linalg.yield %153 : f32
            } -> tensor<?x32xf32>
            %inserted_slice_536 = tensor.insert_slice %151 into %arg13[%arg10, %arg12] [%150, 32] [1, 1] : tensor<?x32xf32> into tensor<1x1024xf32>
            scf.yield %inserted_slice_536 : tensor<1x1024xf32>
          }
          scf.yield %147 : tensor<1x1024xf32>
        }
        %137 = tensor.empty() : tensor<1xf32>
        %c0_500 = arith.constant 0 : index
        %c1_501 = arith.constant 1 : index
        %c32_502 = arith.constant 32 : index
        %138 = scf.for %arg10 = %c0_500 to %c1_501 step %c32_502 iter_args(%arg11 = %137) -> (tensor<1xf32>) {
          %147 = affine.min affine_map<(d0) -> (-d0 + 1, 32)>(%arg10)
          %extracted_slice_533 = tensor.extract_slice %arg11[%arg10] [%147] [1] : tensor<1xf32> to tensor<?xf32>
          %148 = linalg.generic {indexing_maps = [affine_map<(d0) -> ()>, affine_map<(d0) -> (d0)>], iterator_types = ["parallel"]} ins(%cst_154 : f32) outs(%extracted_slice_533 : tensor<?xf32>) {
          ^bb0(%in: f32, %out: f32):
            linalg.yield %in : f32
          } -> tensor<?xf32>
          %inserted_slice_534 = tensor.insert_slice %148 into %arg11[%arg10] [%147] [1] : tensor<?xf32> into tensor<1xf32>
          scf.yield %inserted_slice_534 : tensor<1xf32>
        }
        %c0_503 = arith.constant 0 : index
        %c1_504 = arith.constant 1 : index
        %c32_505 = arith.constant 32 : index
        %c0_506 = arith.constant 0 : index
        %c1024_507 = arith.constant 1024 : index
        %c32_508 = arith.constant 32 : index
        %139 = scf.for %arg10 = %c0_503 to %c1_504 step %c32_505 iter_args(%arg11 = %138) -> (tensor<1xf32>) {
          %147 = scf.for %arg12 = %c0_506 to %c1024_507 step %c32_508 iter_args(%arg13 = %arg11) -> (tensor<1xf32>) {
            %148 = affine.min affine_map<(d0) -> (-d0 + 1, 32)>(%arg10)
            %149 = affine.min affine_map<(d0) -> (-d0 + 1, 32)>(%arg10)
            %extracted_slice_533 = tensor.extract_slice %136[%arg10, %arg12] [%148, 32] [1, 1] : tensor<1x1024xf32> to tensor<?x32xf32>
            %extracted_slice_534 = tensor.extract_slice %arg13[%arg10] [%149] [1] : tensor<1xf32> to tensor<?xf32>
            %150 = linalg.generic {indexing_maps = [affine_map<(d0, d1) -> (d0, d1)>, affine_map<(d0, d1) -> (d0)>], iterator_types = ["parallel", "parallel"]} ins(%extracted_slice_533 : tensor<?x32xf32>) outs(%extracted_slice_534 : tensor<?xf32>) {
            ^bb0(%in: f32, %out: f32):
              %151 = arith.addf %in, %out : f32
              linalg.yield %151 : f32
            } -> tensor<?xf32>
            %inserted_slice_535 = tensor.insert_slice %150 into %arg13[%arg10] [%149] [1] : tensor<?xf32> into tensor<1xf32>
            scf.yield %inserted_slice_535 : tensor<1xf32>
          }
          scf.yield %147 : tensor<1xf32>
        }
        %140 = tensor.empty() : tensor<1x1024xf32>
        %c0_509 = arith.constant 0 : index
        %c1_510 = arith.constant 1 : index
        %c32_511 = arith.constant 32 : index
        %c0_512 = arith.constant 0 : index
        %c1024_513 = arith.constant 1024 : index
        %c32_514 = arith.constant 32 : index
        %141 = scf.for %arg10 = %c0_509 to %c1_510 step %c32_511 iter_args(%arg11 = %140) -> (tensor<1x1024xf32>) {
          %147 = scf.for %arg12 = %c0_512 to %c1024_513 step %c32_514 iter_args(%arg13 = %arg11) -> (tensor<1x1024xf32>) {
            %148 = affine.min affine_map<(d0) -> (-d0 + 1, 32)>(%arg10)
            %149 = affine.min affine_map<(d0) -> (-d0 + 1, 32)>(%arg10)
            %150 = affine.min affine_map<(d0) -> (-d0 + 1, 32)>(%arg10)
            %extracted_slice_533 = tensor.extract_slice %136[%arg10, %arg12] [%148, 32] [1, 1] : tensor<1x1024xf32> to tensor<?x32xf32>
            %extracted_slice_534 = tensor.extract_slice %139[%arg10] [%149] [1] : tensor<1xf32> to tensor<?xf32>
            %extracted_slice_535 = tensor.extract_slice %arg13[%arg10, %arg12] [%150, 32] [1, 1] : tensor<1x1024xf32> to tensor<?x32xf32>
            %151 = linalg.generic {indexing_maps = [affine_map<(d0, d1) -> (d0, d1)>, affine_map<(d0, d1) -> (d0)>, affine_map<(d0, d1) -> (d0, d1)>], iterator_types = ["parallel", "parallel"]} ins(%extracted_slice_533, %extracted_slice_534 : tensor<?x32xf32>, tensor<?xf32>) outs(%extracted_slice_535 : tensor<?x32xf32>) {
            ^bb0(%in: f32, %in_537: f32, %out: f32):
              %152 = arith.divf %in, %in_537 : f32
              linalg.yield %152 : f32
            } -> tensor<?x32xf32>
            %inserted_slice_536 = tensor.insert_slice %151 into %arg13[%arg10, %arg12] [%150, 32] [1, 1] : tensor<?x32xf32> into tensor<1x1024xf32>
            scf.yield %inserted_slice_536 : tensor<1x1024xf32>
          }
          scf.yield %147 : tensor<1x1024xf32>
        }
        %142 = arith.index_cast %119 : i64 to index
        %extracted_slice_515 = tensor.extract_slice %extracted_slice_340[%c0, %142] [1024, 64] [1, 1] : tensor<1024x768xf32> to tensor<1024x64xf32>
        %143 = tensor.empty() : tensor<1x64xf32>
        %c0_516 = arith.constant 0 : index
        %c1_517 = arith.constant 1 : index
        %c32_518 = arith.constant 32 : index
        %c0_519 = arith.constant 0 : index
        %c64_520 = arith.constant 64 : index
        %c32_521 = arith.constant 32 : index
        %144 = scf.for %arg10 = %c0_516 to %c1_517 step %c32_518 iter_args(%arg11 = %143) -> (tensor<1x64xf32>) {
          %147 = scf.for %arg12 = %c0_519 to %c64_520 step %c32_521 iter_args(%arg13 = %arg11) -> (tensor<1x64xf32>) {
            %148 = affine.min affine_map<(d0) -> (-d0 + 1, 32)>(%arg10)
            %extracted_slice_533 = tensor.extract_slice %arg13[%arg10, %arg12] [%148, 32] [1, 1] : tensor<1x64xf32> to tensor<?x32xf32>
            %149 = linalg.generic {indexing_maps = [affine_map<(d0, d1) -> ()>, affine_map<(d0, d1) -> (d0, d1)>], iterator_types = ["parallel", "parallel"]} ins(%cst_154 : f32) outs(%extracted_slice_533 : tensor<?x32xf32>) {
            ^bb0(%in: f32, %out: f32):
              linalg.yield %in : f32
            } -> tensor<?x32xf32>
            %inserted_slice_534 = tensor.insert_slice %149 into %arg13[%arg10, %arg12] [%148, 32] [1, 1] : tensor<?x32xf32> into tensor<1x64xf32>
            scf.yield %inserted_slice_534 : tensor<1x64xf32>
          }
          scf.yield %147 : tensor<1x64xf32>
        }
        %c0_522 = arith.constant 0 : index
        %c1_523 = arith.constant 1 : index
        %c128_524 = arith.constant 128 : index
        %c0_525 = arith.constant 0 : index
        %c64_526 = arith.constant 64 : index
        %c128_527 = arith.constant 128 : index
        %c0_528 = arith.constant 0 : index
        %c1024_529 = arith.constant 1024 : index
        %c128_530 = arith.constant 128 : index
        %145 = scf.for %arg10 = %c0_522 to %c1_523 step %c128_524 iter_args(%arg11 = %144) -> (tensor<1x64xf32>) {
          %147 = scf.for %arg12 = %c0_525 to %c64_526 step %c128_527 iter_args(%arg13 = %arg11) -> (tensor<1x64xf32>) {
            %148 = scf.for %arg14 = %c0_528 to %c1024_529 step %c128_530 iter_args(%arg15 = %arg13) -> (tensor<1x64xf32>) {
              %149 = affine.min affine_map<(d0) -> (-d0 + 1, 128)>(%arg10)
              %150 = affine.min affine_map<(d0) -> (-d0 + 64, 128)>(%arg12)
              %151 = affine.min affine_map<(d0) -> (-d0 + 1, 128)>(%arg10)
              %152 = affine.min affine_map<(d0) -> (-d0 + 64, 128)>(%arg12)
              %extracted_slice_533 = tensor.extract_slice %141[%arg10, %arg14] [%149, 128] [1, 1] : tensor<1x1024xf32> to tensor<?x128xf32>
              %extracted_slice_534 = tensor.extract_slice %extracted_slice_515[%arg14, %arg12] [128, %150] [1, 1] : tensor<1024x64xf32> to tensor<128x?xf32>
              %extracted_slice_535 = tensor.extract_slice %arg15[%arg10, %arg12] [%151, %152] [1, 1] : tensor<1x64xf32> to tensor<?x?xf32>
              %c0_536 = arith.constant 0 : index
              %c1_537 = arith.constant 1 : index
              %c0_538 = arith.constant 0 : index
              %c1_539 = arith.constant 1 : index
              %c0_540 = arith.constant 0 : index
              %c32_541 = arith.constant 32 : index
              %c0_542 = arith.constant 0 : index
              %c32_543 = arith.constant 32 : index
              %c0_544 = arith.constant 0 : index
              %c128_545 = arith.constant 128 : index
              %c32_546 = arith.constant 32 : index
              %153 = scf.for %arg16 = %c0_540 to %149 step %c32_541 iter_args(%arg17 = %extracted_slice_535) -> (tensor<?x?xf32>) {
                %154 = scf.for %arg18 = %c0_542 to %150 step %c32_543 iter_args(%arg19 = %arg17) -> (tensor<?x?xf32>) {
                  %155 = scf.for %arg20 = %c0_544 to %c128_545 step %c32_546 iter_args(%arg21 = %arg19) -> (tensor<?x?xf32>) {
                    %156 = affine.apply affine_map<(d0) -> (d0 - 1)>(%149)
                    %157 = affine.apply affine_map<(d0) -> (d0 - 1)>(%150)
                    %158 = affine.apply affine_map<(d0) -> (d0 - 1)>(%149)
                    %159 = affine.min affine_map<(d0, d1) -> (d0 - d1, 32)>(%149, %arg16)
                    %160 = affine.apply affine_map<(d0) -> (d0 - 1)>(%149)
                    %161 = affine.apply affine_map<(d0) -> (d0 - 1)>(%150)
                    %162 = affine.apply affine_map<(d0) -> (d0 - 1)>(%150)
                    %163 = affine.min affine_map<(d0, d1) -> (d0 - d1, 32)>(%150, %arg18)
                    %164 = affine.apply affine_map<(d0) -> (d0 - 1)>(%149)
                    %165 = affine.apply affine_map<(d0) -> (d0 - 1)>(%150)
                    %166 = affine.apply affine_map<(d0) -> (d0 - 1)>(%149)
                    %167 = affine.min affine_map<(d0, d1) -> (d0 - d1, 32)>(%149, %arg16)
                    %168 = affine.apply affine_map<(d0) -> (d0 - 1)>(%149)
                    %169 = affine.apply affine_map<(d0) -> (d0 - 1)>(%150)
                    %170 = affine.apply affine_map<(d0) -> (d0 - 1)>(%150)
                    %171 = affine.min affine_map<(d0, d1) -> (d0 - d1, 32)>(%150, %arg18)
                    %extracted_slice_548 = tensor.extract_slice %extracted_slice_533[%arg16, %arg20] [%159, 32] [1, 1] : tensor<?x128xf32> to tensor<?x32xf32>
                    %extracted_slice_549 = tensor.extract_slice %extracted_slice_534[%arg20, %arg18] [32, %163] [1, 1] : tensor<128x?xf32> to tensor<32x?xf32>
                    %extracted_slice_550 = tensor.extract_slice %arg21[%arg16, %arg18] [%167, %171] [1, 1] : tensor<?x?xf32> to tensor<?x?xf32>
                    %172 = linalg.generic {indexing_maps = [affine_map<(d0, d1, d2) -> (d0, d2)>, affine_map<(d0, d1, d2) -> (d2, d1)>, affine_map<(d0, d1, d2) -> (d0, d1)>], iterator_types = ["parallel", "parallel", "reduction"]} ins(%extracted_slice_548, %extracted_slice_549 : tensor<?x32xf32>, tensor<32x?xf32>) outs(%extracted_slice_550 : tensor<?x?xf32>) {
                    ^bb0(%in: f32, %in_552: f32, %out: f32):
                      %173 = arith.mulf %in, %in_552 : f32
                      %174 = arith.addf %out, %173 : f32
                      linalg.yield %174 : f32
                    } -> tensor<?x?xf32>
                    %inserted_slice_551 = tensor.insert_slice %172 into %arg21[%arg16, %arg18] [%167, %171] [1, 1] : tensor<?x?xf32> into tensor<?x?xf32>
                    scf.yield %inserted_slice_551 : tensor<?x?xf32>
                  }
                  scf.yield %155 : tensor<?x?xf32>
                }
                scf.yield %154 : tensor<?x?xf32>
              }
              %inserted_slice_547 = tensor.insert_slice %153 into %arg15[%arg10, %arg12] [%151, %152] [1, 1] : tensor<?x?xf32> into tensor<1x64xf32>
              scf.yield %inserted_slice_547 : tensor<1x64xf32>
            }
            scf.yield %148 : tensor<1x64xf32>
          }
          scf.yield %147 : tensor<1x64xf32>
        }
        %reshape_531 = tensor.reshape %145(%cst) : (tensor<1x64xf32>, tensor<3xi64>) -> tensor<1x1x64xf32>
        %146 = arith.index_cast %118 : i64 to index
        %inserted_slice_532 = tensor.insert_slice %reshape_531 into %arg9[%c0, %146, 0] [1, 1, 64] [1, 1, 1] : tensor<1x1x64xf32> into tensor<1x12x64xf32>
        scf.yield %inserted_slice_532 : tensor<1x12x64xf32>
      }
      %reshape_341 = tensor.reshape %85(%cst_143) : (tensor<1x12x64xf32>, tensor<2xi64>) -> tensor<1x768xf32>
      %86 = arith.index_cast %44 : i64 to index
      %extracted_slice_342 = tensor.extract_slice %11[%86, %c0, %c0] [1, 768, 768] [1, 1, 1] : tensor<12x768x768xf32> to tensor<768x768xf32>
      %87 = tensor.empty() : tensor<1x768xf32>
      %c0_343 = arith.constant 0 : index
      %c1_344 = arith.constant 1 : index
      %c32_345 = arith.constant 32 : index
      %c0_346 = arith.constant 0 : index
      %c768_347 = arith.constant 768 : index
      %c32_348 = arith.constant 32 : index
      %88 = scf.for %arg8 = %c0_343 to %c1_344 step %c32_345 iter_args(%arg9 = %87) -> (tensor<1x768xf32>) {
        %118 = scf.for %arg10 = %c0_346 to %c768_347 step %c32_348 iter_args(%arg11 = %arg9) -> (tensor<1x768xf32>) {
          %119 = affine.min affine_map<(d0) -> (-d0 + 1, 32)>(%arg8)
          %extracted_slice_448 = tensor.extract_slice %arg11[%arg8, %arg10] [%119, 32] [1, 1] : tensor<1x768xf32> to tensor<?x32xf32>
          %120 = linalg.generic {indexing_maps = [affine_map<(d0, d1) -> ()>, affine_map<(d0, d1) -> (d0, d1)>], iterator_types = ["parallel", "parallel"]} ins(%cst_154 : f32) outs(%extracted_slice_448 : tensor<?x32xf32>) {
          ^bb0(%in: f32, %out: f32):
            linalg.yield %in : f32
          } -> tensor<?x32xf32>
          %inserted_slice_449 = tensor.insert_slice %120 into %arg11[%arg8, %arg10] [%119, 32] [1, 1] : tensor<?x32xf32> into tensor<1x768xf32>
          scf.yield %inserted_slice_449 : tensor<1x768xf32>
        }
        scf.yield %118 : tensor<1x768xf32>
      }
      %c0_349 = arith.constant 0 : index
      %c1_350 = arith.constant 1 : index
      %c128_351 = arith.constant 128 : index
      %c0_352 = arith.constant 0 : index
      %c768_353 = arith.constant 768 : index
      %c128_354 = arith.constant 128 : index
      %c0_355 = arith.constant 0 : index
      %c768_356 = arith.constant 768 : index
      %c128_357 = arith.constant 128 : index
      %89 = scf.for %arg8 = %c0_349 to %c1_350 step %c128_351 iter_args(%arg9 = %88) -> (tensor<1x768xf32>) {
        %118 = scf.for %arg10 = %c0_352 to %c768_353 step %c128_354 iter_args(%arg11 = %arg9) -> (tensor<1x768xf32>) {
          %119 = scf.for %arg12 = %c0_355 to %c768_356 step %c128_357 iter_args(%arg13 = %arg11) -> (tensor<1x768xf32>) {
            %120 = affine.min affine_map<(d0) -> (-d0 + 1, 128)>(%arg8)
            %121 = affine.min affine_map<(d0) -> (-d0 + 1, 128)>(%arg8)
            %extracted_slice_448 = tensor.extract_slice %reshape_341[%arg8, %arg12] [%120, 128] [1, 1] : tensor<1x768xf32> to tensor<?x128xf32>
            %extracted_slice_449 = tensor.extract_slice %extracted_slice_342[%arg12, %arg10] [128, 128] [1, 1] : tensor<768x768xf32> to tensor<128x128xf32>
            %extracted_slice_450 = tensor.extract_slice %arg13[%arg8, %arg10] [%121, 128] [1, 1] : tensor<1x768xf32> to tensor<?x128xf32>
            %c0_451 = arith.constant 0 : index
            %c0_452 = arith.constant 0 : index
            %c0_453 = arith.constant 0 : index
            %c32_454 = arith.constant 32 : index
            %c0_455 = arith.constant 0 : index
            %c128_456 = arith.constant 128 : index
            %c32_457 = arith.constant 32 : index
            %c0_458 = arith.constant 0 : index
            %c128_459 = arith.constant 128 : index
            %c32_460 = arith.constant 32 : index
            %122 = scf.for %arg14 = %c0_453 to %120 step %c32_454 iter_args(%arg15 = %extracted_slice_450) -> (tensor<?x128xf32>) {
              %123 = scf.for %arg16 = %c0_455 to %c128_456 step %c32_457 iter_args(%arg17 = %arg15) -> (tensor<?x128xf32>) {
                %124 = scf.for %arg18 = %c0_458 to %c128_459 step %c32_460 iter_args(%arg19 = %arg17) -> (tensor<?x128xf32>) {
                  %125 = affine.apply affine_map<(d0) -> (d0 - 1)>(%120)
                  %126 = affine.apply affine_map<(d0) -> (d0 - 1)>(%120)
                  %127 = affine.min affine_map<(d0, d1) -> (d0 - d1, 32)>(%120, %arg14)
                  %128 = affine.apply affine_map<(d0) -> (d0 - 1)>(%120)
                  %129 = affine.apply affine_map<(d0) -> (d0 - 1)>(%120)
                  %130 = affine.min affine_map<(d0, d1) -> (d0 - d1, 32)>(%120, %arg14)
                  %extracted_slice_462 = tensor.extract_slice %extracted_slice_448[%arg14, %arg18] [%127, 32] [1, 1] : tensor<?x128xf32> to tensor<?x32xf32>
                  %extracted_slice_463 = tensor.extract_slice %extracted_slice_449[%arg18, %arg16] [32, 32] [1, 1] : tensor<128x128xf32> to tensor<32x32xf32>
                  %extracted_slice_464 = tensor.extract_slice %arg19[%arg14, %arg16] [%130, 32] [1, 1] : tensor<?x128xf32> to tensor<?x32xf32>
                  %131 = linalg.generic {indexing_maps = [affine_map<(d0, d1, d2) -> (d0, d2)>, affine_map<(d0, d1, d2) -> (d2, d1)>, affine_map<(d0, d1, d2) -> (d0, d1)>], iterator_types = ["parallel", "parallel", "reduction"]} ins(%extracted_slice_462, %extracted_slice_463 : tensor<?x32xf32>, tensor<32x32xf32>) outs(%extracted_slice_464 : tensor<?x32xf32>) {
                  ^bb0(%in: f32, %in_466: f32, %out: f32):
                    %132 = arith.mulf %in, %in_466 : f32
                    %133 = arith.addf %out, %132 : f32
                    linalg.yield %133 : f32
                  } -> tensor<?x32xf32>
                  %inserted_slice_465 = tensor.insert_slice %131 into %arg19[%arg14, %arg16] [%130, 32] [1, 1] : tensor<?x32xf32> into tensor<?x128xf32>
                  scf.yield %inserted_slice_465 : tensor<?x128xf32>
                }
                scf.yield %124 : tensor<?x128xf32>
              }
              scf.yield %123 : tensor<?x128xf32>
            }
            %inserted_slice_461 = tensor.insert_slice %122 into %arg13[%arg8, %arg10] [%121, 128] [1, 1] : tensor<?x128xf32> into tensor<1x768xf32>
            scf.yield %inserted_slice_461 : tensor<1x768xf32>
          }
          scf.yield %119 : tensor<1x768xf32>
        }
        scf.yield %118 : tensor<1x768xf32>
      }
      %90 = tensor.empty() : tensor<1x768xf32>
      %c0_358 = arith.constant 0 : index
      %c1_359 = arith.constant 1 : index
      %c32_360 = arith.constant 32 : index
      %c0_361 = arith.constant 0 : index
      %c768_362 = arith.constant 768 : index
      %c32_363 = arith.constant 32 : index
      %91 = scf.for %arg8 = %c0_358 to %c1_359 step %c32_360 iter_args(%arg9 = %90) -> (tensor<1x768xf32>) {
        %118 = scf.for %arg10 = %c0_361 to %c768_362 step %c32_363 iter_args(%arg11 = %arg9) -> (tensor<1x768xf32>) {
          %119 = affine.min affine_map<(d0) -> (-d0 + 1, 32)>(%arg8)
          %120 = affine.min affine_map<(d0) -> (-d0 + 1, 32)>(%arg8)
          %121 = affine.min affine_map<(d0) -> (-d0 + 1, 32)>(%arg8)
          %extracted_slice_448 = tensor.extract_slice %arg5[%arg8, %arg10] [%119, 32] [1, 1] : tensor<1x768xf32> to tensor<?x32xf32>
          %extracted_slice_449 = tensor.extract_slice %89[%arg8, %arg10] [%120, 32] [1, 1] : tensor<1x768xf32> to tensor<?x32xf32>
          %extracted_slice_450 = tensor.extract_slice %arg11[%arg8, %arg10] [%121, 32] [1, 1] : tensor<1x768xf32> to tensor<?x32xf32>
          %122 = linalg.generic {indexing_maps = [affine_map<(d0, d1) -> (d0, d1)>, affine_map<(d0, d1) -> (d0, d1)>, affine_map<(d0, d1) -> (d0, d1)>], iterator_types = ["parallel", "parallel"]} ins(%extracted_slice_448, %extracted_slice_449 : tensor<?x32xf32>, tensor<?x32xf32>) outs(%extracted_slice_450 : tensor<?x32xf32>) {
          ^bb0(%in: f32, %in_452: f32, %out: f32):
            %123 = arith.addf %in, %in_452 : f32
            linalg.yield %123 : f32
          } -> tensor<?x32xf32>
          %inserted_slice_451 = tensor.insert_slice %122 into %arg11[%arg8, %arg10] [%121, 32] [1, 1] : tensor<?x32xf32> into tensor<1x768xf32>
          scf.yield %inserted_slice_451 : tensor<1x768xf32>
        }
        scf.yield %118 : tensor<1x768xf32>
      }
      %92 = arith.index_cast %44 : i64 to index
      %extracted_slice_364 = tensor.extract_slice %13[%92, %c0] [1, 768] [1, 1] : tensor<12x768xf32> to tensor<768xf32>
      %93 = tensor.empty() : tensor<1xf32>
      %c0_365 = arith.constant 0 : index
      %c1_366 = arith.constant 1 : index
      %c32_367 = arith.constant 32 : index
      %94 = scf.for %arg8 = %c0_365 to %c1_366 step %c32_367 iter_args(%arg9 = %93) -> (tensor<1xf32>) {
        %118 = affine.min affine_map<(d0) -> (-d0 + 1, 32)>(%arg8)
        %extracted_slice_448 = tensor.extract_slice %arg9[%arg8] [%118] [1] : tensor<1xf32> to tensor<?xf32>
        %119 = linalg.generic {indexing_maps = [affine_map<(d0) -> ()>, affine_map<(d0) -> (d0)>], iterator_types = ["parallel"]} ins(%cst_154 : f32) outs(%extracted_slice_448 : tensor<?xf32>) {
        ^bb0(%in: f32, %out: f32):
          linalg.yield %in : f32
        } -> tensor<?xf32>
        %inserted_slice_449 = tensor.insert_slice %119 into %arg9[%arg8] [%118] [1] : tensor<?xf32> into tensor<1xf32>
        scf.yield %inserted_slice_449 : tensor<1xf32>
      }
      %c0_368 = arith.constant 0 : index
      %c1_369 = arith.constant 1 : index
      %c128_370 = arith.constant 128 : index
      %c0_371 = arith.constant 0 : index
      %c768_372 = arith.constant 768 : index
      %c128_373 = arith.constant 128 : index
      %95 = scf.for %arg8 = %c0_368 to %c1_369 step %c128_370 iter_args(%arg9 = %94) -> (tensor<1xf32>) {
        %118 = scf.for %arg10 = %c0_371 to %c768_372 step %c128_373 iter_args(%arg11 = %arg9) -> (tensor<1xf32>) {
          %119 = affine.min affine_map<(d0) -> (-d0 + 1, 128)>(%arg8)
          %120 = affine.min affine_map<(d0) -> (-d0 + 1, 128)>(%arg8)
          %extracted_slice_448 = tensor.extract_slice %91[%arg8, %arg10] [%119, 128] [1, 1] : tensor<1x768xf32> to tensor<?x128xf32>
          %extracted_slice_449 = tensor.extract_slice %arg11[%arg8] [%120] [1] : tensor<1xf32> to tensor<?xf32>
          %c0_450 = arith.constant 0 : index
          %c0_451 = arith.constant 0 : index
          %c0_452 = arith.constant 0 : index
          %c32_453 = arith.constant 32 : index
          %c0_454 = arith.constant 0 : index
          %c128_455 = arith.constant 128 : index
          %c32_456 = arith.constant 32 : index
          %121 = scf.for %arg12 = %c0_452 to %119 step %c32_453 iter_args(%arg13 = %extracted_slice_449) -> (tensor<?xf32>) {
            %122 = scf.for %arg14 = %c0_454 to %c128_455 step %c32_456 iter_args(%arg15 = %arg13) -> (tensor<?xf32>) {
              %123 = affine.apply affine_map<(d0) -> (d0 - 1)>(%119)
              %124 = affine.apply affine_map<(d0) -> (d0 - 1)>(%119)
              %125 = affine.min affine_map<(d0, d1) -> (d0 - d1, 32)>(%119, %arg12)
              %126 = affine.apply affine_map<(d0) -> (d0 - 1)>(%119)
              %127 = affine.apply affine_map<(d0) -> (d0 - 1)>(%119)
              %128 = affine.min affine_map<(d0, d1) -> (d0 - d1, 32)>(%119, %arg12)
              %extracted_slice_458 = tensor.extract_slice %extracted_slice_448[%arg12, %arg14] [%125, 32] [1, 1] : tensor<?x128xf32> to tensor<?x32xf32>
              %extracted_slice_459 = tensor.extract_slice %arg15[%arg12] [%128] [1] : tensor<?xf32> to tensor<?xf32>
              %129 = linalg.generic {indexing_maps = [affine_map<(d0, d1) -> (d0, d1)>, affine_map<(d0, d1) -> (d0)>], iterator_types = ["parallel", "reduction"]} ins(%extracted_slice_458 : tensor<?x32xf32>) outs(%extracted_slice_459 : tensor<?xf32>) {
              ^bb0(%in: f32, %out: f32):
                %130 = arith.mulf %in, %in : f32
                %131 = arith.addf %out, %130 : f32
                linalg.yield %131 : f32
              } -> tensor<?xf32>
              %inserted_slice_460 = tensor.insert_slice %129 into %arg15[%arg12] [%128] [1] : tensor<?xf32> into tensor<?xf32>
              scf.yield %inserted_slice_460 : tensor<?xf32>
            }
            scf.yield %122 : tensor<?xf32>
          }
          %inserted_slice_457 = tensor.insert_slice %121 into %arg11[%arg8] [%120] [1] : tensor<?xf32> into tensor<1xf32>
          scf.yield %inserted_slice_457 : tensor<1xf32>
        }
        scf.yield %118 : tensor<1xf32>
      }
      %96 = tensor.empty() : tensor<1xf32>
      %c0_374 = arith.constant 0 : index
      %c1_375 = arith.constant 1 : index
      %c32_376 = arith.constant 32 : index
      %97 = scf.for %arg8 = %c0_374 to %c1_375 step %c32_376 iter_args(%arg9 = %96) -> (tensor<1xf32>) {
        %118 = affine.min affine_map<(d0) -> (-d0 + 1, 32)>(%arg8)
        %119 = affine.min affine_map<(d0) -> (-d0 + 1, 32)>(%arg8)
        %extracted_slice_448 = tensor.extract_slice %95[%arg8] [%118] [1] : tensor<1xf32> to tensor<?xf32>
        %extracted_slice_449 = tensor.extract_slice %arg9[%arg8] [%119] [1] : tensor<1xf32> to tensor<?xf32>
        %120 = linalg.generic {indexing_maps = [affine_map<(d0) -> (d0)>, affine_map<(d0) -> (d0)>], iterator_types = ["parallel"]} ins(%extracted_slice_448 : tensor<?xf32>) outs(%extracted_slice_449 : tensor<?xf32>) {
        ^bb0(%in: f32, %out: f32):
          %121 = arith.divf %in, %cst_145 : f32
          %122 = arith.addf %121, %cst_153 : f32
          %123 = math.rsqrt %122 : f32
          linalg.yield %123 : f32
        } -> tensor<?xf32>
        %inserted_slice_450 = tensor.insert_slice %120 into %arg9[%arg8] [%119] [1] : tensor<?xf32> into tensor<1xf32>
        scf.yield %inserted_slice_450 : tensor<1xf32>
      }
      %98 = tensor.empty() : tensor<1x768xf32>
      %c0_377 = arith.constant 0 : index
      %c1_378 = arith.constant 1 : index
      %c32_379 = arith.constant 32 : index
      %c0_380 = arith.constant 0 : index
      %c768_381 = arith.constant 768 : index
      %c32_382 = arith.constant 32 : index
      %99 = scf.for %arg8 = %c0_377 to %c1_378 step %c32_379 iter_args(%arg9 = %98) -> (tensor<1x768xf32>) {
        %118 = scf.for %arg10 = %c0_380 to %c768_381 step %c32_382 iter_args(%arg11 = %arg9) -> (tensor<1x768xf32>) {
          %119 = affine.min affine_map<(d0) -> (-d0 + 1, 32)>(%arg8)
          %120 = affine.min affine_map<(d0) -> (-d0 + 1, 32)>(%arg8)
          %121 = affine.min affine_map<(d0) -> (-d0 + 1, 32)>(%arg8)
          %extracted_slice_448 = tensor.extract_slice %91[%arg8, %arg10] [%119, 32] [1, 1] : tensor<1x768xf32> to tensor<?x32xf32>
          %extracted_slice_449 = tensor.extract_slice %97[%arg8] [%120] [1] : tensor<1xf32> to tensor<?xf32>
          %extracted_slice_450 = tensor.extract_slice %extracted_slice_364[%arg10] [32] [1] : tensor<768xf32> to tensor<32xf32>
          %extracted_slice_451 = tensor.extract_slice %arg11[%arg8, %arg10] [%121, 32] [1, 1] : tensor<1x768xf32> to tensor<?x32xf32>
          %122 = linalg.generic {indexing_maps = [affine_map<(d0, d1) -> (d0, d1)>, affine_map<(d0, d1) -> (d0)>, affine_map<(d0, d1) -> (d1)>, affine_map<(d0, d1) -> (d0, d1)>], iterator_types = ["parallel", "parallel"]} ins(%extracted_slice_448, %extracted_slice_449, %extracted_slice_450 : tensor<?x32xf32>, tensor<?xf32>, tensor<32xf32>) outs(%extracted_slice_451 : tensor<?x32xf32>) {
          ^bb0(%in: f32, %in_453: f32, %in_454: f32, %out: f32):
            %123 = arith.mulf %in, %in_453 : f32
            %124 = arith.mulf %123, %in_454 : f32
            linalg.yield %124 : f32
          } -> tensor<?x32xf32>
          %inserted_slice_452 = tensor.insert_slice %122 into %arg11[%arg8, %arg10] [%121, 32] [1, 1] : tensor<?x32xf32> into tensor<1x768xf32>
          scf.yield %inserted_slice_452 : tensor<1x768xf32>
        }
        scf.yield %118 : tensor<1x768xf32>
      }
      %100 = arith.index_cast %44 : i64 to index
      %extracted_slice_383 = tensor.extract_slice %15[%100, %c0, %c0] [1, 768, 2048] [1, 1, 1] : tensor<12x768x2048xf32> to tensor<768x2048xf32>
      %101 = arith.index_cast %44 : i64 to index
      %extracted_slice_384 = tensor.extract_slice %19[%101, %c0, %c0] [1, 768, 2048] [1, 1, 1] : tensor<12x768x2048xf32> to tensor<768x2048xf32>
      %102 = tensor.empty() : tensor<1x2048xf32>
      %c0_385 = arith.constant 0 : index
      %c1_386 = arith.constant 1 : index
      %c32_387 = arith.constant 32 : index
      %c0_388 = arith.constant 0 : index
      %c2048 = arith.constant 2048 : index
      %c32_389 = arith.constant 32 : index
      %103 = scf.for %arg8 = %c0_385 to %c1_386 step %c32_387 iter_args(%arg9 = %102) -> (tensor<1x2048xf32>) {
        %118 = scf.for %arg10 = %c0_388 to %c2048 step %c32_389 iter_args(%arg11 = %arg9) -> (tensor<1x2048xf32>) {
          %119 = affine.min affine_map<(d0) -> (-d0 + 1, 32)>(%arg8)
          %extracted_slice_448 = tensor.extract_slice %arg11[%arg8, %arg10] [%119, 32] [1, 1] : tensor<1x2048xf32> to tensor<?x32xf32>
          %120 = linalg.generic {indexing_maps = [affine_map<(d0, d1) -> ()>, affine_map<(d0, d1) -> (d0, d1)>], iterator_types = ["parallel", "parallel"]} ins(%cst_154 : f32) outs(%extracted_slice_448 : tensor<?x32xf32>) {
          ^bb0(%in: f32, %out: f32):
            linalg.yield %in : f32
          } -> tensor<?x32xf32>
          %inserted_slice_449 = tensor.insert_slice %120 into %arg11[%arg8, %arg10] [%119, 32] [1, 1] : tensor<?x32xf32> into tensor<1x2048xf32>
          scf.yield %inserted_slice_449 : tensor<1x2048xf32>
        }
        scf.yield %118 : tensor<1x2048xf32>
      }
      %c0_390 = arith.constant 0 : index
      %c1_391 = arith.constant 1 : index
      %c128_392 = arith.constant 128 : index
      %c0_393 = arith.constant 0 : index
      %c2048_394 = arith.constant 2048 : index
      %c128_395 = arith.constant 128 : index
      %c0_396 = arith.constant 0 : index
      %c768_397 = arith.constant 768 : index
      %c128_398 = arith.constant 128 : index
      %104 = scf.for %arg8 = %c0_390 to %c1_391 step %c128_392 iter_args(%arg9 = %103) -> (tensor<1x2048xf32>) {
        %118 = scf.for %arg10 = %c0_393 to %c2048_394 step %c128_395 iter_args(%arg11 = %arg9) -> (tensor<1x2048xf32>) {
          %119 = scf.for %arg12 = %c0_396 to %c768_397 step %c128_398 iter_args(%arg13 = %arg11) -> (tensor<1x2048xf32>) {
            %120 = affine.min affine_map<(d0) -> (-d0 + 1, 128)>(%arg8)
            %121 = affine.min affine_map<(d0) -> (-d0 + 1, 128)>(%arg8)
            %extracted_slice_448 = tensor.extract_slice %99[%arg8, %arg12] [%120, 128] [1, 1] : tensor<1x768xf32> to tensor<?x128xf32>
            %extracted_slice_449 = tensor.extract_slice %extracted_slice_383[%arg12, %arg10] [128, 128] [1, 1] : tensor<768x2048xf32> to tensor<128x128xf32>
            %extracted_slice_450 = tensor.extract_slice %arg13[%arg8, %arg10] [%121, 128] [1, 1] : tensor<1x2048xf32> to tensor<?x128xf32>
            %c0_451 = arith.constant 0 : index
            %c0_452 = arith.constant 0 : index
            %c0_453 = arith.constant 0 : index
            %c32_454 = arith.constant 32 : index
            %c0_455 = arith.constant 0 : index
            %c128_456 = arith.constant 128 : index
            %c32_457 = arith.constant 32 : index
            %c0_458 = arith.constant 0 : index
            %c128_459 = arith.constant 128 : index
            %c32_460 = arith.constant 32 : index
            %122 = scf.for %arg14 = %c0_453 to %120 step %c32_454 iter_args(%arg15 = %extracted_slice_450) -> (tensor<?x128xf32>) {
              %123 = scf.for %arg16 = %c0_455 to %c128_456 step %c32_457 iter_args(%arg17 = %arg15) -> (tensor<?x128xf32>) {
                %124 = scf.for %arg18 = %c0_458 to %c128_459 step %c32_460 iter_args(%arg19 = %arg17) -> (tensor<?x128xf32>) {
                  %125 = affine.apply affine_map<(d0) -> (d0 - 1)>(%120)
                  %126 = affine.apply affine_map<(d0) -> (d0 - 1)>(%120)
                  %127 = affine.min affine_map<(d0, d1) -> (d0 - d1, 32)>(%120, %arg14)
                  %128 = affine.apply affine_map<(d0) -> (d0 - 1)>(%120)
                  %129 = affine.apply affine_map<(d0) -> (d0 - 1)>(%120)
                  %130 = affine.min affine_map<(d0, d1) -> (d0 - d1, 32)>(%120, %arg14)
                  %extracted_slice_462 = tensor.extract_slice %extracted_slice_448[%arg14, %arg18] [%127, 32] [1, 1] : tensor<?x128xf32> to tensor<?x32xf32>
                  %extracted_slice_463 = tensor.extract_slice %extracted_slice_449[%arg18, %arg16] [32, 32] [1, 1] : tensor<128x128xf32> to tensor<32x32xf32>
                  %extracted_slice_464 = tensor.extract_slice %arg19[%arg14, %arg16] [%130, 32] [1, 1] : tensor<?x128xf32> to tensor<?x32xf32>
                  %131 = linalg.generic {indexing_maps = [affine_map<(d0, d1, d2) -> (d0, d2)>, affine_map<(d0, d1, d2) -> (d2, d1)>, affine_map<(d0, d1, d2) -> (d0, d1)>], iterator_types = ["parallel", "parallel", "reduction"]} ins(%extracted_slice_462, %extracted_slice_463 : tensor<?x32xf32>, tensor<32x32xf32>) outs(%extracted_slice_464 : tensor<?x32xf32>) {
                  ^bb0(%in: f32, %in_466: f32, %out: f32):
                    %132 = arith.mulf %in, %in_466 : f32
                    %133 = arith.addf %out, %132 : f32
                    linalg.yield %133 : f32
                  } -> tensor<?x32xf32>
                  %inserted_slice_465 = tensor.insert_slice %131 into %arg19[%arg14, %arg16] [%130, 32] [1, 1] : tensor<?x32xf32> into tensor<?x128xf32>
                  scf.yield %inserted_slice_465 : tensor<?x128xf32>
                }
                scf.yield %124 : tensor<?x128xf32>
              }
              scf.yield %123 : tensor<?x128xf32>
            }
            %inserted_slice_461 = tensor.insert_slice %122 into %arg13[%arg8, %arg10] [%121, 128] [1, 1] : tensor<?x128xf32> into tensor<1x2048xf32>
            scf.yield %inserted_slice_461 : tensor<1x2048xf32>
          }
          scf.yield %119 : tensor<1x2048xf32>
        }
        scf.yield %118 : tensor<1x2048xf32>
      }
      %105 = tensor.empty() : tensor<1x2048xf32>
      %c0_399 = arith.constant 0 : index
      %c1_400 = arith.constant 1 : index
      %c32_401 = arith.constant 32 : index
      %c0_402 = arith.constant 0 : index
      %c2048_403 = arith.constant 2048 : index
      %c32_404 = arith.constant 32 : index
      %106 = scf.for %arg8 = %c0_399 to %c1_400 step %c32_401 iter_args(%arg9 = %105) -> (tensor<1x2048xf32>) {
        %118 = scf.for %arg10 = %c0_402 to %c2048_403 step %c32_404 iter_args(%arg11 = %arg9) -> (tensor<1x2048xf32>) {
          %119 = affine.min affine_map<(d0) -> (-d0 + 1, 32)>(%arg8)
          %extracted_slice_448 = tensor.extract_slice %arg11[%arg8, %arg10] [%119, 32] [1, 1] : tensor<1x2048xf32> to tensor<?x32xf32>
          %120 = linalg.generic {indexing_maps = [affine_map<(d0, d1) -> ()>, affine_map<(d0, d1) -> (d0, d1)>], iterator_types = ["parallel", "parallel"]} ins(%cst_154 : f32) outs(%extracted_slice_448 : tensor<?x32xf32>) {
          ^bb0(%in: f32, %out: f32):
            linalg.yield %in : f32
          } -> tensor<?x32xf32>
          %inserted_slice_449 = tensor.insert_slice %120 into %arg11[%arg8, %arg10] [%119, 32] [1, 1] : tensor<?x32xf32> into tensor<1x2048xf32>
          scf.yield %inserted_slice_449 : tensor<1x2048xf32>
        }
        scf.yield %118 : tensor<1x2048xf32>
      }
      %c0_405 = arith.constant 0 : index
      %c1_406 = arith.constant 1 : index
      %c128_407 = arith.constant 128 : index
      %c0_408 = arith.constant 0 : index
      %c2048_409 = arith.constant 2048 : index
      %c128_410 = arith.constant 128 : index
      %c0_411 = arith.constant 0 : index
      %c768_412 = arith.constant 768 : index
      %c128_413 = arith.constant 128 : index
      %107 = scf.for %arg8 = %c0_405 to %c1_406 step %c128_407 iter_args(%arg9 = %106) -> (tensor<1x2048xf32>) {
        %118 = scf.for %arg10 = %c0_408 to %c2048_409 step %c128_410 iter_args(%arg11 = %arg9) -> (tensor<1x2048xf32>) {
          %119 = scf.for %arg12 = %c0_411 to %c768_412 step %c128_413 iter_args(%arg13 = %arg11) -> (tensor<1x2048xf32>) {
            %120 = affine.min affine_map<(d0) -> (-d0 + 1, 128)>(%arg8)
            %121 = affine.min affine_map<(d0) -> (-d0 + 1, 128)>(%arg8)
            %extracted_slice_448 = tensor.extract_slice %99[%arg8, %arg12] [%120, 128] [1, 1] : tensor<1x768xf32> to tensor<?x128xf32>
            %extracted_slice_449 = tensor.extract_slice %extracted_slice_384[%arg12, %arg10] [128, 128] [1, 1] : tensor<768x2048xf32> to tensor<128x128xf32>
            %extracted_slice_450 = tensor.extract_slice %arg13[%arg8, %arg10] [%121, 128] [1, 1] : tensor<1x2048xf32> to tensor<?x128xf32>
            %c0_451 = arith.constant 0 : index
            %c0_452 = arith.constant 0 : index
            %c0_453 = arith.constant 0 : index
            %c32_454 = arith.constant 32 : index
            %c0_455 = arith.constant 0 : index
            %c128_456 = arith.constant 128 : index
            %c32_457 = arith.constant 32 : index
            %c0_458 = arith.constant 0 : index
            %c128_459 = arith.constant 128 : index
            %c32_460 = arith.constant 32 : index
            %122 = scf.for %arg14 = %c0_453 to %120 step %c32_454 iter_args(%arg15 = %extracted_slice_450) -> (tensor<?x128xf32>) {
              %123 = scf.for %arg16 = %c0_455 to %c128_456 step %c32_457 iter_args(%arg17 = %arg15) -> (tensor<?x128xf32>) {
                %124 = scf.for %arg18 = %c0_458 to %c128_459 step %c32_460 iter_args(%arg19 = %arg17) -> (tensor<?x128xf32>) {
                  %125 = affine.apply affine_map<(d0) -> (d0 - 1)>(%120)
                  %126 = affine.apply affine_map<(d0) -> (d0 - 1)>(%120)
                  %127 = affine.min affine_map<(d0, d1) -> (d0 - d1, 32)>(%120, %arg14)
                  %128 = affine.apply affine_map<(d0) -> (d0 - 1)>(%120)
                  %129 = affine.apply affine_map<(d0) -> (d0 - 1)>(%120)
                  %130 = affine.min affine_map<(d0, d1) -> (d0 - d1, 32)>(%120, %arg14)
                  %extracted_slice_462 = tensor.extract_slice %extracted_slice_448[%arg14, %arg18] [%127, 32] [1, 1] : tensor<?x128xf32> to tensor<?x32xf32>
                  %extracted_slice_463 = tensor.extract_slice %extracted_slice_449[%arg18, %arg16] [32, 32] [1, 1] : tensor<128x128xf32> to tensor<32x32xf32>
                  %extracted_slice_464 = tensor.extract_slice %arg19[%arg14, %arg16] [%130, 32] [1, 1] : tensor<?x128xf32> to tensor<?x32xf32>
                  %131 = linalg.generic {indexing_maps = [affine_map<(d0, d1, d2) -> (d0, d2)>, affine_map<(d0, d1, d2) -> (d2, d1)>, affine_map<(d0, d1, d2) -> (d0, d1)>], iterator_types = ["parallel", "parallel", "reduction"]} ins(%extracted_slice_462, %extracted_slice_463 : tensor<?x32xf32>, tensor<32x32xf32>) outs(%extracted_slice_464 : tensor<?x32xf32>) {
                  ^bb0(%in: f32, %in_466: f32, %out: f32):
                    %132 = arith.mulf %in, %in_466 : f32
                    %133 = arith.addf %out, %132 : f32
                    linalg.yield %133 : f32
                  } -> tensor<?x32xf32>
                  %inserted_slice_465 = tensor.insert_slice %131 into %arg19[%arg14, %arg16] [%130, 32] [1, 1] : tensor<?x32xf32> into tensor<?x128xf32>
                  scf.yield %inserted_slice_465 : tensor<?x128xf32>
                }
                scf.yield %124 : tensor<?x128xf32>
              }
              scf.yield %123 : tensor<?x128xf32>
            }
            %inserted_slice_461 = tensor.insert_slice %122 into %arg13[%arg8, %arg10] [%121, 128] [1, 1] : tensor<?x128xf32> into tensor<1x2048xf32>
            scf.yield %inserted_slice_461 : tensor<1x2048xf32>
          }
          scf.yield %119 : tensor<1x2048xf32>
        }
        scf.yield %118 : tensor<1x2048xf32>
      }
      %108 = tensor.empty() : tensor<1x2048xf32>
      %c0_414 = arith.constant 0 : index
      %c1_415 = arith.constant 1 : index
      %c32_416 = arith.constant 32 : index
      %c0_417 = arith.constant 0 : index
      %c2048_418 = arith.constant 2048 : index
      %c32_419 = arith.constant 32 : index
      %109 = scf.for %arg8 = %c0_414 to %c1_415 step %c32_416 iter_args(%arg9 = %108) -> (tensor<1x2048xf32>) {
        %118 = scf.for %arg10 = %c0_417 to %c2048_418 step %c32_419 iter_args(%arg11 = %arg9) -> (tensor<1x2048xf32>) {
          %119 = affine.min affine_map<(d0) -> (-d0 + 1, 32)>(%arg8)
          %120 = affine.min affine_map<(d0) -> (-d0 + 1, 32)>(%arg8)
          %extracted_slice_448 = tensor.extract_slice %104[%arg8, %arg10] [%119, 32] [1, 1] : tensor<1x2048xf32> to tensor<?x32xf32>
          %extracted_slice_449 = tensor.extract_slice %arg11[%arg8, %arg10] [%120, 32] [1, 1] : tensor<1x2048xf32> to tensor<?x32xf32>
          %121 = linalg.generic {indexing_maps = [affine_map<(d0, d1) -> (d0, d1)>, affine_map<(d0, d1) -> (d0, d1)>], iterator_types = ["parallel", "parallel"]} ins(%extracted_slice_448 : tensor<?x32xf32>) outs(%extracted_slice_449 : tensor<?x32xf32>) {
          ^bb0(%in: f32, %out: f32):
            %122 = arith.negf %in : f32
            %123 = math.exp %122 : f32
            %124 = arith.addf %123, %cst_146 : f32
            %125 = arith.divf %in, %124 : f32
            linalg.yield %125 : f32
          } -> tensor<?x32xf32>
          %inserted_slice_450 = tensor.insert_slice %121 into %arg11[%arg8, %arg10] [%120, 32] [1, 1] : tensor<?x32xf32> into tensor<1x2048xf32>
          scf.yield %inserted_slice_450 : tensor<1x2048xf32>
        }
        scf.yield %118 : tensor<1x2048xf32>
      }
      %110 = tensor.empty() : tensor<1x2048xf32>
      %c0_420 = arith.constant 0 : index
      %c1_421 = arith.constant 1 : index
      %c32_422 = arith.constant 32 : index
      %c0_423 = arith.constant 0 : index
      %c2048_424 = arith.constant 2048 : index
      %c32_425 = arith.constant 32 : index
      %111 = scf.for %arg8 = %c0_420 to %c1_421 step %c32_422 iter_args(%arg9 = %110) -> (tensor<1x2048xf32>) {
        %118 = scf.for %arg10 = %c0_423 to %c2048_424 step %c32_425 iter_args(%arg11 = %arg9) -> (tensor<1x2048xf32>) {
          %119 = affine.min affine_map<(d0) -> (-d0 + 1, 32)>(%arg8)
          %120 = affine.min affine_map<(d0) -> (-d0 + 1, 32)>(%arg8)
          %121 = affine.min affine_map<(d0) -> (-d0 + 1, 32)>(%arg8)
          %extracted_slice_448 = tensor.extract_slice %109[%arg8, %arg10] [%119, 32] [1, 1] : tensor<1x2048xf32> to tensor<?x32xf32>
          %extracted_slice_449 = tensor.extract_slice %107[%arg8, %arg10] [%120, 32] [1, 1] : tensor<1x2048xf32> to tensor<?x32xf32>
          %extracted_slice_450 = tensor.extract_slice %arg11[%arg8, %arg10] [%121, 32] [1, 1] : tensor<1x2048xf32> to tensor<?x32xf32>
          %122 = linalg.generic {indexing_maps = [affine_map<(d0, d1) -> (d0, d1)>, affine_map<(d0, d1) -> (d0, d1)>, affine_map<(d0, d1) -> (d0, d1)>], iterator_types = ["parallel", "parallel"]} ins(%extracted_slice_448, %extracted_slice_449 : tensor<?x32xf32>, tensor<?x32xf32>) outs(%extracted_slice_450 : tensor<?x32xf32>) {
          ^bb0(%in: f32, %in_452: f32, %out: f32):
            %123 = arith.mulf %in, %in_452 : f32
            linalg.yield %123 : f32
          } -> tensor<?x32xf32>
          %inserted_slice_451 = tensor.insert_slice %122 into %arg11[%arg8, %arg10] [%121, 32] [1, 1] : tensor<?x32xf32> into tensor<1x2048xf32>
          scf.yield %inserted_slice_451 : tensor<1x2048xf32>
        }
        scf.yield %118 : tensor<1x2048xf32>
      }
      %112 = arith.index_cast %44 : i64 to index
      %extracted_slice_426 = tensor.extract_slice %17[%112, %c0, %c0] [1, 2048, 768] [1, 1, 1] : tensor<12x2048x768xf32> to tensor<2048x768xf32>
      %113 = tensor.empty() : tensor<1x768xf32>
      %c0_427 = arith.constant 0 : index
      %c1_428 = arith.constant 1 : index
      %c32_429 = arith.constant 32 : index
      %c0_430 = arith.constant 0 : index
      %c768_431 = arith.constant 768 : index
      %c32_432 = arith.constant 32 : index
      %114 = scf.for %arg8 = %c0_427 to %c1_428 step %c32_429 iter_args(%arg9 = %113) -> (tensor<1x768xf32>) {
        %118 = scf.for %arg10 = %c0_430 to %c768_431 step %c32_432 iter_args(%arg11 = %arg9) -> (tensor<1x768xf32>) {
          %119 = affine.min affine_map<(d0) -> (-d0 + 1, 32)>(%arg8)
          %extracted_slice_448 = tensor.extract_slice %arg11[%arg8, %arg10] [%119, 32] [1, 1] : tensor<1x768xf32> to tensor<?x32xf32>
          %120 = linalg.generic {indexing_maps = [affine_map<(d0, d1) -> ()>, affine_map<(d0, d1) -> (d0, d1)>], iterator_types = ["parallel", "parallel"]} ins(%cst_154 : f32) outs(%extracted_slice_448 : tensor<?x32xf32>) {
          ^bb0(%in: f32, %out: f32):
            linalg.yield %in : f32
          } -> tensor<?x32xf32>
          %inserted_slice_449 = tensor.insert_slice %120 into %arg11[%arg8, %arg10] [%119, 32] [1, 1] : tensor<?x32xf32> into tensor<1x768xf32>
          scf.yield %inserted_slice_449 : tensor<1x768xf32>
        }
        scf.yield %118 : tensor<1x768xf32>
      }
      %c0_433 = arith.constant 0 : index
      %c1_434 = arith.constant 1 : index
      %c128_435 = arith.constant 128 : index
      %c0_436 = arith.constant 0 : index
      %c768_437 = arith.constant 768 : index
      %c128_438 = arith.constant 128 : index
      %c0_439 = arith.constant 0 : index
      %c2048_440 = arith.constant 2048 : index
      %c128_441 = arith.constant 128 : index
      %115 = scf.for %arg8 = %c0_433 to %c1_434 step %c128_435 iter_args(%arg9 = %114) -> (tensor<1x768xf32>) {
        %118 = scf.for %arg10 = %c0_436 to %c768_437 step %c128_438 iter_args(%arg11 = %arg9) -> (tensor<1x768xf32>) {
          %119 = scf.for %arg12 = %c0_439 to %c2048_440 step %c128_441 iter_args(%arg13 = %arg11) -> (tensor<1x768xf32>) {
            %120 = affine.min affine_map<(d0) -> (-d0 + 1, 128)>(%arg8)
            %121 = affine.min affine_map<(d0) -> (-d0 + 1, 128)>(%arg8)
            %extracted_slice_448 = tensor.extract_slice %111[%arg8, %arg12] [%120, 128] [1, 1] : tensor<1x2048xf32> to tensor<?x128xf32>
            %extracted_slice_449 = tensor.extract_slice %extracted_slice_426[%arg12, %arg10] [128, 128] [1, 1] : tensor<2048x768xf32> to tensor<128x128xf32>
            %extracted_slice_450 = tensor.extract_slice %arg13[%arg8, %arg10] [%121, 128] [1, 1] : tensor<1x768xf32> to tensor<?x128xf32>
            %c0_451 = arith.constant 0 : index
            %c0_452 = arith.constant 0 : index
            %c0_453 = arith.constant 0 : index
            %c32_454 = arith.constant 32 : index
            %c0_455 = arith.constant 0 : index
            %c128_456 = arith.constant 128 : index
            %c32_457 = arith.constant 32 : index
            %c0_458 = arith.constant 0 : index
            %c128_459 = arith.constant 128 : index
            %c32_460 = arith.constant 32 : index
            %122 = scf.for %arg14 = %c0_453 to %120 step %c32_454 iter_args(%arg15 = %extracted_slice_450) -> (tensor<?x128xf32>) {
              %123 = scf.for %arg16 = %c0_455 to %c128_456 step %c32_457 iter_args(%arg17 = %arg15) -> (tensor<?x128xf32>) {
                %124 = scf.for %arg18 = %c0_458 to %c128_459 step %c32_460 iter_args(%arg19 = %arg17) -> (tensor<?x128xf32>) {
                  %125 = affine.apply affine_map<(d0) -> (d0 - 1)>(%120)
                  %126 = affine.apply affine_map<(d0) -> (d0 - 1)>(%120)
                  %127 = affine.min affine_map<(d0, d1) -> (d0 - d1, 32)>(%120, %arg14)
                  %128 = affine.apply affine_map<(d0) -> (d0 - 1)>(%120)
                  %129 = affine.apply affine_map<(d0) -> (d0 - 1)>(%120)
                  %130 = affine.min affine_map<(d0, d1) -> (d0 - d1, 32)>(%120, %arg14)
                  %extracted_slice_462 = tensor.extract_slice %extracted_slice_448[%arg14, %arg18] [%127, 32] [1, 1] : tensor<?x128xf32> to tensor<?x32xf32>
                  %extracted_slice_463 = tensor.extract_slice %extracted_slice_449[%arg18, %arg16] [32, 32] [1, 1] : tensor<128x128xf32> to tensor<32x32xf32>
                  %extracted_slice_464 = tensor.extract_slice %arg19[%arg14, %arg16] [%130, 32] [1, 1] : tensor<?x128xf32> to tensor<?x32xf32>
                  %131 = linalg.generic {indexing_maps = [affine_map<(d0, d1, d2) -> (d0, d2)>, affine_map<(d0, d1, d2) -> (d2, d1)>, affine_map<(d0, d1, d2) -> (d0, d1)>], iterator_types = ["parallel", "parallel", "reduction"]} ins(%extracted_slice_462, %extracted_slice_463 : tensor<?x32xf32>, tensor<32x32xf32>) outs(%extracted_slice_464 : tensor<?x32xf32>) {
                  ^bb0(%in: f32, %in_466: f32, %out: f32):
                    %132 = arith.mulf %in, %in_466 : f32
                    %133 = arith.addf %out, %132 : f32
                    linalg.yield %133 : f32
                  } -> tensor<?x32xf32>
                  %inserted_slice_465 = tensor.insert_slice %131 into %arg19[%arg14, %arg16] [%130, 32] [1, 1] : tensor<?x32xf32> into tensor<?x128xf32>
                  scf.yield %inserted_slice_465 : tensor<?x128xf32>
                }
                scf.yield %124 : tensor<?x128xf32>
              }
              scf.yield %123 : tensor<?x128xf32>
            }
            %inserted_slice_461 = tensor.insert_slice %122 into %arg13[%arg8, %arg10] [%121, 128] [1, 1] : tensor<?x128xf32> into tensor<1x768xf32>
            scf.yield %inserted_slice_461 : tensor<1x768xf32>
          }
          scf.yield %119 : tensor<1x768xf32>
        }
        scf.yield %118 : tensor<1x768xf32>
      }
      %116 = tensor.empty() : tensor<1x768xf32>
      %c0_442 = arith.constant 0 : index
      %c1_443 = arith.constant 1 : index
      %c32_444 = arith.constant 32 : index
      %c0_445 = arith.constant 0 : index
      %c768_446 = arith.constant 768 : index
      %c32_447 = arith.constant 32 : index
      %117 = scf.for %arg8 = %c0_442 to %c1_443 step %c32_444 iter_args(%arg9 = %116) -> (tensor<1x768xf32>) {
        %118 = scf.for %arg10 = %c0_445 to %c768_446 step %c32_447 iter_args(%arg11 = %arg9) -> (tensor<1x768xf32>) {
          %119 = affine.min affine_map<(d0) -> (-d0 + 1, 32)>(%arg8)
          %120 = affine.min affine_map<(d0) -> (-d0 + 1, 32)>(%arg8)
          %121 = affine.min affine_map<(d0) -> (-d0 + 1, 32)>(%arg8)
          %extracted_slice_448 = tensor.extract_slice %91[%arg8, %arg10] [%119, 32] [1, 1] : tensor<1x768xf32> to tensor<?x32xf32>
          %extracted_slice_449 = tensor.extract_slice %115[%arg8, %arg10] [%120, 32] [1, 1] : tensor<1x768xf32> to tensor<?x32xf32>
          %extracted_slice_450 = tensor.extract_slice %arg11[%arg8, %arg10] [%121, 32] [1, 1] : tensor<1x768xf32> to tensor<?x32xf32>
          %122 = linalg.generic {indexing_maps = [affine_map<(d0, d1) -> (d0, d1)>, affine_map<(d0, d1) -> (d0, d1)>, affine_map<(d0, d1) -> (d0, d1)>], iterator_types = ["parallel", "parallel"]} ins(%extracted_slice_448, %extracted_slice_449 : tensor<?x32xf32>, tensor<?x32xf32>) outs(%extracted_slice_450 : tensor<?x32xf32>) {
          ^bb0(%in: f32, %in_452: f32, %out: f32):
            %123 = arith.addf %in, %in_452 : f32
            linalg.yield %123 : f32
          } -> tensor<?x32xf32>
          %inserted_slice_451 = tensor.insert_slice %122 into %arg11[%arg8, %arg10] [%121, 32] [1, 1] : tensor<?x32xf32> into tensor<1x768xf32>
          scf.yield %inserted_slice_451 : tensor<1x768xf32>
        }
        scf.yield %118 : tensor<1x768xf32>
      }
      scf.yield %117, %inserted_slice_336, %inserted_slice_338 : tensor<1x768xf32>, tensor<12x1024x768xf32>, tensor<12x1024x768xf32>
    }
    %29 = tensor.empty() : tensor<1xf32>
    %c0_182 = arith.constant 0 : index
    %c1_183 = arith.constant 1 : index
    %c32_184 = arith.constant 32 : index
    %30 = scf.for %arg4 = %c0_182 to %c1_183 step %c32_184 iter_args(%arg5 = %29) -> (tensor<1xf32>) {
      %44 = affine.min affine_map<(d0) -> (-d0 + 1, 32)>(%arg4)
      %extracted_slice_225 = tensor.extract_slice %arg5[%arg4] [%44] [1] : tensor<1xf32> to tensor<?xf32>
      %45 = linalg.generic {indexing_maps = [affine_map<(d0) -> ()>, affine_map<(d0) -> (d0)>], iterator_types = ["parallel"]} ins(%cst_154 : f32) outs(%extracted_slice_225 : tensor<?xf32>) {
      ^bb0(%in: f32, %out: f32):
        linalg.yield %in : f32
      } -> tensor<?xf32>
      %inserted_slice = tensor.insert_slice %45 into %arg5[%arg4] [%44] [1] : tensor<?xf32> into tensor<1xf32>
      scf.yield %inserted_slice : tensor<1xf32>
    }
    %c0_185 = arith.constant 0 : index
    %c1_186 = arith.constant 1 : index
    %c128_187 = arith.constant 128 : index
    %c0_188 = arith.constant 0 : index
    %c768 = arith.constant 768 : index
    %c128_189 = arith.constant 128 : index
    %31 = scf.for %arg4 = %c0_185 to %c1_186 step %c128_187 iter_args(%arg5 = %30) -> (tensor<1xf32>) {
      %44 = scf.for %arg6 = %c0_188 to %c768 step %c128_189 iter_args(%arg7 = %arg5) -> (tensor<1xf32>) {
        %45 = affine.min affine_map<(d0) -> (-d0 + 1, 128)>(%arg4)
        %46 = affine.min affine_map<(d0) -> (-d0 + 1, 128)>(%arg4)
        %extracted_slice_225 = tensor.extract_slice %28#0[%arg4, %arg6] [%45, 128] [1, 1] : tensor<1x768xf32> to tensor<?x128xf32>
        %extracted_slice_226 = tensor.extract_slice %arg7[%arg4] [%46] [1] : tensor<1xf32> to tensor<?xf32>
        %c0_227 = arith.constant 0 : index
        %c0_228 = arith.constant 0 : index
        %c0_229 = arith.constant 0 : index
        %c32_230 = arith.constant 32 : index
        %c0_231 = arith.constant 0 : index
        %c128_232 = arith.constant 128 : index
        %c32_233 = arith.constant 32 : index
        %47 = scf.for %arg8 = %c0_229 to %45 step %c32_230 iter_args(%arg9 = %extracted_slice_226) -> (tensor<?xf32>) {
          %48 = scf.for %arg10 = %c0_231 to %c128_232 step %c32_233 iter_args(%arg11 = %arg9) -> (tensor<?xf32>) {
            %49 = affine.apply affine_map<(d0) -> (d0 - 1)>(%45)
            %50 = affine.apply affine_map<(d0) -> (d0 - 1)>(%45)
            %51 = affine.min affine_map<(d0, d1) -> (d0 - d1, 32)>(%45, %arg8)
            %52 = affine.apply affine_map<(d0) -> (d0 - 1)>(%45)
            %53 = affine.apply affine_map<(d0) -> (d0 - 1)>(%45)
            %54 = affine.min affine_map<(d0, d1) -> (d0 - d1, 32)>(%45, %arg8)
            %extracted_slice_234 = tensor.extract_slice %extracted_slice_225[%arg8, %arg10] [%51, 32] [1, 1] : tensor<?x128xf32> to tensor<?x32xf32>
            %extracted_slice_235 = tensor.extract_slice %arg11[%arg8] [%54] [1] : tensor<?xf32> to tensor<?xf32>
            %55 = linalg.generic {indexing_maps = [affine_map<(d0, d1) -> (d0, d1)>, affine_map<(d0, d1) -> (d0)>], iterator_types = ["parallel", "reduction"]} ins(%extracted_slice_234 : tensor<?x32xf32>) outs(%extracted_slice_235 : tensor<?xf32>) {
            ^bb0(%in: f32, %out: f32):
              %56 = arith.mulf %in, %in : f32
              %57 = arith.addf %out, %56 : f32
              linalg.yield %57 : f32
            } -> tensor<?xf32>
            %inserted_slice_236 = tensor.insert_slice %55 into %arg11[%arg8] [%54] [1] : tensor<?xf32> into tensor<?xf32>
            scf.yield %inserted_slice_236 : tensor<?xf32>
          }
          scf.yield %48 : tensor<?xf32>
        }
        %inserted_slice = tensor.insert_slice %47 into %arg7[%arg4] [%46] [1] : tensor<?xf32> into tensor<1xf32>
        scf.yield %inserted_slice : tensor<1xf32>
      }
      scf.yield %44 : tensor<1xf32>
    }
    %32 = tensor.empty() : tensor<1xf32>
    %c0_190 = arith.constant 0 : index
    %c1_191 = arith.constant 1 : index
    %c32_192 = arith.constant 32 : index
    %33 = scf.for %arg4 = %c0_190 to %c1_191 step %c32_192 iter_args(%arg5 = %32) -> (tensor<1xf32>) {
      %44 = affine.min affine_map<(d0) -> (-d0 + 1, 32)>(%arg4)
      %45 = affine.min affine_map<(d0) -> (-d0 + 1, 32)>(%arg4)
      %extracted_slice_225 = tensor.extract_slice %31[%arg4] [%44] [1] : tensor<1xf32> to tensor<?xf32>
      %extracted_slice_226 = tensor.extract_slice %arg5[%arg4] [%45] [1] : tensor<1xf32> to tensor<?xf32>
      %46 = linalg.generic {indexing_maps = [affine_map<(d0) -> (d0)>, affine_map<(d0) -> (d0)>], iterator_types = ["parallel"]} ins(%extracted_slice_225 : tensor<?xf32>) outs(%extracted_slice_226 : tensor<?xf32>) {
      ^bb0(%in: f32, %out: f32):
        %47 = arith.divf %in, %cst_145 : f32
        %48 = arith.addf %47, %cst_153 : f32
        %49 = math.rsqrt %48 : f32
        linalg.yield %49 : f32
      } -> tensor<?xf32>
      %inserted_slice = tensor.insert_slice %46 into %arg5[%arg4] [%45] [1] : tensor<?xf32> into tensor<1xf32>
      scf.yield %inserted_slice : tensor<1xf32>
    }
    %34 = tensor.empty() : tensor<1x768xf32>
    %c0_193 = arith.constant 0 : index
    %c1_194 = arith.constant 1 : index
    %c32_195 = arith.constant 32 : index
    %c0_196 = arith.constant 0 : index
    %c768_197 = arith.constant 768 : index
    %c32_198 = arith.constant 32 : index
    %35 = scf.for %arg4 = %c0_193 to %c1_194 step %c32_195 iter_args(%arg5 = %34) -> (tensor<1x768xf32>) {
      %44 = scf.for %arg6 = %c0_196 to %c768_197 step %c32_198 iter_args(%arg7 = %arg5) -> (tensor<1x768xf32>) {
        %45 = affine.min affine_map<(d0) -> (-d0 + 1, 32)>(%arg4)
        %46 = affine.min affine_map<(d0) -> (-d0 + 1, 32)>(%arg4)
        %47 = affine.min affine_map<(d0) -> (-d0 + 1, 32)>(%arg4)
        %extracted_slice_225 = tensor.extract_slice %28#0[%arg4, %arg6] [%45, 32] [1, 1] : tensor<1x768xf32> to tensor<?x32xf32>
        %extracted_slice_226 = tensor.extract_slice %33[%arg4] [%46] [1] : tensor<1xf32> to tensor<?xf32>
        %extracted_slice_227 = tensor.extract_slice %21[%arg6] [32] [1] : tensor<768xf32> to tensor<32xf32>
        %extracted_slice_228 = tensor.extract_slice %arg7[%arg4, %arg6] [%47, 32] [1, 1] : tensor<1x768xf32> to tensor<?x32xf32>
        %48 = linalg.generic {indexing_maps = [affine_map<(d0, d1) -> (d0, d1)>, affine_map<(d0, d1) -> (d0)>, affine_map<(d0, d1) -> (d1)>, affine_map<(d0, d1) -> (d0, d1)>], iterator_types = ["parallel", "parallel"]} ins(%extracted_slice_225, %extracted_slice_226, %extracted_slice_227 : tensor<?x32xf32>, tensor<?xf32>, tensor<32xf32>) outs(%extracted_slice_228 : tensor<?x32xf32>) {
        ^bb0(%in: f32, %in_229: f32, %in_230: f32, %out: f32):
          %49 = arith.mulf %in, %in_229 : f32
          %50 = arith.mulf %49, %in_230 : f32
          linalg.yield %50 : f32
        } -> tensor<?x32xf32>
        %inserted_slice = tensor.insert_slice %48 into %arg7[%arg4, %arg6] [%47, 32] [1, 1] : tensor<?x32xf32> into tensor<1x768xf32>
        scf.yield %inserted_slice : tensor<1x768xf32>
      }
      scf.yield %44 : tensor<1x768xf32>
    }
    %36 = tensor.empty() : tensor<1x32000xf32>
    %c0_199 = arith.constant 0 : index
    %c1_200 = arith.constant 1 : index
    %c32_201 = arith.constant 32 : index
    %c0_202 = arith.constant 0 : index
    %c32000 = arith.constant 32000 : index
    %c32_203 = arith.constant 32 : index
    %37 = scf.for %arg4 = %c0_199 to %c1_200 step %c32_201 iter_args(%arg5 = %36) -> (tensor<1x32000xf32>) {
      %44 = scf.for %arg6 = %c0_202 to %c32000 step %c32_203 iter_args(%arg7 = %arg5) -> (tensor<1x32000xf32>) {
        %45 = affine.min affine_map<(d0) -> (-d0 + 1, 32)>(%arg4)
        %extracted_slice_225 = tensor.extract_slice %arg7[%arg4, %arg6] [%45, 32] [1, 1] : tensor<1x32000xf32> to tensor<?x32xf32>
        %46 = linalg.generic {indexing_maps = [affine_map<(d0, d1) -> ()>, affine_map<(d0, d1) -> (d0, d1)>], iterator_types = ["parallel", "parallel"]} ins(%cst_154 : f32) outs(%extracted_slice_225 : tensor<?x32xf32>) {
        ^bb0(%in: f32, %out: f32):
          linalg.yield %in : f32
        } -> tensor<?x32xf32>
        %inserted_slice = tensor.insert_slice %46 into %arg7[%arg4, %arg6] [%45, 32] [1, 1] : tensor<?x32xf32> into tensor<1x32000xf32>
        scf.yield %inserted_slice : tensor<1x32000xf32>
      }
      scf.yield %44 : tensor<1x32000xf32>
    }
    %c0_204 = arith.constant 0 : index
    %c1_205 = arith.constant 1 : index
    %c128_206 = arith.constant 128 : index
    %c0_207 = arith.constant 0 : index
    %c32000_208 = arith.constant 32000 : index
    %c128_209 = arith.constant 128 : index
    %c0_210 = arith.constant 0 : index
    %c768_211 = arith.constant 768 : index
    %c128_212 = arith.constant 128 : index
    %38 = scf.for %arg4 = %c0_204 to %c1_205 step %c128_206 iter_args(%arg5 = %37) -> (tensor<1x32000xf32>) {
      %44 = scf.for %arg6 = %c0_207 to %c32000_208 step %c128_209 iter_args(%arg7 = %arg5) -> (tensor<1x32000xf32>) {
        %45 = scf.for %arg8 = %c0_210 to %c768_211 step %c128_212 iter_args(%arg9 = %arg7) -> (tensor<1x32000xf32>) {
          %46 = affine.min affine_map<(d0) -> (-d0 + 1, 128)>(%arg4)
          %47 = affine.min affine_map<(d0) -> (-d0 + 1, 128)>(%arg4)
          %extracted_slice_225 = tensor.extract_slice %35[%arg4, %arg8] [%46, 128] [1, 1] : tensor<1x768xf32> to tensor<?x128xf32>
          %extracted_slice_226 = tensor.extract_slice %23[%arg8, %arg6] [128, 128] [1, 1] : tensor<768x32000xf32> to tensor<128x128xf32>
          %extracted_slice_227 = tensor.extract_slice %arg9[%arg4, %arg6] [%47, 128] [1, 1] : tensor<1x32000xf32> to tensor<?x128xf32>
          %c0_228 = arith.constant 0 : index
          %c0_229 = arith.constant 0 : index
          %c0_230 = arith.constant 0 : index
          %c32_231 = arith.constant 32 : index
          %c0_232 = arith.constant 0 : index
          %c128_233 = arith.constant 128 : index
          %c32_234 = arith.constant 32 : index
          %c0_235 = arith.constant 0 : index
          %c128_236 = arith.constant 128 : index
          %c32_237 = arith.constant 32 : index
          %48 = scf.for %arg10 = %c0_230 to %46 step %c32_231 iter_args(%arg11 = %extracted_slice_227) -> (tensor<?x128xf32>) {
            %49 = scf.for %arg12 = %c0_232 to %c128_233 step %c32_234 iter_args(%arg13 = %arg11) -> (tensor<?x128xf32>) {
              %50 = scf.for %arg14 = %c0_235 to %c128_236 step %c32_237 iter_args(%arg15 = %arg13) -> (tensor<?x128xf32>) {
                %51 = affine.apply affine_map<(d0) -> (d0 - 1)>(%46)
                %52 = affine.apply affine_map<(d0) -> (d0 - 1)>(%46)
                %53 = affine.min affine_map<(d0, d1) -> (d0 - d1, 32)>(%46, %arg10)
                %54 = affine.apply affine_map<(d0) -> (d0 - 1)>(%46)
                %55 = affine.apply affine_map<(d0) -> (d0 - 1)>(%46)
                %56 = affine.min affine_map<(d0, d1) -> (d0 - d1, 32)>(%46, %arg10)
                %extracted_slice_238 = tensor.extract_slice %extracted_slice_225[%arg10, %arg14] [%53, 32] [1, 1] : tensor<?x128xf32> to tensor<?x32xf32>
                %extracted_slice_239 = tensor.extract_slice %extracted_slice_226[%arg14, %arg12] [32, 32] [1, 1] : tensor<128x128xf32> to tensor<32x32xf32>
                %extracted_slice_240 = tensor.extract_slice %arg15[%arg10, %arg12] [%56, 32] [1, 1] : tensor<?x128xf32> to tensor<?x32xf32>
                %57 = linalg.generic {indexing_maps = [affine_map<(d0, d1, d2) -> (d0, d2)>, affine_map<(d0, d1, d2) -> (d2, d1)>, affine_map<(d0, d1, d2) -> (d0, d1)>], iterator_types = ["parallel", "parallel", "reduction"]} ins(%extracted_slice_238, %extracted_slice_239 : tensor<?x32xf32>, tensor<32x32xf32>) outs(%extracted_slice_240 : tensor<?x32xf32>) {
                ^bb0(%in: f32, %in_242: f32, %out: f32):
                  %58 = arith.mulf %in, %in_242 : f32
                  %59 = arith.addf %out, %58 : f32
                  linalg.yield %59 : f32
                } -> tensor<?x32xf32>
                %inserted_slice_241 = tensor.insert_slice %57 into %arg15[%arg10, %arg12] [%56, 32] [1, 1] : tensor<?x32xf32> into tensor<?x128xf32>
                scf.yield %inserted_slice_241 : tensor<?x128xf32>
              }
              scf.yield %50 : tensor<?x128xf32>
            }
            scf.yield %49 : tensor<?x128xf32>
          }
          %inserted_slice = tensor.insert_slice %48 into %arg9[%arg4, %arg6] [%47, 128] [1, 1] : tensor<?x128xf32> into tensor<1x32000xf32>
          scf.yield %inserted_slice : tensor<1x32000xf32>
        }
        scf.yield %45 : tensor<1x32000xf32>
      }
      scf.yield %44 : tensor<1x32000xf32>
    }
    %39 = tensor.empty() : tensor<1xf32>
    %c0_213 = arith.constant 0 : index
    %c1_214 = arith.constant 1 : index
    %c32_215 = arith.constant 32 : index
    %40 = scf.for %arg4 = %c0_213 to %c1_214 step %c32_215 iter_args(%arg5 = %39) -> (tensor<1xf32>) {
      %44 = affine.min affine_map<(d0) -> (-d0 + 1, 32)>(%arg4)
      %extracted_slice_225 = tensor.extract_slice %arg5[%arg4] [%44] [1] : tensor<1xf32> to tensor<?xf32>
      %45 = linalg.generic {indexing_maps = [affine_map<(d0) -> ()>, affine_map<(d0) -> (d0)>], iterator_types = ["parallel"]} ins(%cst_147 : f32) outs(%extracted_slice_225 : tensor<?xf32>) {
      ^bb0(%in: f32, %out: f32):
        linalg.yield %in : f32
      } -> tensor<?xf32>
      %inserted_slice = tensor.insert_slice %45 into %arg5[%arg4] [%44] [1] : tensor<?xf32> into tensor<1xf32>
      scf.yield %inserted_slice : tensor<1xf32>
    }
    %41 = tensor.empty() : tensor<1xi64>
    %c0_216 = arith.constant 0 : index
    %c1_217 = arith.constant 1 : index
    %c32_218 = arith.constant 32 : index
    %42 = scf.for %arg4 = %c0_216 to %c1_217 step %c32_218 iter_args(%arg5 = %41) -> (tensor<1xi64>) {
      %44 = affine.min affine_map<(d0) -> (-d0 + 1, 32)>(%arg4)
      %extracted_slice_225 = tensor.extract_slice %arg5[%arg4] [%44] [1] : tensor<1xi64> to tensor<?xi64>
      %45 = linalg.generic {indexing_maps = [affine_map<(d0) -> ()>, affine_map<(d0) -> (d0)>], iterator_types = ["parallel"]} ins(%c0_i64 : i64) outs(%extracted_slice_225 : tensor<?xi64>) {
      ^bb0(%in: i64, %out: i64):
        linalg.yield %in : i64
      } -> tensor<?xi64>
      %inserted_slice = tensor.insert_slice %45 into %arg5[%arg4] [%44] [1] : tensor<?xi64> into tensor<1xi64>
      scf.yield %inserted_slice : tensor<1xi64>
    }
    %c0_219 = arith.constant 0 : index
    %c1_220 = arith.constant 1 : index
    %c128_221 = arith.constant 128 : index
    %c0_222 = arith.constant 0 : index
    %c32000_223 = arith.constant 32000 : index
    %c128_224 = arith.constant 128 : index
    %43:2 = scf.for %arg4 = %c0_219 to %c1_220 step %c128_221 iter_args(%arg5 = %40, %arg6 = %42) -> (tensor<1xf32>, tensor<1xi64>) {
      %44:2 = scf.for %arg7 = %c0_222 to %c32000_223 step %c128_224 iter_args(%arg8 = %arg5, %arg9 = %arg6) -> (tensor<1xf32>, tensor<1xi64>) {
        %45 = affine.min affine_map<(d0) -> (-d0 + 1, 128)>(%arg4)
        %46 = affine.min affine_map<(d0) -> (-d0 + 1, 128)>(%arg4)
        %47 = affine.min affine_map<(d0) -> (-d0 + 1, 128)>(%arg4)
        %extracted_slice_225 = tensor.extract_slice %38[%arg4, %arg7] [%45, 128] [1, 1] : tensor<1x32000xf32> to tensor<?x128xf32>
        %extracted_slice_226 = tensor.extract_slice %arg8[%arg4] [%46] [1] : tensor<1xf32> to tensor<?xf32>
        %extracted_slice_227 = tensor.extract_slice %arg9[%arg4] [%47] [1] : tensor<1xi64> to tensor<?xi64>
        %c0_228 = arith.constant 0 : index
        %c0_229 = arith.constant 0 : index
        %c0_230 = arith.constant 0 : index
        %c0_231 = arith.constant 0 : index
        %c32_232 = arith.constant 32 : index
        %c0_233 = arith.constant 0 : index
        %c128_234 = arith.constant 128 : index
        %c32_235 = arith.constant 32 : index
        %48:2 = scf.for %arg10 = %c0_231 to %45 step %c32_232 iter_args(%arg11 = %extracted_slice_226, %arg12 = %extracted_slice_227) -> (tensor<?xf32>, tensor<?xi64>) {
          %49:2 = scf.for %arg13 = %c0_233 to %c128_234 step %c32_235 iter_args(%arg14 = %arg11, %arg15 = %arg12) -> (tensor<?xf32>, tensor<?xi64>) {
            %50 = affine.apply affine_map<(d0) -> (d0 - 1)>(%45)
            %51 = affine.apply affine_map<(d0) -> (d0 - 1)>(%45)
            %52 = affine.min affine_map<(d0, d1) -> (d0 - d1, 32)>(%45, %arg10)
            %53 = affine.apply affine_map<(d0) -> (d0 - 1)>(%45)
            %54 = affine.apply affine_map<(d0) -> (d0 - 1)>(%45)
            %55 = affine.min affine_map<(d0, d1) -> (d0 - d1, 32)>(%45, %arg10)
            %56 = affine.apply affine_map<(d0) -> (d0 - 1)>(%45)
            %57 = affine.apply affine_map<(d0) -> (d0 - 1)>(%45)
            %58 = affine.min affine_map<(d0, d1) -> (d0 - d1, 32)>(%45, %arg10)
            %extracted_slice_237 = tensor.extract_slice %extracted_slice_225[%arg10, %arg13] [%52, 32] [1, 1] : tensor<?x128xf32> to tensor<?x32xf32>
            %extracted_slice_238 = tensor.extract_slice %arg14[%arg10] [%55] [1] : tensor<?xf32> to tensor<?xf32>
            %extracted_slice_239 = tensor.extract_slice %arg15[%arg10] [%58] [1] : tensor<?xi64> to tensor<?xi64>
            %59:2 = linalg.generic {indexing_maps = [affine_map<(d0, d1) -> (d0, d1)>, affine_map<(d0, d1) -> (d0)>, affine_map<(d0, d1) -> (d0)>], iterator_types = ["parallel", "reduction"]} ins(%extracted_slice_237 : tensor<?x32xf32>) outs(%extracted_slice_238, %extracted_slice_239 : tensor<?xf32>, tensor<?xi64>) {
            ^bb0(%in: f32, %out: f32, %out_242: i64):
              %60 = linalg.index 1 : index
              %61 = affine.apply affine_map<(d0, d1) -> (d0 + d1)>(%60, %arg13)
              %62 = affine.apply affine_map<(d0, d1) -> (d0 + d1)>(%61, %arg7)
              %63 = arith.index_cast %62 : index to i64
              %64 = arith.cmpf ogt, %in, %out : f32
              %65 = arith.select %64, %in, %out : f32
              %66 = arith.select %64, %63, %out_242 : i64
              linalg.yield %65, %66 : f32, i64
            } -> (tensor<?xf32>, tensor<?xi64>)
            %inserted_slice_240 = tensor.insert_slice %59#0 into %arg14[%arg10] [%55] [1] : tensor<?xf32> into tensor<?xf32>
            %inserted_slice_241 = tensor.insert_slice %59#1 into %arg15[%arg10] [%58] [1] : tensor<?xi64> into tensor<?xi64>
            scf.yield %inserted_slice_240, %inserted_slice_241 : tensor<?xf32>, tensor<?xi64>
          }
          scf.yield %49#0, %49#1 : tensor<?xf32>, tensor<?xi64>
        }
        %inserted_slice = tensor.insert_slice %48#0 into %arg8[%arg4] [%46] [1] : tensor<?xf32> into tensor<1xf32>
        %inserted_slice_236 = tensor.insert_slice %48#1 into %arg9[%arg4] [%47] [1] : tensor<?xi64> into tensor<1xi64>
        scf.yield %inserted_slice, %inserted_slice_236 : tensor<1xf32>, tensor<1xi64>
      }
      scf.yield %44#0, %44#1 : tensor<1xf32>, tensor<1xi64>
    }
    %extracted = tensor.extract %43#1[%c0] : tensor<1xi64>
    func.call @decode(%arg0, %extracted) : (i64, i64) -> ()
    scf.yield %extracted, %25, %28#1, %28#2 : i64, i64, tensor<12x1024x768xf32>, tensor<12x1024x768xf32>
  }
  call @end(%c128_i64) : (i64) -> ()
  call @free_tokenizer() : () -> ()
  return
}
// -----// IR Dump After CherryLinalgTilingPass (cherry-linalg-tiling) //----- //
func.func private @free_tokenizer()

// -----// IR Dump After CherryLinalgTilingPass (cherry-linalg-tiling) //----- //
func.func private @cherry_read_weight_3d_12_2048_768_f32(tensor<?xi8> {bufferization.access = "read"}, i64, i64, i64) -> memref<12x2048x768xf32>

// -----// IR Dump After CherryLinalgTilingPass (cherry-linalg-tiling) //----- //
func.func private @decode(i64, i64)

// -----// IR Dump After CherryLinalgTilingPass (cherry-linalg-tiling) //----- //
func.func private @end(i64)

// -----// IR Dump After CherryLinalgTilingPass (cherry-linalg-tiling) //----- //
func.func private @start()

// -----// IR Dump After CherryLinalgTilingPass (cherry-linalg-tiling) //----- //
func.func private @build_tokenizer(i64, tensor<?xi8>)

// -----// IR Dump After CherryLinalgTilingPass (cherry-linalg-tiling) //----- //
func.func private @cherry_read_weight_3d_12_768_2048_f32(tensor<?xi8> {bufferization.access = "read"}, i64, i64, i64) -> memref<12x768x2048xf32>

// -----// IR Dump After CherryLinalgTilingPass (cherry-linalg-tiling) //----- //
func.func private @cherry_read_weight_2d_768_32000_f32(tensor<?xi8> {bufferization.access = "read"}, i64, i64) -> memref<768x32000xf32>

// -----// IR Dump After CherryLinalgTilingPass (cherry-linalg-tiling) //----- //
func.func private @cherry_read_weight_2d_12_768_f32(tensor<?xi8> {bufferization.access = "read"}, i64, i64) -> memref<12x768xf32>

// -----// IR Dump After LinalgGeneralizeNamedOpsPass (linalg-generalize-named-ops) //----- //
func.func private @cherry_read_weight_1d_768_f32(tensor<?xi8> {bufferization.access = "read"}, i64) -> memref<768xf32>

// -----// IR Dump After CherryLinalgTilingPass (cherry-linalg-tiling) //----- //
func.func private @cherry_read_weight_2d_32000_768_f32(tensor<?xi8> {bufferization.access = "read"}, i64, i64) -> memref<32000x768xf32>

// -----// IR Dump After CherryLinalgTilingPass (cherry-linalg-tiling) //----- //
func.func private @cherry_read_weight_3d_12_768_768_f32(tensor<?xi8> {bufferization.access = "read"}, i64, i64, i64) -> memref<12x768x768xf32>

// -----// IR Dump After CherryLinalgTilingPass (cherry-linalg-tiling) //----- //
func.func private @cherry_read_weight_1d_768_f32(tensor<?xi8> {bufferization.access = "read"}, i64) -> memref<768xf32>
}