// Original IR loaded from file
module {
  cherry.func private @llama_forward(%arg0: i64, %arg1: i64, %arg2: !cherry.cherry_tensor<[12x1024x768xf32]>, %arg3: !cherry.cherry_tensor<[12x1024x768xf32]>, %arg4: !cherry.cherry_tensor<[1x1024xf32]>, %arg5: !cherry.cherry_tensor<[32000x768xf32]>, %arg6: !cherry.cherry_tensor<[12x768xf32]>, %arg7: !cherry.cherry_tensor<[12x768x768xf32]>, %arg8: !cherry.cherry_tensor<[12x768x768xf32]>, %arg9: !cherry.cherry_tensor<[12x768x768xf32]>, %arg10: !cherry.cherry_tensor<[12x768x768xf32]>, %arg11: !cherry.cherry_tensor<[12x768xf32]>, %arg12: !cherry.cherry_tensor<[12x768x2048xf32]>, %arg13: !cherry.cherry_tensor<[12x2048x768xf32]>, %arg14: !cherry.cherry_tensor<[12x768x2048xf32]>, %arg15: !cherry.cherry_tensor<[768xf32]>, %arg16: !cherry.cherry_tensor<[32000x768xf32]>) -> (!cherry.cherry_tensor<[1x32000xf32]>, !cherry.cherry_tensor<[12x1024x768xf32]>, !cherry.cherry_tensor<[12x1024x768xf32]>) {
    %0 = cherry.constant(0 : i64) : i64
    %1 = cherry.tensor_slice %arg5[%arg0, %0] sizes [1, 768] : (!cherry.cherry_tensor<[32000x768xf32]>, i64, i64) -> !cherry.cherry_tensor<[1x768xf32]>
    %c0 = arith.constant 0 : index
    %c1 = arith.constant 1 : index
    %2 = cherry.constant(1 : i64) : i64
    %c12 = arith.constant 12 : index
    %3 = cherry.constant(768 : i64) : i64
    %4 = cherry.constant(2048 : i64) : i64
    %c12_0 = arith.constant 12 : index
    %5 = cherry.constant(12 : i64) : i64
    %6 = cherry.constant(64 : i64) : i64
    %7 = cherry.constant(1.250000e-01 : f32) : f32
    %8 = cherry.constant(1024 : i64) : i64
    %9 = cherry.constant(32000 : i64) : i64
    %10:3 = scf.for %arg17 = %c0 to %c12 step %c1 iter_args(%arg18 = %1, %arg19 = %arg2, %arg20 = %arg3) -> (!cherry.cherry_tensor<[1x768xf32]>, !cherry.cherry_tensor<[12x1024x768xf32]>, !cherry.cherry_tensor<[12x1024x768xf32]>) {
      %14 = arith.index_cast %arg17 : index to i64
      %15 = cherry.tensor_slice %arg6[%14, %0] sizes [1, 768] : (!cherry.cherry_tensor<[12x768xf32]>, i64, i64) -> !cherry.cherry_tensor<[1x768xf32]>
      %16 = cherry.reshape %15, %3 : (!cherry.cherry_tensor<[1x768xf32]>, i64) -> !cherry.cherry_tensor<[768xf32]>
      %17 = cherry.rmsnorm %arg18 scale %16 eps 9.99999974E-6 : !cherry.cherry_tensor<[1x768xf32]>, !cherry.cherry_tensor<[768xf32]> -> !cherry.cherry_tensor<[1x768xf32]>
      %18 = cherry.tensor_slice %arg7[%14, %0, %0] sizes [1, 768, 768] : (!cherry.cherry_tensor<[12x768x768xf32]>, i64, i64, i64) -> !cherry.cherry_tensor<[1x768x768xf32]>
      %19 = cherry.reshape %18, %3, %3 : (!cherry.cherry_tensor<[1x768x768xf32]>, i64, i64) -> !cherry.cherry_tensor<[768x768xf32]>
      %20 = cherry.tensor_slice %arg8[%14, %0, %0] sizes [1, 768, 768] : (!cherry.cherry_tensor<[12x768x768xf32]>, i64, i64, i64) -> !cherry.cherry_tensor<[1x768x768xf32]>
      %21 = cherry.reshape %20, %3, %3 : (!cherry.cherry_tensor<[1x768x768xf32]>, i64, i64) -> !cherry.cherry_tensor<[768x768xf32]>
      %22 = cherry.tensor_slice %arg9[%14, %0, %0] sizes [1, 768, 768] : (!cherry.cherry_tensor<[12x768x768xf32]>, i64, i64, i64) -> !cherry.cherry_tensor<[1x768x768xf32]>
      %23 = cherry.reshape %22, %3, %3 : (!cherry.cherry_tensor<[1x768x768xf32]>, i64, i64) -> !cherry.cherry_tensor<[768x768xf32]>
      %24 = cherry.matmul %17, %19 : (!cherry.cherry_tensor<[1x768xf32]>, !cherry.cherry_tensor<[768x768xf32]>) -> !cherry.cherry_tensor<[1x768xf32]>
      %25 = cherry.matmul %17, %21 : (!cherry.cherry_tensor<[1x768xf32]>, !cherry.cherry_tensor<[768x768xf32]>) -> !cherry.cherry_tensor<[1x768xf32]>
      %26 = cherry.matmul %17, %23 : (!cherry.cherry_tensor<[1x768xf32]>, !cherry.cherry_tensor<[768x768xf32]>) -> !cherry.cherry_tensor<[1x768xf32]>
      %27 = cherry.reshape %24, %2, %5, %6 : (!cherry.cherry_tensor<[1x768xf32]>, i64, i64, i64) -> !cherry.cherry_tensor<[1x12x64xf32]>
      %28 = cherry.rope %27, %arg1 : (!cherry.cherry_tensor<[1x12x64xf32]>, i64) -> !cherry.cherry_tensor<[1x12x64xf32]>
      %29 = cherry.reshape %28, %2, %3 : (!cherry.cherry_tensor<[1x12x64xf32]>, i64, i64) -> !cherry.cherry_tensor<[1x768xf32]>
      %30 = cherry.reshape %25, %2, %5, %6 : (!cherry.cherry_tensor<[1x768xf32]>, i64, i64, i64) -> !cherry.cherry_tensor<[1x12x64xf32]>
      %31 = cherry.rope %30, %arg1 : (!cherry.cherry_tensor<[1x12x64xf32]>, i64) -> !cherry.cherry_tensor<[1x12x64xf32]>
      %32 = cherry.reshape %31, %2, %3 : (!cherry.cherry_tensor<[1x12x64xf32]>, i64, i64) -> !cherry.cherry_tensor<[1x768xf32]>
      %33 = cherry.reshape %26, %2, %5, %6 : (!cherry.cherry_tensor<[1x768xf32]>, i64, i64, i64) -> !cherry.cherry_tensor<[1x12x64xf32]>
      %34 = cherry.rope %33, %arg1 : (!cherry.cherry_tensor<[1x12x64xf32]>, i64) -> !cherry.cherry_tensor<[1x12x64xf32]>
      %35 = cherry.reshape %34, %2, %3 : (!cherry.cherry_tensor<[1x12x64xf32]>, i64, i64) -> !cherry.cherry_tensor<[1x768xf32]>
      %36 = cherry.reshape %32, %2, %2, %3 : (!cherry.cherry_tensor<[1x768xf32]>, i64, i64, i64) -> !cherry.cherry_tensor<[1x1x768xf32]>
      %37 = cherry.tensor_set_slice %arg19[%14, %arg1], %36 : (!cherry.cherry_tensor<[12x1024x768xf32]>, !cherry.cherry_tensor<[1x1x768xf32]>, i64, i64) -> !cherry.cherry_tensor<[12x1024x768xf32]>
      %38 = cherry.reshape %35, %2, %2, %3 : (!cherry.cherry_tensor<[1x768xf32]>, i64, i64, i64) -> !cherry.cherry_tensor<[1x1x768xf32]>
      %39 = cherry.tensor_set_slice %arg20[%14, %arg1], %38 : (!cherry.cherry_tensor<[12x1024x768xf32]>, !cherry.cherry_tensor<[1x1x768xf32]>, i64, i64) -> !cherry.cherry_tensor<[12x1024x768xf32]>
      %40 = cherry.tensor_slice %37[%14, %0, %0] sizes [1, 1024, 768] : (!cherry.cherry_tensor<[12x1024x768xf32]>, i64, i64, i64) -> !cherry.cherry_tensor<[1x1024x768xf32]>
      %41 = cherry.reshape %40, %8, %3 : (!cherry.cherry_tensor<[1x1024x768xf32]>, i64, i64) -> !cherry.cherry_tensor<[1024x768xf32]>
      %42 = cherry.tensor_slice %39[%14, %0, %0] sizes [1, 1024, 768] : (!cherry.cherry_tensor<[12x1024x768xf32]>, i64, i64, i64) -> !cherry.cherry_tensor<[1x1024x768xf32]>
      %43 = cherry.reshape %42, %8, %3 : (!cherry.cherry_tensor<[1x1024x768xf32]>, i64, i64) -> !cherry.cherry_tensor<[1024x768xf32]>
      %44 = cherry.create_tensor dense<0.000000e+00> : tensor<1x12x64xf32> -> !cherry.cherry_tensor<[1x12x64xf32]>
      %45 = scf.for %arg21 = %c0 to %c12_0 step %c1 iter_args(%arg22 = %44) -> (!cherry.cherry_tensor<[1x12x64xf32]>) {
        %66 = arith.index_cast %arg21 : index to i64
        %67 = arith.muli %66, %6 : i64
        %68 = cherry.tensor_slice %29[%0, %67] sizes [1, 64] : (!cherry.cherry_tensor<[1x768xf32]>, i64, i64) -> !cherry.cherry_tensor<[1x64xf32]>
        %69 = cherry.tensor_slice %41[%0, %67] sizes [1024, 64] : (!cherry.cherry_tensor<[1024x768xf32]>, i64, i64) -> !cherry.cherry_tensor<[1024x64xf32]>
        %70 = cherry.transpose %69 perm [1, 0] : (!cherry.cherry_tensor<[1024x64xf32]>) -> !cherry.cherry_tensor<[64x1024xf32]>
        %71 = cherry.masked_matmul %68, %70, %arg4 : (!cherry.cherry_tensor<[1x64xf32]>, !cherry.cherry_tensor<[64x1024xf32]>, !cherry.cherry_tensor<[1x1024xf32]>) -> !cherry.cherry_tensor<[1x1024xf32]>
        %72 = cherry.tensor_mul_scalar %71, %7 : (!cherry.cherry_tensor<[1x1024xf32]>, f32) -> !cherry.cherry_tensor<[1x1024xf32]>
        %73 = cherry.softmax %72 axis 1 : (!cherry.cherry_tensor<[1x1024xf32]>) -> !cherry.cherry_tensor<[1x1024xf32]>
        %74 = cherry.tensor_slice %43[%0, %67] sizes [1024, 64] : (!cherry.cherry_tensor<[1024x768xf32]>, i64, i64) -> !cherry.cherry_tensor<[1024x64xf32]>
        %75 = cherry.matmul %73, %74 : (!cherry.cherry_tensor<[1x1024xf32]>, !cherry.cherry_tensor<[1024x64xf32]>) -> !cherry.cherry_tensor<[1x64xf32]>
        %76 = cherry.reshape %75, %2, %2, %6 : (!cherry.cherry_tensor<[1x64xf32]>, i64, i64, i64) -> !cherry.cherry_tensor<[1x1x64xf32]>
        %77 = cherry.tensor_set_slice %arg22[%0, %66], %76 : (!cherry.cherry_tensor<[1x12x64xf32]>, !cherry.cherry_tensor<[1x1x64xf32]>, i64, i64) -> !cherry.cherry_tensor<[1x12x64xf32]>
        scf.yield %77 : !cherry.cherry_tensor<[1x12x64xf32]>
      }
      %46 = cherry.reshape %45, %2, %3 : (!cherry.cherry_tensor<[1x12x64xf32]>, i64, i64) -> !cherry.cherry_tensor<[1x768xf32]>
      %47 = cherry.tensor_slice %arg10[%14, %0, %0] sizes [1, 768, 768] : (!cherry.cherry_tensor<[12x768x768xf32]>, i64, i64, i64) -> !cherry.cherry_tensor<[1x768x768xf32]>
      %48 = cherry.reshape %47, %3, %3 : (!cherry.cherry_tensor<[1x768x768xf32]>, i64, i64) -> !cherry.cherry_tensor<[768x768xf32]>
      %49 = cherry.matmul %46, %48 : (!cherry.cherry_tensor<[1x768xf32]>, !cherry.cherry_tensor<[768x768xf32]>) -> !cherry.cherry_tensor<[1x768xf32]>
      %50 = cherry.tensor_add %arg18, %49 : (!cherry.cherry_tensor<[1x768xf32]>, !cherry.cherry_tensor<[1x768xf32]>) -> !cherry.cherry_tensor<[1x768xf32]>
      %51 = cherry.tensor_slice %arg11[%14, %0] sizes [1, 768] : (!cherry.cherry_tensor<[12x768xf32]>, i64, i64) -> !cherry.cherry_tensor<[1x768xf32]>
      %52 = cherry.reshape %51, %3 : (!cherry.cherry_tensor<[1x768xf32]>, i64) -> !cherry.cherry_tensor<[768xf32]>
      %53 = cherry.rmsnorm %50 scale %52 eps 9.99999974E-6 : !cherry.cherry_tensor<[1x768xf32]>, !cherry.cherry_tensor<[768xf32]> -> !cherry.cherry_tensor<[1x768xf32]>
      %54 = cherry.tensor_slice %arg12[%14, %0, %0] sizes [1, 768, 2048] : (!cherry.cherry_tensor<[12x768x2048xf32]>, i64, i64, i64) -> !cherry.cherry_tensor<[1x768x2048xf32]>
      %55 = cherry.reshape %54, %3, %4 : (!cherry.cherry_tensor<[1x768x2048xf32]>, i64, i64) -> !cherry.cherry_tensor<[768x2048xf32]>
      %56 = cherry.tensor_slice %arg14[%14, %0, %0] sizes [1, 768, 2048] : (!cherry.cherry_tensor<[12x768x2048xf32]>, i64, i64, i64) -> !cherry.cherry_tensor<[1x768x2048xf32]>
      %57 = cherry.reshape %56, %3, %4 : (!cherry.cherry_tensor<[1x768x2048xf32]>, i64, i64) -> !cherry.cherry_tensor<[768x2048xf32]>
      %58 = cherry.matmul %53, %55 : (!cherry.cherry_tensor<[1x768xf32]>, !cherry.cherry_tensor<[768x2048xf32]>) -> !cherry.cherry_tensor<[1x2048xf32]>
      %59 = cherry.matmul %53, %57 : (!cherry.cherry_tensor<[1x768xf32]>, !cherry.cherry_tensor<[768x2048xf32]>) -> !cherry.cherry_tensor<[1x2048xf32]>
      %60 = cherry.tensor_silu %58 : (!cherry.cherry_tensor<[1x2048xf32]>) -> !cherry.cherry_tensor<[1x2048xf32]>
      %61 = cherry.tensor_mul %60, %59 : (!cherry.cherry_tensor<[1x2048xf32]>, !cherry.cherry_tensor<[1x2048xf32]>) -> !cherry.cherry_tensor<[1x2048xf32]>
      %62 = cherry.tensor_slice %arg13[%14, %0, %0] sizes [1, 2048, 768] : (!cherry.cherry_tensor<[12x2048x768xf32]>, i64, i64, i64) -> !cherry.cherry_tensor<[1x2048x768xf32]>
      %63 = cherry.reshape %62, %4, %3 : (!cherry.cherry_tensor<[1x2048x768xf32]>, i64, i64) -> !cherry.cherry_tensor<[2048x768xf32]>
      %64 = cherry.matmul %61, %63 : (!cherry.cherry_tensor<[1x2048xf32]>, !cherry.cherry_tensor<[2048x768xf32]>) -> !cherry.cherry_tensor<[1x768xf32]>
      %65 = cherry.tensor_add %50, %64 : (!cherry.cherry_tensor<[1x768xf32]>, !cherry.cherry_tensor<[1x768xf32]>) -> !cherry.cherry_tensor<[1x768xf32]>
      scf.yield %65, %37, %39 : !cherry.cherry_tensor<[1x768xf32]>, !cherry.cherry_tensor<[12x1024x768xf32]>, !cherry.cherry_tensor<[12x1024x768xf32]>
    }
    %11 = cherry.rmsnorm %10#0 scale %arg15 eps 9.99999974E-6 : !cherry.cherry_tensor<[1x768xf32]>, !cherry.cherry_tensor<[768xf32]> -> !cherry.cherry_tensor<[1x768xf32]>
    %12 = cherry.reshape %arg16, %3, %9 : (!cherry.cherry_tensor<[32000x768xf32]>, i64, i64) -> !cherry.cherry_tensor<[768x32000xf32]>
    %13 = cherry.matmul %11, %12 : (!cherry.cherry_tensor<[1x768xf32]>, !cherry.cherry_tensor<[768x32000xf32]>) -> !cherry.cherry_tensor<[1x32000xf32]>
    cherry.return %13, %10#1, %10#2 : !cherry.cherry_tensor<[1x32000xf32]>, !cherry.cherry_tensor<[12x1024x768xf32]>, !cherry.cherry_tensor<[12x1024x768xf32]>
  }
  cherry.func @host() {
    %0 = cherry.create_tensor dense<2.000000e+00> : tensor<32000x768xf32> -> !cherry.cherry_tensor<[32000x768xf32]>
    %1 = cherry.create_tensor dense<3.000000e+00> : tensor<12x768xf32> -> !cherry.cherry_tensor<[12x768xf32]>
    %2 = cherry.create_tensor dense<4.000000e+00> : tensor<12x768x768xf32> -> !cherry.cherry_tensor<[12x768x768xf32]>
    %3 = cherry.create_tensor dense<5.000000e+00> : tensor<12x768x768xf32> -> !cherry.cherry_tensor<[12x768x768xf32]>
    %4 = cherry.create_tensor dense<6.000000e+00> : tensor<12x768x768xf32> -> !cherry.cherry_tensor<[12x768x768xf32]>
    %5 = cherry.create_tensor dense<7.000000e+00> : tensor<12x768x768xf32> -> !cherry.cherry_tensor<[12x768x768xf32]>
    %6 = cherry.create_tensor dense<8.000000e+00> : tensor<12x768xf32> -> !cherry.cherry_tensor<[12x768xf32]>
    %7 = cherry.create_tensor dense<9.000000e+00> : tensor<12x768x2048xf32> -> !cherry.cherry_tensor<[12x768x2048xf32]>
    %8 = cherry.create_tensor dense<1.000000e+01> : tensor<12x2048x768xf32> -> !cherry.cherry_tensor<[12x2048x768xf32]>
    %9 = cherry.create_tensor dense<1.100000e+01> : tensor<12x768x2048xf32> -> !cherry.cherry_tensor<[12x768x2048xf32]>
    %10 = cherry.create_tensor dense<1.200000e+01> : tensor<768xf32> -> !cherry.cherry_tensor<[768xf32]>
    %11 = cherry.create_tensor dense<1.300000e+01> : tensor<32000x768xf32> -> !cherry.cherry_tensor<[32000x768xf32]>
    %12 = cherry.create_tensor dense<0.000000e+00> : tensor<12x1024x768xf32> -> !cherry.cherry_tensor<[12x1024x768xf32]>
    %13 = cherry.create_tensor dense<0.000000e+00> : tensor<12x1024x768xf32> -> !cherry.cherry_tensor<[12x1024x768xf32]>
    %14 = cherry.constant(1 : i64) : i64
    %15 = cherry.constant(0 : i64) : i64
    %16 = cherry.constant(10 : i64) : i64
    %17:4 = scf.while (%arg0 = %14, %arg1 = %15, %arg2 = %12, %arg3 = %13) : (i64, i64, !cherry.cherry_tensor<[12x1024x768xf32]>, !cherry.cherry_tensor<[12x1024x768xf32]>) -> (i64, i64, !cherry.cherry_tensor<[12x1024x768xf32]>, !cherry.cherry_tensor<[12x1024x768xf32]>) {
      %18 = arith.cmpi slt, %arg1, %16 : i64
      scf.condition(%18) %arg0, %arg1, %arg2, %arg3 : i64, i64, !cherry.cherry_tensor<[12x1024x768xf32]>, !cherry.cherry_tensor<[12x1024x768xf32]>
    } do {
    ^bb0(%arg0: i64, %arg1: i64, %arg2: !cherry.cherry_tensor<[12x1024x768xf32]>, %arg3: !cherry.cherry_tensor<[12x1024x768xf32]>):
      %18 = cherry.generate_mask %arg1, [1, 1024] : !cherry.cherry_tensor<[1x1024xf32]>
      %19:3 = cherry.call @llama_forward(%arg0, %arg1, %arg2, %arg3, %18, %0, %1, %2, %3, %4, %5, %6, %7, %8, %9, %10, %11) : (i64, i64, !cherry.cherry_tensor<[12x1024x768xf32]>, !cherry.cherry_tensor<[12x1024x768xf32]>, !cherry.cherry_tensor<[1x1024xf32]>, !cherry.cherry_tensor<[32000x768xf32]>, !cherry.cherry_tensor<[12x768xf32]>, !cherry.cherry_tensor<[12x768x768xf32]>, !cherry.cherry_tensor<[12x768x768xf32]>, !cherry.cherry_tensor<[12x768x768xf32]>, !cherry.cherry_tensor<[12x768x768xf32]>, !cherry.cherry_tensor<[12x768xf32]>, !cherry.cherry_tensor<[12x768x2048xf32]>, !cherry.cherry_tensor<[12x2048x768xf32]>, !cherry.cherry_tensor<[12x768x2048xf32]>, !cherry.cherry_tensor<[768xf32]>, !cherry.cherry_tensor<[32000x768xf32]>) -> (!cherry.cherry_tensor<[1x32000xf32]>, !cherry.cherry_tensor<[12x1024x768xf32]>, !cherry.cherry_tensor<[12x1024x768xf32]>)
      %20 = cherry.argmax %19#0 dim 1 : (!cherry.cherry_tensor<[1x32000xf32]>) -> !cherry.cherry_tensor<[1xi64]>
      cherry.print %19#0 : !cherry.cherry_tensor<[1x32000xf32]>
      %21 = cherry.constant(0 : i64) : i64
      %22 = cherry.tensor_get %20[%21] : (!cherry.cherry_tensor<[1xi64]>, i64) -> i64
      %23 = cherry.constant(1 : i64) : i64
      %24 = arith.addi %arg1, %23 : i64
      scf.yield %22, %24, %19#1, %19#2 : i64, i64, !cherry.cherry_tensor<[12x1024x768xf32]>, !cherry.cherry_tensor<[12x1024x768xf32]>
    }
    cherry.return
  }
}

// ==========================================
// Phase: Inliner
// ==========================================
module {
  cherry.func @host() {
    %c0 = arith.constant 0 : index
    %c1 = arith.constant 1 : index
    %c12 = arith.constant 12 : index
    %0 = cherry.create_tensor dense<2.000000e+00> : tensor<32000x768xf32> -> !cherry.cherry_tensor<[32000x768xf32]>
    %1 = cherry.create_tensor dense<3.000000e+00> : tensor<12x768xf32> -> !cherry.cherry_tensor<[12x768xf32]>
    %2 = cherry.create_tensor dense<4.000000e+00> : tensor<12x768x768xf32> -> !cherry.cherry_tensor<[12x768x768xf32]>
    %3 = cherry.create_tensor dense<5.000000e+00> : tensor<12x768x768xf32> -> !cherry.cherry_tensor<[12x768x768xf32]>
    %4 = cherry.create_tensor dense<6.000000e+00> : tensor<12x768x768xf32> -> !cherry.cherry_tensor<[12x768x768xf32]>
    %5 = cherry.create_tensor dense<7.000000e+00> : tensor<12x768x768xf32> -> !cherry.cherry_tensor<[12x768x768xf32]>
    %6 = cherry.create_tensor dense<8.000000e+00> : tensor<12x768xf32> -> !cherry.cherry_tensor<[12x768xf32]>
    %7 = cherry.create_tensor dense<9.000000e+00> : tensor<12x768x2048xf32> -> !cherry.cherry_tensor<[12x768x2048xf32]>
    %8 = cherry.create_tensor dense<1.000000e+01> : tensor<12x2048x768xf32> -> !cherry.cherry_tensor<[12x2048x768xf32]>
    %9 = cherry.create_tensor dense<1.100000e+01> : tensor<12x768x2048xf32> -> !cherry.cherry_tensor<[12x768x2048xf32]>
    %10 = cherry.create_tensor dense<1.200000e+01> : tensor<768xf32> -> !cherry.cherry_tensor<[768xf32]>
    %11 = cherry.create_tensor dense<1.300000e+01> : tensor<32000x768xf32> -> !cherry.cherry_tensor<[32000x768xf32]>
    %12 = cherry.create_tensor dense<0.000000e+00> : tensor<12x1024x768xf32> -> !cherry.cherry_tensor<[12x1024x768xf32]>
    %13 = cherry.create_tensor dense<0.000000e+00> : tensor<12x1024x768xf32> -> !cherry.cherry_tensor<[12x1024x768xf32]>
    %14 = cherry.constant(1 : i64) : i64
    %15 = cherry.constant(0 : i64) : i64
    %16 = cherry.constant(10 : i64) : i64
    %17:4 = scf.while (%arg0 = %14, %arg1 = %15, %arg2 = %12, %arg3 = %13) : (i64, i64, !cherry.cherry_tensor<[12x1024x768xf32]>, !cherry.cherry_tensor<[12x1024x768xf32]>) -> (i64, i64, !cherry.cherry_tensor<[12x1024x768xf32]>, !cherry.cherry_tensor<[12x1024x768xf32]>) {
      %18 = arith.cmpi slt, %arg1, %16 : i64
      scf.condition(%18) %arg0, %arg1, %arg2, %arg3 : i64, i64, !cherry.cherry_tensor<[12x1024x768xf32]>, !cherry.cherry_tensor<[12x1024x768xf32]>
    } do {
    ^bb0(%arg0: i64, %arg1: i64, %arg2: !cherry.cherry_tensor<[12x1024x768xf32]>, %arg3: !cherry.cherry_tensor<[12x1024x768xf32]>):
      %18 = cherry.generate_mask %arg1, [1, 1024] : !cherry.cherry_tensor<[1x1024xf32]>
      %19 = cherry.constant(0 : i64) : i64
      %20 = cherry.tensor_slice %0[%arg0, %19] sizes [1, 768] : (!cherry.cherry_tensor<[32000x768xf32]>, i64, i64) -> !cherry.cherry_tensor<[1x768xf32]>
      %21 = cherry.constant(1 : i64) : i64
      %22 = cherry.constant(768 : i64) : i64
      %23 = cherry.constant(2048 : i64) : i64
      %24 = cherry.constant(12 : i64) : i64
      %25 = cherry.constant(64 : i64) : i64
      %26 = cherry.constant(1.250000e-01 : f32) : f32
      %27 = cherry.constant(1024 : i64) : i64
      %28 = cherry.constant(32000 : i64) : i64
      %29:3 = scf.for %arg4 = %c0 to %c12 step %c1 iter_args(%arg5 = %20, %arg6 = %arg2, %arg7 = %arg3) -> (!cherry.cherry_tensor<[1x768xf32]>, !cherry.cherry_tensor<[12x1024x768xf32]>, !cherry.cherry_tensor<[12x1024x768xf32]>) {
        %38 = arith.index_cast %arg4 : index to i64
        %39 = cherry.tensor_slice %1[%38, %19] sizes [1, 768] : (!cherry.cherry_tensor<[12x768xf32]>, i64, i64) -> !cherry.cherry_tensor<[1x768xf32]>
        %40 = cherry.reshape %39, %22 : (!cherry.cherry_tensor<[1x768xf32]>, i64) -> !cherry.cherry_tensor<[768xf32]>
        %41 = cherry.rmsnorm %arg5 scale %40 eps 9.99999974E-6 : !cherry.cherry_tensor<[1x768xf32]>, !cherry.cherry_tensor<[768xf32]> -> !cherry.cherry_tensor<[1x768xf32]>
        %42 = cherry.tensor_slice %2[%38, %19, %19] sizes [1, 768, 768] : (!cherry.cherry_tensor<[12x768x768xf32]>, i64, i64, i64) -> !cherry.cherry_tensor<[1x768x768xf32]>
        %43 = cherry.reshape %42, %22, %22 : (!cherry.cherry_tensor<[1x768x768xf32]>, i64, i64) -> !cherry.cherry_tensor<[768x768xf32]>
        %44 = cherry.tensor_slice %3[%38, %19, %19] sizes [1, 768, 768] : (!cherry.cherry_tensor<[12x768x768xf32]>, i64, i64, i64) -> !cherry.cherry_tensor<[1x768x768xf32]>
        %45 = cherry.reshape %44, %22, %22 : (!cherry.cherry_tensor<[1x768x768xf32]>, i64, i64) -> !cherry.cherry_tensor<[768x768xf32]>
        %46 = cherry.tensor_slice %4[%38, %19, %19] sizes [1, 768, 768] : (!cherry.cherry_tensor<[12x768x768xf32]>, i64, i64, i64) -> !cherry.cherry_tensor<[1x768x768xf32]>
        %47 = cherry.reshape %46, %22, %22 : (!cherry.cherry_tensor<[1x768x768xf32]>, i64, i64) -> !cherry.cherry_tensor<[768x768xf32]>
        %48 = cherry.matmul %41, %43 : (!cherry.cherry_tensor<[1x768xf32]>, !cherry.cherry_tensor<[768x768xf32]>) -> !cherry.cherry_tensor<[1x768xf32]>
        %49 = cherry.matmul %41, %45 : (!cherry.cherry_tensor<[1x768xf32]>, !cherry.cherry_tensor<[768x768xf32]>) -> !cherry.cherry_tensor<[1x768xf32]>
        %50 = cherry.matmul %41, %47 : (!cherry.cherry_tensor<[1x768xf32]>, !cherry.cherry_tensor<[768x768xf32]>) -> !cherry.cherry_tensor<[1x768xf32]>
        %51 = cherry.reshape %48, %21, %24, %25 : (!cherry.cherry_tensor<[1x768xf32]>, i64, i64, i64) -> !cherry.cherry_tensor<[1x12x64xf32]>
        %52 = cherry.rope %51, %arg1 : (!cherry.cherry_tensor<[1x12x64xf32]>, i64) -> !cherry.cherry_tensor<[1x12x64xf32]>
        %53 = cherry.reshape %52, %21, %22 : (!cherry.cherry_tensor<[1x12x64xf32]>, i64, i64) -> !cherry.cherry_tensor<[1x768xf32]>
        %54 = cherry.reshape %49, %21, %24, %25 : (!cherry.cherry_tensor<[1x768xf32]>, i64, i64, i64) -> !cherry.cherry_tensor<[1x12x64xf32]>
        %55 = cherry.rope %54, %arg1 : (!cherry.cherry_tensor<[1x12x64xf32]>, i64) -> !cherry.cherry_tensor<[1x12x64xf32]>
        %56 = cherry.reshape %55, %21, %22 : (!cherry.cherry_tensor<[1x12x64xf32]>, i64, i64) -> !cherry.cherry_tensor<[1x768xf32]>
        %57 = cherry.reshape %50, %21, %24, %25 : (!cherry.cherry_tensor<[1x768xf32]>, i64, i64, i64) -> !cherry.cherry_tensor<[1x12x64xf32]>
        %58 = cherry.rope %57, %arg1 : (!cherry.cherry_tensor<[1x12x64xf32]>, i64) -> !cherry.cherry_tensor<[1x12x64xf32]>
        %59 = cherry.reshape %58, %21, %22 : (!cherry.cherry_tensor<[1x12x64xf32]>, i64, i64) -> !cherry.cherry_tensor<[1x768xf32]>
        %60 = cherry.reshape %56, %21, %21, %22 : (!cherry.cherry_tensor<[1x768xf32]>, i64, i64, i64) -> !cherry.cherry_tensor<[1x1x768xf32]>
        %61 = cherry.tensor_set_slice %arg6[%38, %arg1], %60 : (!cherry.cherry_tensor<[12x1024x768xf32]>, !cherry.cherry_tensor<[1x1x768xf32]>, i64, i64) -> !cherry.cherry_tensor<[12x1024x768xf32]>
        %62 = cherry.reshape %59, %21, %21, %22 : (!cherry.cherry_tensor<[1x768xf32]>, i64, i64, i64) -> !cherry.cherry_tensor<[1x1x768xf32]>
        %63 = cherry.tensor_set_slice %arg7[%38, %arg1], %62 : (!cherry.cherry_tensor<[12x1024x768xf32]>, !cherry.cherry_tensor<[1x1x768xf32]>, i64, i64) -> !cherry.cherry_tensor<[12x1024x768xf32]>
        %64 = cherry.tensor_slice %61[%38, %19, %19] sizes [1, 1024, 768] : (!cherry.cherry_tensor<[12x1024x768xf32]>, i64, i64, i64) -> !cherry.cherry_tensor<[1x1024x768xf32]>
        %65 = cherry.reshape %64, %27, %22 : (!cherry.cherry_tensor<[1x1024x768xf32]>, i64, i64) -> !cherry.cherry_tensor<[1024x768xf32]>
        %66 = cherry.tensor_slice %63[%38, %19, %19] sizes [1, 1024, 768] : (!cherry.cherry_tensor<[12x1024x768xf32]>, i64, i64, i64) -> !cherry.cherry_tensor<[1x1024x768xf32]>
        %67 = cherry.reshape %66, %27, %22 : (!cherry.cherry_tensor<[1x1024x768xf32]>, i64, i64) -> !cherry.cherry_tensor<[1024x768xf32]>
        %68 = cherry.create_tensor dense<0.000000e+00> : tensor<1x12x64xf32> -> !cherry.cherry_tensor<[1x12x64xf32]>
        %69 = scf.for %arg8 = %c0 to %c12 step %c1 iter_args(%arg9 = %68) -> (!cherry.cherry_tensor<[1x12x64xf32]>) {
          %90 = arith.index_cast %arg8 : index to i64
          %91 = arith.muli %90, %25 : i64
          %92 = cherry.tensor_slice %53[%19, %91] sizes [1, 64] : (!cherry.cherry_tensor<[1x768xf32]>, i64, i64) -> !cherry.cherry_tensor<[1x64xf32]>
          %93 = cherry.tensor_slice %65[%19, %91] sizes [1024, 64] : (!cherry.cherry_tensor<[1024x768xf32]>, i64, i64) -> !cherry.cherry_tensor<[1024x64xf32]>
          %94 = cherry.transpose %93 perm [1, 0] : (!cherry.cherry_tensor<[1024x64xf32]>) -> !cherry.cherry_tensor<[64x1024xf32]>
          %95 = cherry.masked_matmul %92, %94, %18 : (!cherry.cherry_tensor<[1x64xf32]>, !cherry.cherry_tensor<[64x1024xf32]>, !cherry.cherry_tensor<[1x1024xf32]>) -> !cherry.cherry_tensor<[1x1024xf32]>
          %96 = cherry.tensor_mul_scalar %95, %26 : (!cherry.cherry_tensor<[1x1024xf32]>, f32) -> !cherry.cherry_tensor<[1x1024xf32]>
          %97 = cherry.softmax %96 axis 1 : (!cherry.cherry_tensor<[1x1024xf32]>) -> !cherry.cherry_tensor<[1x1024xf32]>
          %98 = cherry.tensor_slice %67[%19, %91] sizes [1024, 64] : (!cherry.cherry_tensor<[1024x768xf32]>, i64, i64) -> !cherry.cherry_tensor<[1024x64xf32]>
          %99 = cherry.matmul %97, %98 : (!cherry.cherry_tensor<[1x1024xf32]>, !cherry.cherry_tensor<[1024x64xf32]>) -> !cherry.cherry_tensor<[1x64xf32]>
          %100 = cherry.reshape %99, %21, %21, %25 : (!cherry.cherry_tensor<[1x64xf32]>, i64, i64, i64) -> !cherry.cherry_tensor<[1x1x64xf32]>
          %101 = cherry.tensor_set_slice %arg9[%19, %90], %100 : (!cherry.cherry_tensor<[1x12x64xf32]>, !cherry.cherry_tensor<[1x1x64xf32]>, i64, i64) -> !cherry.cherry_tensor<[1x12x64xf32]>
          scf.yield %101 : !cherry.cherry_tensor<[1x12x64xf32]>
        }
        %70 = cherry.reshape %69, %21, %22 : (!cherry.cherry_tensor<[1x12x64xf32]>, i64, i64) -> !cherry.cherry_tensor<[1x768xf32]>
        %71 = cherry.tensor_slice %5[%38, %19, %19] sizes [1, 768, 768] : (!cherry.cherry_tensor<[12x768x768xf32]>, i64, i64, i64) -> !cherry.cherry_tensor<[1x768x768xf32]>
        %72 = cherry.reshape %71, %22, %22 : (!cherry.cherry_tensor<[1x768x768xf32]>, i64, i64) -> !cherry.cherry_tensor<[768x768xf32]>
        %73 = cherry.matmul %70, %72 : (!cherry.cherry_tensor<[1x768xf32]>, !cherry.cherry_tensor<[768x768xf32]>) -> !cherry.cherry_tensor<[1x768xf32]>
        %74 = cherry.tensor_add %arg5, %73 : (!cherry.cherry_tensor<[1x768xf32]>, !cherry.cherry_tensor<[1x768xf32]>) -> !cherry.cherry_tensor<[1x768xf32]>
        %75 = cherry.tensor_slice %6[%38, %19] sizes [1, 768] : (!cherry.cherry_tensor<[12x768xf32]>, i64, i64) -> !cherry.cherry_tensor<[1x768xf32]>
        %76 = cherry.reshape %75, %22 : (!cherry.cherry_tensor<[1x768xf32]>, i64) -> !cherry.cherry_tensor<[768xf32]>
        %77 = cherry.rmsnorm %74 scale %76 eps 9.99999974E-6 : !cherry.cherry_tensor<[1x768xf32]>, !cherry.cherry_tensor<[768xf32]> -> !cherry.cherry_tensor<[1x768xf32]>
        %78 = cherry.tensor_slice %7[%38, %19, %19] sizes [1, 768, 2048] : (!cherry.cherry_tensor<[12x768x2048xf32]>, i64, i64, i64) -> !cherry.cherry_tensor<[1x768x2048xf32]>
        %79 = cherry.reshape %78, %22, %23 : (!cherry.cherry_tensor<[1x768x2048xf32]>, i64, i64) -> !cherry.cherry_tensor<[768x2048xf32]>
        %80 = cherry.tensor_slice %9[%38, %19, %19] sizes [1, 768, 2048] : (!cherry.cherry_tensor<[12x768x2048xf32]>, i64, i64, i64) -> !cherry.cherry_tensor<[1x768x2048xf32]>
        %81 = cherry.reshape %80, %22, %23 : (!cherry.cherry_tensor<[1x768x2048xf32]>, i64, i64) -> !cherry.cherry_tensor<[768x2048xf32]>
        %82 = cherry.matmul %77, %79 : (!cherry.cherry_tensor<[1x768xf32]>, !cherry.cherry_tensor<[768x2048xf32]>) -> !cherry.cherry_tensor<[1x2048xf32]>
        %83 = cherry.matmul %77, %81 : (!cherry.cherry_tensor<[1x768xf32]>, !cherry.cherry_tensor<[768x2048xf32]>) -> !cherry.cherry_tensor<[1x2048xf32]>
        %84 = cherry.tensor_silu %82 : (!cherry.cherry_tensor<[1x2048xf32]>) -> !cherry.cherry_tensor<[1x2048xf32]>
        %85 = cherry.tensor_mul %84, %83 : (!cherry.cherry_tensor<[1x2048xf32]>, !cherry.cherry_tensor<[1x2048xf32]>) -> !cherry.cherry_tensor<[1x2048xf32]>
        %86 = cherry.tensor_slice %8[%38, %19, %19] sizes [1, 2048, 768] : (!cherry.cherry_tensor<[12x2048x768xf32]>, i64, i64, i64) -> !cherry.cherry_tensor<[1x2048x768xf32]>
        %87 = cherry.reshape %86, %23, %22 : (!cherry.cherry_tensor<[1x2048x768xf32]>, i64, i64) -> !cherry.cherry_tensor<[2048x768xf32]>
        %88 = cherry.matmul %85, %87 : (!cherry.cherry_tensor<[1x2048xf32]>, !cherry.cherry_tensor<[2048x768xf32]>) -> !cherry.cherry_tensor<[1x768xf32]>
        %89 = cherry.tensor_add %74, %88 : (!cherry.cherry_tensor<[1x768xf32]>, !cherry.cherry_tensor<[1x768xf32]>) -> !cherry.cherry_tensor<[1x768xf32]>
        scf.yield %89, %61, %63 : !cherry.cherry_tensor<[1x768xf32]>, !cherry.cherry_tensor<[12x1024x768xf32]>, !cherry.cherry_tensor<[12x1024x768xf32]>
      }
      %30 = cherry.rmsnorm %29#0 scale %10 eps 9.99999974E-6 : !cherry.cherry_tensor<[1x768xf32]>, !cherry.cherry_tensor<[768xf32]> -> !cherry.cherry_tensor<[1x768xf32]>
      %31 = cherry.reshape %11, %22, %28 : (!cherry.cherry_tensor<[32000x768xf32]>, i64, i64) -> !cherry.cherry_tensor<[768x32000xf32]>
      %32 = cherry.matmul %30, %31 : (!cherry.cherry_tensor<[1x768xf32]>, !cherry.cherry_tensor<[768x32000xf32]>) -> !cherry.cherry_tensor<[1x32000xf32]>
      %33 = cherry.argmax %32 dim 1 : (!cherry.cherry_tensor<[1x32000xf32]>) -> !cherry.cherry_tensor<[1xi64]>
      cherry.print %32 : !cherry.cherry_tensor<[1x32000xf32]>
      %34 = cherry.constant(0 : i64) : i64
      %35 = cherry.tensor_get %33[%34] : (!cherry.cherry_tensor<[1xi64]>, i64) -> i64
      %36 = cherry.constant(1 : i64) : i64
      %37 = arith.addi %arg1, %36 : i64
      scf.yield %35, %37, %29#1, %29#2 : i64, i64, !cherry.cherry_tensor<[12x1024x768xf32]>, !cherry.cherry_tensor<[12x1024x768xf32]>
    }
    cherry.return
  }
}

// ==========================================
// Phase: Shape Inference
// ==========================================
module {
  cherry.func @host() {
    %c0 = arith.constant 0 : index
    %c1 = arith.constant 1 : index
    %c12 = arith.constant 12 : index
    %0 = cherry.create_tensor dense<2.000000e+00> : tensor<32000x768xf32> -> !cherry.cherry_tensor<[32000x768xf32]>
    %1 = cherry.create_tensor dense<3.000000e+00> : tensor<12x768xf32> -> !cherry.cherry_tensor<[12x768xf32]>
    %2 = cherry.create_tensor dense<4.000000e+00> : tensor<12x768x768xf32> -> !cherry.cherry_tensor<[12x768x768xf32]>
    %3 = cherry.create_tensor dense<5.000000e+00> : tensor<12x768x768xf32> -> !cherry.cherry_tensor<[12x768x768xf32]>
    %4 = cherry.create_tensor dense<6.000000e+00> : tensor<12x768x768xf32> -> !cherry.cherry_tensor<[12x768x768xf32]>
    %5 = cherry.create_tensor dense<7.000000e+00> : tensor<12x768x768xf32> -> !cherry.cherry_tensor<[12x768x768xf32]>
    %6 = cherry.create_tensor dense<8.000000e+00> : tensor<12x768xf32> -> !cherry.cherry_tensor<[12x768xf32]>
    %7 = cherry.create_tensor dense<9.000000e+00> : tensor<12x768x2048xf32> -> !cherry.cherry_tensor<[12x768x2048xf32]>
    %8 = cherry.create_tensor dense<1.000000e+01> : tensor<12x2048x768xf32> -> !cherry.cherry_tensor<[12x2048x768xf32]>
    %9 = cherry.create_tensor dense<1.100000e+01> : tensor<12x768x2048xf32> -> !cherry.cherry_tensor<[12x768x2048xf32]>
    %10 = cherry.create_tensor dense<1.200000e+01> : tensor<768xf32> -> !cherry.cherry_tensor<[768xf32]>
    %11 = cherry.create_tensor dense<1.300000e+01> : tensor<32000x768xf32> -> !cherry.cherry_tensor<[32000x768xf32]>
    %12 = cherry.create_tensor dense<0.000000e+00> : tensor<12x1024x768xf32> -> !cherry.cherry_tensor<[12x1024x768xf32]>
    %13 = cherry.create_tensor dense<0.000000e+00> : tensor<12x1024x768xf32> -> !cherry.cherry_tensor<[12x1024x768xf32]>
    %14 = cherry.constant(1 : i64) : i64
    %15 = cherry.constant(0 : i64) : i64
    %16 = cherry.constant(10 : i64) : i64
    %17:4 = scf.while (%arg0 = %14, %arg1 = %15, %arg2 = %12, %arg3 = %13) : (i64, i64, !cherry.cherry_tensor<[12x1024x768xf32]>, !cherry.cherry_tensor<[12x1024x768xf32]>) -> (i64, i64, !cherry.cherry_tensor<[12x1024x768xf32]>, !cherry.cherry_tensor<[12x1024x768xf32]>) {
      %18 = arith.cmpi slt, %arg1, %16 : i64
      scf.condition(%18) %arg0, %arg1, %arg2, %arg3 : i64, i64, !cherry.cherry_tensor<[12x1024x768xf32]>, !cherry.cherry_tensor<[12x1024x768xf32]>
    } do {
    ^bb0(%arg0: i64, %arg1: i64, %arg2: !cherry.cherry_tensor<[12x1024x768xf32]>, %arg3: !cherry.cherry_tensor<[12x1024x768xf32]>):
      %18 = cherry.generate_mask %arg1, [1, 1024] : !cherry.cherry_tensor<[1x1024xf32]>
      %19 = cherry.constant(0 : i64) : i64
      %20 = cherry.tensor_slice %0[%arg0, %19] sizes [1, 768] : (!cherry.cherry_tensor<[32000x768xf32]>, i64, i64) -> !cherry.cherry_tensor<[1x768xf32]>
      %21 = cherry.constant(1 : i64) : i64
      %22 = cherry.constant(768 : i64) : i64
      %23 = cherry.constant(2048 : i64) : i64
      %24 = cherry.constant(12 : i64) : i64
      %25 = cherry.constant(64 : i64) : i64
      %26 = cherry.constant(1.250000e-01 : f32) : f32
      %27 = cherry.constant(1024 : i64) : i64
      %28 = cherry.constant(32000 : i64) : i64
      %29:3 = scf.for %arg4 = %c0 to %c12 step %c1 iter_args(%arg5 = %20, %arg6 = %arg2, %arg7 = %arg3) -> (!cherry.cherry_tensor<[1x768xf32]>, !cherry.cherry_tensor<[12x1024x768xf32]>, !cherry.cherry_tensor<[12x1024x768xf32]>) {
        %38 = arith.index_cast %arg4 : index to i64
        %39 = cherry.tensor_slice %1[%38, %19] sizes [1, 768] : (!cherry.cherry_tensor<[12x768xf32]>, i64, i64) -> !cherry.cherry_tensor<[1x768xf32]>
        %40 = cherry.reshape %39, %22 : (!cherry.cherry_tensor<[1x768xf32]>, i64) -> !cherry.cherry_tensor<[768xf32]>
        %41 = cherry.rmsnorm %arg5 scale %40 eps 9.99999974E-6 : !cherry.cherry_tensor<[1x768xf32]>, !cherry.cherry_tensor<[768xf32]> -> !cherry.cherry_tensor<[1x768xf32]>
        %42 = cherry.tensor_slice %2[%38, %19, %19] sizes [1, 768, 768] : (!cherry.cherry_tensor<[12x768x768xf32]>, i64, i64, i64) -> !cherry.cherry_tensor<[1x768x768xf32]>
        %43 = cherry.reshape %42, %22, %22 : (!cherry.cherry_tensor<[1x768x768xf32]>, i64, i64) -> !cherry.cherry_tensor<[768x768xf32]>
        %44 = cherry.tensor_slice %3[%38, %19, %19] sizes [1, 768, 768] : (!cherry.cherry_tensor<[12x768x768xf32]>, i64, i64, i64) -> !cherry.cherry_tensor<[1x768x768xf32]>
        %45 = cherry.reshape %44, %22, %22 : (!cherry.cherry_tensor<[1x768x768xf32]>, i64, i64) -> !cherry.cherry_tensor<[768x768xf32]>
        %46 = cherry.tensor_slice %4[%38, %19, %19] sizes [1, 768, 768] : (!cherry.cherry_tensor<[12x768x768xf32]>, i64, i64, i64) -> !cherry.cherry_tensor<[1x768x768xf32]>
        %47 = cherry.reshape %46, %22, %22 : (!cherry.cherry_tensor<[1x768x768xf32]>, i64, i64) -> !cherry.cherry_tensor<[768x768xf32]>
        %48 = cherry.matmul %41, %43 : (!cherry.cherry_tensor<[1x768xf32]>, !cherry.cherry_tensor<[768x768xf32]>) -> !cherry.cherry_tensor<[1x768xf32]>
        %49 = cherry.matmul %41, %45 : (!cherry.cherry_tensor<[1x768xf32]>, !cherry.cherry_tensor<[768x768xf32]>) -> !cherry.cherry_tensor<[1x768xf32]>
        %50 = cherry.matmul %41, %47 : (!cherry.cherry_tensor<[1x768xf32]>, !cherry.cherry_tensor<[768x768xf32]>) -> !cherry.cherry_tensor<[1x768xf32]>
        %51 = cherry.reshape %48, %21, %24, %25 : (!cherry.cherry_tensor<[1x768xf32]>, i64, i64, i64) -> !cherry.cherry_tensor<[1x12x64xf32]>
        %52 = cherry.rope %51, %arg1 : (!cherry.cherry_tensor<[1x12x64xf32]>, i64) -> !cherry.cherry_tensor<[1x12x64xf32]>
        %53 = cherry.reshape %52, %21, %22 : (!cherry.cherry_tensor<[1x12x64xf32]>, i64, i64) -> !cherry.cherry_tensor<[1x768xf32]>
        %54 = cherry.reshape %49, %21, %24, %25 : (!cherry.cherry_tensor<[1x768xf32]>, i64, i64, i64) -> !cherry.cherry_tensor<[1x12x64xf32]>
        %55 = cherry.rope %54, %arg1 : (!cherry.cherry_tensor<[1x12x64xf32]>, i64) -> !cherry.cherry_tensor<[1x12x64xf32]>
        %56 = cherry.reshape %55, %21, %22 : (!cherry.cherry_tensor<[1x12x64xf32]>, i64, i64) -> !cherry.cherry_tensor<[1x768xf32]>
        %57 = cherry.reshape %50, %21, %24, %25 : (!cherry.cherry_tensor<[1x768xf32]>, i64, i64, i64) -> !cherry.cherry_tensor<[1x12x64xf32]>
        %58 = cherry.rope %57, %arg1 : (!cherry.cherry_tensor<[1x12x64xf32]>, i64) -> !cherry.cherry_tensor<[1x12x64xf32]>
        %59 = cherry.reshape %58, %21, %22 : (!cherry.cherry_tensor<[1x12x64xf32]>, i64, i64) -> !cherry.cherry_tensor<[1x768xf32]>
        %60 = cherry.reshape %56, %21, %21, %22 : (!cherry.cherry_tensor<[1x768xf32]>, i64, i64, i64) -> !cherry.cherry_tensor<[1x1x768xf32]>
        %61 = cherry.tensor_set_slice %arg6[%38, %arg1], %60 : (!cherry.cherry_tensor<[12x1024x768xf32]>, !cherry.cherry_tensor<[1x1x768xf32]>, i64, i64) -> !cherry.cherry_tensor<[12x1024x768xf32]>
        %62 = cherry.reshape %59, %21, %21, %22 : (!cherry.cherry_tensor<[1x768xf32]>, i64, i64, i64) -> !cherry.cherry_tensor<[1x1x768xf32]>
        %63 = cherry.tensor_set_slice %arg7[%38, %arg1], %62 : (!cherry.cherry_tensor<[12x1024x768xf32]>, !cherry.cherry_tensor<[1x1x768xf32]>, i64, i64) -> !cherry.cherry_tensor<[12x1024x768xf32]>
        %64 = cherry.tensor_slice %61[%38, %19, %19] sizes [1, 1024, 768] : (!cherry.cherry_tensor<[12x1024x768xf32]>, i64, i64, i64) -> !cherry.cherry_tensor<[1x1024x768xf32]>
        %65 = cherry.reshape %64, %27, %22 : (!cherry.cherry_tensor<[1x1024x768xf32]>, i64, i64) -> !cherry.cherry_tensor<[1024x768xf32]>
        %66 = cherry.tensor_slice %63[%38, %19, %19] sizes [1, 1024, 768] : (!cherry.cherry_tensor<[12x1024x768xf32]>, i64, i64, i64) -> !cherry.cherry_tensor<[1x1024x768xf32]>
        %67 = cherry.reshape %66, %27, %22 : (!cherry.cherry_tensor<[1x1024x768xf32]>, i64, i64) -> !cherry.cherry_tensor<[1024x768xf32]>
        %68 = cherry.create_tensor dense<0.000000e+00> : tensor<1x12x64xf32> -> !cherry.cherry_tensor<[1x12x64xf32]>
        %69 = scf.for %arg8 = %c0 to %c12 step %c1 iter_args(%arg9 = %68) -> (!cherry.cherry_tensor<[1x12x64xf32]>) {
          %90 = arith.index_cast %arg8 : index to i64
          %91 = arith.muli %90, %25 : i64
          %92 = cherry.tensor_slice %53[%19, %91] sizes [1, 64] : (!cherry.cherry_tensor<[1x768xf32]>, i64, i64) -> !cherry.cherry_tensor<[1x64xf32]>
          %93 = cherry.tensor_slice %65[%19, %91] sizes [1024, 64] : (!cherry.cherry_tensor<[1024x768xf32]>, i64, i64) -> !cherry.cherry_tensor<[1024x64xf32]>
          %94 = cherry.transpose %93 perm [1, 0] : (!cherry.cherry_tensor<[1024x64xf32]>) -> !cherry.cherry_tensor<[64x1024xf32]>
          %95 = cherry.masked_matmul %92, %94, %18 : (!cherry.cherry_tensor<[1x64xf32]>, !cherry.cherry_tensor<[64x1024xf32]>, !cherry.cherry_tensor<[1x1024xf32]>) -> !cherry.cherry_tensor<[1x1024xf32]>
          %96 = cherry.tensor_mul_scalar %95, %26 : (!cherry.cherry_tensor<[1x1024xf32]>, f32) -> !cherry.cherry_tensor<[1x1024xf32]>
          %97 = cherry.softmax %96 axis 1 : (!cherry.cherry_tensor<[1x1024xf32]>) -> !cherry.cherry_tensor<[1x1024xf32]>
          %98 = cherry.tensor_slice %67[%19, %91] sizes [1024, 64] : (!cherry.cherry_tensor<[1024x768xf32]>, i64, i64) -> !cherry.cherry_tensor<[1024x64xf32]>
          %99 = cherry.matmul %97, %98 : (!cherry.cherry_tensor<[1x1024xf32]>, !cherry.cherry_tensor<[1024x64xf32]>) -> !cherry.cherry_tensor<[1x64xf32]>
          %100 = cherry.reshape %99, %21, %21, %25 : (!cherry.cherry_tensor<[1x64xf32]>, i64, i64, i64) -> !cherry.cherry_tensor<[1x1x64xf32]>
          %101 = cherry.tensor_set_slice %arg9[%19, %90], %100 : (!cherry.cherry_tensor<[1x12x64xf32]>, !cherry.cherry_tensor<[1x1x64xf32]>, i64, i64) -> !cherry.cherry_tensor<[1x12x64xf32]>
          scf.yield %101 : !cherry.cherry_tensor<[1x12x64xf32]>
        }
        %70 = cherry.reshape %69, %21, %22 : (!cherry.cherry_tensor<[1x12x64xf32]>, i64, i64) -> !cherry.cherry_tensor<[1x768xf32]>
        %71 = cherry.tensor_slice %5[%38, %19, %19] sizes [1, 768, 768] : (!cherry.cherry_tensor<[12x768x768xf32]>, i64, i64, i64) -> !cherry.cherry_tensor<[1x768x768xf32]>
        %72 = cherry.reshape %71, %22, %22 : (!cherry.cherry_tensor<[1x768x768xf32]>, i64, i64) -> !cherry.cherry_tensor<[768x768xf32]>
        %73 = cherry.matmul %70, %72 : (!cherry.cherry_tensor<[1x768xf32]>, !cherry.cherry_tensor<[768x768xf32]>) -> !cherry.cherry_tensor<[1x768xf32]>
        %74 = cherry.tensor_add %arg5, %73 : (!cherry.cherry_tensor<[1x768xf32]>, !cherry.cherry_tensor<[1x768xf32]>) -> !cherry.cherry_tensor<[1x768xf32]>
        %75 = cherry.tensor_slice %6[%38, %19] sizes [1, 768] : (!cherry.cherry_tensor<[12x768xf32]>, i64, i64) -> !cherry.cherry_tensor<[1x768xf32]>
        %76 = cherry.reshape %75, %22 : (!cherry.cherry_tensor<[1x768xf32]>, i64) -> !cherry.cherry_tensor<[768xf32]>
        %77 = cherry.rmsnorm %74 scale %76 eps 9.99999974E-6 : !cherry.cherry_tensor<[1x768xf32]>, !cherry.cherry_tensor<[768xf32]> -> !cherry.cherry_tensor<[1x768xf32]>
        %78 = cherry.tensor_slice %7[%38, %19, %19] sizes [1, 768, 2048] : (!cherry.cherry_tensor<[12x768x2048xf32]>, i64, i64, i64) -> !cherry.cherry_tensor<[1x768x2048xf32]>
        %79 = cherry.reshape %78, %22, %23 : (!cherry.cherry_tensor<[1x768x2048xf32]>, i64, i64) -> !cherry.cherry_tensor<[768x2048xf32]>
        %80 = cherry.tensor_slice %9[%38, %19, %19] sizes [1, 768, 2048] : (!cherry.cherry_tensor<[12x768x2048xf32]>, i64, i64, i64) -> !cherry.cherry_tensor<[1x768x2048xf32]>
        %81 = cherry.reshape %80, %22, %23 : (!cherry.cherry_tensor<[1x768x2048xf32]>, i64, i64) -> !cherry.cherry_tensor<[768x2048xf32]>
        %82 = cherry.matmul %77, %79 : (!cherry.cherry_tensor<[1x768xf32]>, !cherry.cherry_tensor<[768x2048xf32]>) -> !cherry.cherry_tensor<[1x2048xf32]>
        %83 = cherry.matmul %77, %81 : (!cherry.cherry_tensor<[1x768xf32]>, !cherry.cherry_tensor<[768x2048xf32]>) -> !cherry.cherry_tensor<[1x2048xf32]>
        %84 = cherry.tensor_silu %82 : (!cherry.cherry_tensor<[1x2048xf32]>) -> !cherry.cherry_tensor<[1x2048xf32]>
        %85 = cherry.tensor_mul %84, %83 : (!cherry.cherry_tensor<[1x2048xf32]>, !cherry.cherry_tensor<[1x2048xf32]>) -> !cherry.cherry_tensor<[1x2048xf32]>
        %86 = cherry.tensor_slice %8[%38, %19, %19] sizes [1, 2048, 768] : (!cherry.cherry_tensor<[12x2048x768xf32]>, i64, i64, i64) -> !cherry.cherry_tensor<[1x2048x768xf32]>
        %87 = cherry.reshape %86, %23, %22 : (!cherry.cherry_tensor<[1x2048x768xf32]>, i64, i64) -> !cherry.cherry_tensor<[2048x768xf32]>
        %88 = cherry.matmul %85, %87 : (!cherry.cherry_tensor<[1x2048xf32]>, !cherry.cherry_tensor<[2048x768xf32]>) -> !cherry.cherry_tensor<[1x768xf32]>
        %89 = cherry.tensor_add %74, %88 : (!cherry.cherry_tensor<[1x768xf32]>, !cherry.cherry_tensor<[1x768xf32]>) -> !cherry.cherry_tensor<[1x768xf32]>
        scf.yield %89, %61, %63 : !cherry.cherry_tensor<[1x768xf32]>, !cherry.cherry_tensor<[12x1024x768xf32]>, !cherry.cherry_tensor<[12x1024x768xf32]>
      }
      %30 = cherry.rmsnorm %29#0 scale %10 eps 9.99999974E-6 : !cherry.cherry_tensor<[1x768xf32]>, !cherry.cherry_tensor<[768xf32]> -> !cherry.cherry_tensor<[1x768xf32]>
      %31 = cherry.reshape %11, %22, %28 : (!cherry.cherry_tensor<[32000x768xf32]>, i64, i64) -> !cherry.cherry_tensor<[768x32000xf32]>
      %32 = cherry.matmul %30, %31 : (!cherry.cherry_tensor<[1x768xf32]>, !cherry.cherry_tensor<[768x32000xf32]>) -> !cherry.cherry_tensor<[1x32000xf32]>
      %33 = cherry.argmax %32 dim 1 : (!cherry.cherry_tensor<[1x32000xf32]>) -> !cherry.cherry_tensor<[1xi64]>
      cherry.print %32 : !cherry.cherry_tensor<[1x32000xf32]>
      %34 = cherry.constant(0 : i64) : i64
      %35 = cherry.tensor_get %33[%34] : (!cherry.cherry_tensor<[1xi64]>, i64) -> i64
      %36 = cherry.constant(1 : i64) : i64
      %37 = arith.addi %arg1, %36 : i64
      scf.yield %35, %37, %29#1, %29#2 : i64, i64, !cherry.cherry_tensor<[12x1024x768xf32]>, !cherry.cherry_tensor<[12x1024x768xf32]>
    }
    cherry.return
  }
}

// ==========================================
// Phase: Canonicalizer
// ==========================================
module {
  cherry.func @host() {
    %c0 = arith.constant 0 : index
    %c1 = arith.constant 1 : index
    %c12 = arith.constant 12 : index
    %0 = cherry.create_tensor dense<2.000000e+00> : tensor<32000x768xf32> -> !cherry.cherry_tensor<[32000x768xf32]>
    %1 = cherry.create_tensor dense<3.000000e+00> : tensor<12x768xf32> -> !cherry.cherry_tensor<[12x768xf32]>
    %2 = cherry.create_tensor dense<4.000000e+00> : tensor<12x768x768xf32> -> !cherry.cherry_tensor<[12x768x768xf32]>
    %3 = cherry.create_tensor dense<5.000000e+00> : tensor<12x768x768xf32> -> !cherry.cherry_tensor<[12x768x768xf32]>
    %4 = cherry.create_tensor dense<6.000000e+00> : tensor<12x768x768xf32> -> !cherry.cherry_tensor<[12x768x768xf32]>
    %5 = cherry.create_tensor dense<7.000000e+00> : tensor<12x768x768xf32> -> !cherry.cherry_tensor<[12x768x768xf32]>
    %6 = cherry.create_tensor dense<8.000000e+00> : tensor<12x768xf32> -> !cherry.cherry_tensor<[12x768xf32]>
    %7 = cherry.create_tensor dense<9.000000e+00> : tensor<12x768x2048xf32> -> !cherry.cherry_tensor<[12x768x2048xf32]>
    %8 = cherry.create_tensor dense<1.000000e+01> : tensor<12x2048x768xf32> -> !cherry.cherry_tensor<[12x2048x768xf32]>
    %9 = cherry.create_tensor dense<1.100000e+01> : tensor<12x768x2048xf32> -> !cherry.cherry_tensor<[12x768x2048xf32]>
    %10 = cherry.create_tensor dense<1.200000e+01> : tensor<768xf32> -> !cherry.cherry_tensor<[768xf32]>
    %11 = cherry.create_tensor dense<1.300000e+01> : tensor<32000x768xf32> -> !cherry.cherry_tensor<[32000x768xf32]>
    %12 = cherry.create_tensor dense<0.000000e+00> : tensor<12x1024x768xf32> -> !cherry.cherry_tensor<[12x1024x768xf32]>
    %13 = cherry.create_tensor dense<0.000000e+00> : tensor<12x1024x768xf32> -> !cherry.cherry_tensor<[12x1024x768xf32]>
    %14 = cherry.constant(1 : i64) : i64
    %15 = cherry.constant(0 : i64) : i64
    %16 = cherry.constant(10 : i64) : i64
    %17:4 = scf.while (%arg0 = %14, %arg1 = %15, %arg2 = %12, %arg3 = %13) : (i64, i64, !cherry.cherry_tensor<[12x1024x768xf32]>, !cherry.cherry_tensor<[12x1024x768xf32]>) -> (i64, i64, !cherry.cherry_tensor<[12x1024x768xf32]>, !cherry.cherry_tensor<[12x1024x768xf32]>) {
      %18 = arith.cmpi slt, %arg1, %16 : i64
      scf.condition(%18) %arg0, %arg1, %arg2, %arg3 : i64, i64, !cherry.cherry_tensor<[12x1024x768xf32]>, !cherry.cherry_tensor<[12x1024x768xf32]>
    } do {
    ^bb0(%arg0: i64, %arg1: i64, %arg2: !cherry.cherry_tensor<[12x1024x768xf32]>, %arg3: !cherry.cherry_tensor<[12x1024x768xf32]>):
      %18 = cherry.generate_mask %arg1, [1, 1024] : !cherry.cherry_tensor<[1x1024xf32]>
      %19 = cherry.constant(0 : i64) : i64
      %20 = cherry.tensor_slice %0[%arg0, %19] sizes [1, 768] : (!cherry.cherry_tensor<[32000x768xf32]>, i64, i64) -> !cherry.cherry_tensor<[1x768xf32]>
      %21 = cherry.constant(1 : i64) : i64
      %22 = cherry.constant(768 : i64) : i64
      %23 = cherry.constant(2048 : i64) : i64
      %24 = cherry.constant(12 : i64) : i64
      %25 = cherry.constant(64 : i64) : i64
      %26 = cherry.constant(1.250000e-01 : f32) : f32
      %27 = cherry.constant(1024 : i64) : i64
      %28 = cherry.constant(32000 : i64) : i64
      %29:3 = scf.for %arg4 = %c0 to %c12 step %c1 iter_args(%arg5 = %20, %arg6 = %arg2, %arg7 = %arg3) -> (!cherry.cherry_tensor<[1x768xf32]>, !cherry.cherry_tensor<[12x1024x768xf32]>, !cherry.cherry_tensor<[12x1024x768xf32]>) {
        %38 = arith.index_cast %arg4 : index to i64
        %39 = cherry.tensor_slice %1[%38, %19] sizes [1, 768] : (!cherry.cherry_tensor<[12x768xf32]>, i64, i64) -> !cherry.cherry_tensor<[1x768xf32]>
        %40 = cherry.reshape %39, %22 : (!cherry.cherry_tensor<[1x768xf32]>, i64) -> !cherry.cherry_tensor<[768xf32]>
        %41 = cherry.rmsnorm %arg5 scale %40 eps 9.99999974E-6 : !cherry.cherry_tensor<[1x768xf32]>, !cherry.cherry_tensor<[768xf32]> -> !cherry.cherry_tensor<[1x768xf32]>
        %42 = cherry.tensor_slice %2[%38, %19, %19] sizes [1, 768, 768] : (!cherry.cherry_tensor<[12x768x768xf32]>, i64, i64, i64) -> !cherry.cherry_tensor<[1x768x768xf32]>
        %43 = cherry.reshape %42, %22, %22 : (!cherry.cherry_tensor<[1x768x768xf32]>, i64, i64) -> !cherry.cherry_tensor<[768x768xf32]>
        %44 = cherry.tensor_slice %3[%38, %19, %19] sizes [1, 768, 768] : (!cherry.cherry_tensor<[12x768x768xf32]>, i64, i64, i64) -> !cherry.cherry_tensor<[1x768x768xf32]>
        %45 = cherry.reshape %44, %22, %22 : (!cherry.cherry_tensor<[1x768x768xf32]>, i64, i64) -> !cherry.cherry_tensor<[768x768xf32]>
        %46 = cherry.tensor_slice %4[%38, %19, %19] sizes [1, 768, 768] : (!cherry.cherry_tensor<[12x768x768xf32]>, i64, i64, i64) -> !cherry.cherry_tensor<[1x768x768xf32]>
        %47 = cherry.reshape %46, %22, %22 : (!cherry.cherry_tensor<[1x768x768xf32]>, i64, i64) -> !cherry.cherry_tensor<[768x768xf32]>
        %48 = cherry.matmul %41, %43 : (!cherry.cherry_tensor<[1x768xf32]>, !cherry.cherry_tensor<[768x768xf32]>) -> !cherry.cherry_tensor<[1x768xf32]>
        %49 = cherry.matmul %41, %45 : (!cherry.cherry_tensor<[1x768xf32]>, !cherry.cherry_tensor<[768x768xf32]>) -> !cherry.cherry_tensor<[1x768xf32]>
        %50 = cherry.matmul %41, %47 : (!cherry.cherry_tensor<[1x768xf32]>, !cherry.cherry_tensor<[768x768xf32]>) -> !cherry.cherry_tensor<[1x768xf32]>
        %51 = cherry.reshape %48, %21, %24, %25 : (!cherry.cherry_tensor<[1x768xf32]>, i64, i64, i64) -> !cherry.cherry_tensor<[1x12x64xf32]>
        %52 = cherry.rope %51, %arg1 : (!cherry.cherry_tensor<[1x12x64xf32]>, i64) -> !cherry.cherry_tensor<[1x12x64xf32]>
        %53 = cherry.reshape %52, %21, %22 : (!cherry.cherry_tensor<[1x12x64xf32]>, i64, i64) -> !cherry.cherry_tensor<[1x768xf32]>
        %54 = cherry.reshape %49, %21, %24, %25 : (!cherry.cherry_tensor<[1x768xf32]>, i64, i64, i64) -> !cherry.cherry_tensor<[1x12x64xf32]>
        %55 = cherry.rope %54, %arg1 : (!cherry.cherry_tensor<[1x12x64xf32]>, i64) -> !cherry.cherry_tensor<[1x12x64xf32]>
        %56 = cherry.reshape %55, %21, %22 : (!cherry.cherry_tensor<[1x12x64xf32]>, i64, i64) -> !cherry.cherry_tensor<[1x768xf32]>
        %57 = cherry.reshape %50, %21, %24, %25 : (!cherry.cherry_tensor<[1x768xf32]>, i64, i64, i64) -> !cherry.cherry_tensor<[1x12x64xf32]>
        %58 = cherry.rope %57, %arg1 : (!cherry.cherry_tensor<[1x12x64xf32]>, i64) -> !cherry.cherry_tensor<[1x12x64xf32]>
        %59 = cherry.reshape %58, %21, %22 : (!cherry.cherry_tensor<[1x12x64xf32]>, i64, i64) -> !cherry.cherry_tensor<[1x768xf32]>
        %60 = cherry.reshape %56, %21, %21, %22 : (!cherry.cherry_tensor<[1x768xf32]>, i64, i64, i64) -> !cherry.cherry_tensor<[1x1x768xf32]>
        %61 = cherry.tensor_set_slice %arg6[%38, %arg1], %60 : (!cherry.cherry_tensor<[12x1024x768xf32]>, !cherry.cherry_tensor<[1x1x768xf32]>, i64, i64) -> !cherry.cherry_tensor<[12x1024x768xf32]>
        %62 = cherry.reshape %59, %21, %21, %22 : (!cherry.cherry_tensor<[1x768xf32]>, i64, i64, i64) -> !cherry.cherry_tensor<[1x1x768xf32]>
        %63 = cherry.tensor_set_slice %arg7[%38, %arg1], %62 : (!cherry.cherry_tensor<[12x1024x768xf32]>, !cherry.cherry_tensor<[1x1x768xf32]>, i64, i64) -> !cherry.cherry_tensor<[12x1024x768xf32]>
        %64 = cherry.tensor_slice %61[%38, %19, %19] sizes [1, 1024, 768] : (!cherry.cherry_tensor<[12x1024x768xf32]>, i64, i64, i64) -> !cherry.cherry_tensor<[1x1024x768xf32]>
        %65 = cherry.reshape %64, %27, %22 : (!cherry.cherry_tensor<[1x1024x768xf32]>, i64, i64) -> !cherry.cherry_tensor<[1024x768xf32]>
        %66 = cherry.tensor_slice %63[%38, %19, %19] sizes [1, 1024, 768] : (!cherry.cherry_tensor<[12x1024x768xf32]>, i64, i64, i64) -> !cherry.cherry_tensor<[1x1024x768xf32]>
        %67 = cherry.reshape %66, %27, %22 : (!cherry.cherry_tensor<[1x1024x768xf32]>, i64, i64) -> !cherry.cherry_tensor<[1024x768xf32]>
        %68 = cherry.create_tensor dense<0.000000e+00> : tensor<1x12x64xf32> -> !cherry.cherry_tensor<[1x12x64xf32]>
        %69 = scf.for %arg8 = %c0 to %c12 step %c1 iter_args(%arg9 = %68) -> (!cherry.cherry_tensor<[1x12x64xf32]>) {
          %90 = arith.index_cast %arg8 : index to i64
          %91 = arith.muli %90, %25 : i64
          %92 = cherry.tensor_slice %53[%19, %91] sizes [1, 64] : (!cherry.cherry_tensor<[1x768xf32]>, i64, i64) -> !cherry.cherry_tensor<[1x64xf32]>
          %93 = cherry.tensor_slice %65[%19, %91] sizes [1024, 64] : (!cherry.cherry_tensor<[1024x768xf32]>, i64, i64) -> !cherry.cherry_tensor<[1024x64xf32]>
          %94 = cherry.transpose %93 perm [1, 0] : (!cherry.cherry_tensor<[1024x64xf32]>) -> !cherry.cherry_tensor<[64x1024xf32]>
          %95 = cherry.masked_matmul %92, %94, %18 : (!cherry.cherry_tensor<[1x64xf32]>, !cherry.cherry_tensor<[64x1024xf32]>, !cherry.cherry_tensor<[1x1024xf32]>) -> !cherry.cherry_tensor<[1x1024xf32]>
          %96 = cherry.tensor_mul_scalar %95, %26 : (!cherry.cherry_tensor<[1x1024xf32]>, f32) -> !cherry.cherry_tensor<[1x1024xf32]>
          %97 = cherry.softmax %96 axis 1 : (!cherry.cherry_tensor<[1x1024xf32]>) -> !cherry.cherry_tensor<[1x1024xf32]>
          %98 = cherry.tensor_slice %67[%19, %91] sizes [1024, 64] : (!cherry.cherry_tensor<[1024x768xf32]>, i64, i64) -> !cherry.cherry_tensor<[1024x64xf32]>
          %99 = cherry.matmul %97, %98 : (!cherry.cherry_tensor<[1x1024xf32]>, !cherry.cherry_tensor<[1024x64xf32]>) -> !cherry.cherry_tensor<[1x64xf32]>
          %100 = cherry.reshape %99, %21, %21, %25 : (!cherry.cherry_tensor<[1x64xf32]>, i64, i64, i64) -> !cherry.cherry_tensor<[1x1x64xf32]>
          %101 = cherry.tensor_set_slice %arg9[%19, %90], %100 : (!cherry.cherry_tensor<[1x12x64xf32]>, !cherry.cherry_tensor<[1x1x64xf32]>, i64, i64) -> !cherry.cherry_tensor<[1x12x64xf32]>
          scf.yield %101 : !cherry.cherry_tensor<[1x12x64xf32]>
        }
        %70 = cherry.reshape %69, %21, %22 : (!cherry.cherry_tensor<[1x12x64xf32]>, i64, i64) -> !cherry.cherry_tensor<[1x768xf32]>
        %71 = cherry.tensor_slice %5[%38, %19, %19] sizes [1, 768, 768] : (!cherry.cherry_tensor<[12x768x768xf32]>, i64, i64, i64) -> !cherry.cherry_tensor<[1x768x768xf32]>
        %72 = cherry.reshape %71, %22, %22 : (!cherry.cherry_tensor<[1x768x768xf32]>, i64, i64) -> !cherry.cherry_tensor<[768x768xf32]>
        %73 = cherry.matmul %70, %72 : (!cherry.cherry_tensor<[1x768xf32]>, !cherry.cherry_tensor<[768x768xf32]>) -> !cherry.cherry_tensor<[1x768xf32]>
        %74 = cherry.tensor_add %arg5, %73 : (!cherry.cherry_tensor<[1x768xf32]>, !cherry.cherry_tensor<[1x768xf32]>) -> !cherry.cherry_tensor<[1x768xf32]>
        %75 = cherry.tensor_slice %6[%38, %19] sizes [1, 768] : (!cherry.cherry_tensor<[12x768xf32]>, i64, i64) -> !cherry.cherry_tensor<[1x768xf32]>
        %76 = cherry.reshape %75, %22 : (!cherry.cherry_tensor<[1x768xf32]>, i64) -> !cherry.cherry_tensor<[768xf32]>
        %77 = cherry.rmsnorm %74 scale %76 eps 9.99999974E-6 : !cherry.cherry_tensor<[1x768xf32]>, !cherry.cherry_tensor<[768xf32]> -> !cherry.cherry_tensor<[1x768xf32]>
        %78 = cherry.tensor_slice %7[%38, %19, %19] sizes [1, 768, 2048] : (!cherry.cherry_tensor<[12x768x2048xf32]>, i64, i64, i64) -> !cherry.cherry_tensor<[1x768x2048xf32]>
        %79 = cherry.reshape %78, %22, %23 : (!cherry.cherry_tensor<[1x768x2048xf32]>, i64, i64) -> !cherry.cherry_tensor<[768x2048xf32]>
        %80 = cherry.tensor_slice %9[%38, %19, %19] sizes [1, 768, 2048] : (!cherry.cherry_tensor<[12x768x2048xf32]>, i64, i64, i64) -> !cherry.cherry_tensor<[1x768x2048xf32]>
        %81 = cherry.reshape %80, %22, %23 : (!cherry.cherry_tensor<[1x768x2048xf32]>, i64, i64) -> !cherry.cherry_tensor<[768x2048xf32]>
        %82 = cherry.matmul %77, %79 : (!cherry.cherry_tensor<[1x768xf32]>, !cherry.cherry_tensor<[768x2048xf32]>) -> !cherry.cherry_tensor<[1x2048xf32]>
        %83 = cherry.matmul %77, %81 : (!cherry.cherry_tensor<[1x768xf32]>, !cherry.cherry_tensor<[768x2048xf32]>) -> !cherry.cherry_tensor<[1x2048xf32]>
        %84 = cherry.tensor_silu %82 : (!cherry.cherry_tensor<[1x2048xf32]>) -> !cherry.cherry_tensor<[1x2048xf32]>
        %85 = cherry.tensor_mul %84, %83 : (!cherry.cherry_tensor<[1x2048xf32]>, !cherry.cherry_tensor<[1x2048xf32]>) -> !cherry.cherry_tensor<[1x2048xf32]>
        %86 = cherry.tensor_slice %8[%38, %19, %19] sizes [1, 2048, 768] : (!cherry.cherry_tensor<[12x2048x768xf32]>, i64, i64, i64) -> !cherry.cherry_tensor<[1x2048x768xf32]>
        %87 = cherry.reshape %86, %23, %22 : (!cherry.cherry_tensor<[1x2048x768xf32]>, i64, i64) -> !cherry.cherry_tensor<[2048x768xf32]>
        %88 = cherry.matmul %85, %87 : (!cherry.cherry_tensor<[1x2048xf32]>, !cherry.cherry_tensor<[2048x768xf32]>) -> !cherry.cherry_tensor<[1x768xf32]>
        %89 = cherry.tensor_add %74, %88 : (!cherry.cherry_tensor<[1x768xf32]>, !cherry.cherry_tensor<[1x768xf32]>) -> !cherry.cherry_tensor<[1x768xf32]>
        scf.yield %89, %61, %63 : !cherry.cherry_tensor<[1x768xf32]>, !cherry.cherry_tensor<[12x1024x768xf32]>, !cherry.cherry_tensor<[12x1024x768xf32]>
      }
      %30 = cherry.rmsnorm %29#0 scale %10 eps 9.99999974E-6 : !cherry.cherry_tensor<[1x768xf32]>, !cherry.cherry_tensor<[768xf32]> -> !cherry.cherry_tensor<[1x768xf32]>
      %31 = cherry.reshape %11, %22, %28 : (!cherry.cherry_tensor<[32000x768xf32]>, i64, i64) -> !cherry.cherry_tensor<[768x32000xf32]>
      %32 = cherry.matmul %30, %31 : (!cherry.cherry_tensor<[1x768xf32]>, !cherry.cherry_tensor<[768x32000xf32]>) -> !cherry.cherry_tensor<[1x32000xf32]>
      %33 = cherry.argmax %32 dim 1 : (!cherry.cherry_tensor<[1x32000xf32]>) -> !cherry.cherry_tensor<[1xi64]>
      cherry.print %32 : !cherry.cherry_tensor<[1x32000xf32]>
      %34 = cherry.constant(0 : i64) : i64
      %35 = cherry.tensor_get %33[%34] : (!cherry.cherry_tensor<[1xi64]>, i64) -> i64
      %36 = cherry.constant(1 : i64) : i64
      %37 = arith.addi %arg1, %36 : i64
      scf.yield %35, %37, %29#1, %29#2 : i64, i64, !cherry.cherry_tensor<[12x1024x768xf32]>, !cherry.cherry_tensor<[12x1024x768xf32]>
    }
    cherry.return
  }
}

// ==========================================
// Phase: Convert to Linalg
// ==========================================
#map = affine_map<(d0, d1) -> (d0, d1)>
#map1 = affine_map<(d0, d1) -> (d0)>
#map2 = affine_map<(d0) -> (d0)>
#map3 = affine_map<(d0, d1) -> (d1)>
#map4 = affine_map<(d0, d1, d2) -> (d0, d2)>
#map5 = affine_map<(d0, d1, d2) -> (d2, d1)>
#map6 = affine_map<(d0, d1, d2) -> (d0, d1)>
#map7 = affine_map<(d0, d1, d2) -> (d0, d1, d2)>
#map8 = affine_map<(d0, d1, d2) -> (d2)>
module {
  func.func private @printMemrefF32(tensor<*xf32> {bufferization.access = "read"})
  func.func @host() {
    %c0 = arith.constant 0 : index
    %c1 = arith.constant 1 : index
    %c12 = arith.constant 12 : index
    %cst = arith.constant dense<2.000000e+00> : tensor<32000x768xf32>
    %cst_0 = arith.constant dense<3.000000e+00> : tensor<12x768xf32>
    %cst_1 = arith.constant dense<4.000000e+00> : tensor<12x768x768xf32>
    %cst_2 = arith.constant dense<5.000000e+00> : tensor<12x768x768xf32>
    %cst_3 = arith.constant dense<6.000000e+00> : tensor<12x768x768xf32>
    %cst_4 = arith.constant dense<7.000000e+00> : tensor<12x768x768xf32>
    %cst_5 = arith.constant dense<8.000000e+00> : tensor<12x768xf32>
    %cst_6 = arith.constant dense<9.000000e+00> : tensor<12x768x2048xf32>
    %cst_7 = arith.constant dense<1.000000e+01> : tensor<12x2048x768xf32>
    %cst_8 = arith.constant dense<1.100000e+01> : tensor<12x768x2048xf32>
    %cst_9 = arith.constant dense<1.200000e+01> : tensor<768xf32>
    %cst_10 = arith.constant dense<1.300000e+01> : tensor<32000x768xf32>
    %cst_11 = arith.constant dense<0.000000e+00> : tensor<12x1024x768xf32>
    %cst_12 = arith.constant dense<0.000000e+00> : tensor<12x1024x768xf32>
    %c1_i64 = arith.constant 1 : i64
    %c0_i64 = arith.constant 0 : i64
    %c10_i64 = arith.constant 10 : i64
    %0:4 = scf.while (%arg0 = %c1_i64, %arg1 = %c0_i64, %arg2 = %cst_11, %arg3 = %cst_12) : (i64, i64, tensor<12x1024x768xf32>, tensor<12x1024x768xf32>) -> (i64, i64, tensor<12x1024x768xf32>, tensor<12x1024x768xf32>) {
      %1 = arith.cmpi slt, %arg1, %c10_i64 : i64
      scf.condition(%1) %arg0, %arg1, %arg2, %arg3 : i64, i64, tensor<12x1024x768xf32>, tensor<12x1024x768xf32>
    } do {
    ^bb0(%arg0: i64, %arg1: i64, %arg2: tensor<12x1024x768xf32>, %arg3: tensor<12x1024x768xf32>):
      %1 = tensor.empty() : tensor<1x1024xf32>
      %2 = linalg.generic {indexing_maps = [#map], iterator_types = ["parallel", "parallel"]} outs(%1 : tensor<1x1024xf32>) {
      ^bb0(%out: f32):
        %25 = linalg.index 1 : index
        %26 = arith.index_cast %25 : index to i64
        %27 = arith.cmpi sle, %26, %arg1 : i64
        %cst_26 = arith.constant 1.000000e+00 : f32
        %cst_27 = arith.constant 0.000000e+00 : f32
        %28 = arith.select %27, %cst_26, %cst_27 : f32
        linalg.yield %28 : f32
      } -> tensor<1x1024xf32>
      %c0_i64_13 = arith.constant 0 : i64
      %3 = arith.index_cast %arg0 : i64 to index
      %4 = arith.index_cast %c0_i64_13 : i64 to index
      %extracted_slice = tensor.extract_slice %cst[%3, %4] [1, 768] [1, 1] : tensor<32000x768xf32> to tensor<1x768xf32>
      %c1_i64_14 = arith.constant 1 : i64
      %c768_i64 = arith.constant 768 : i64
      %c2048_i64 = arith.constant 2048 : i64
      %c12_i64 = arith.constant 12 : i64
      %c64_i64 = arith.constant 64 : i64
      %cst_15 = arith.constant 1.250000e-01 : f32
      %c1024_i64 = arith.constant 1024 : i64
      %c32000_i64 = arith.constant 32000 : i64
      %5:3 = scf.for %arg4 = %c0 to %c12 step %c1 iter_args(%arg5 = %extracted_slice, %arg6 = %arg2, %arg7 = %arg3) -> (tensor<1x768xf32>, tensor<12x1024x768xf32>, tensor<12x1024x768xf32>) {
        %25 = arith.index_cast %arg4 : index to i64
        %26 = arith.index_cast %25 : i64 to index
        %27 = arith.index_cast %c0_i64_13 : i64 to index
        %extracted_slice_26 = tensor.extract_slice %cst_0[%26, %27] [1, 768] [1, 1] : tensor<12x768xf32> to tensor<1x768xf32>
        %c768_i64_27 = arith.constant 768 : i64
        %from_elements_28 = tensor.from_elements %c768_i64_27 : tensor<1xi64>
        %reshape_29 = tensor.reshape %extracted_slice_26(%from_elements_28) : (tensor<1x768xf32>, tensor<1xi64>) -> tensor<768xf32>
        %28 = tensor.empty() : tensor<1xf32>
        %cst_30 = arith.constant 0.000000e+00 : f32
        %29 = linalg.fill ins(%cst_30 : f32) outs(%28 : tensor<1xf32>) -> tensor<1xf32>
        %30 = linalg.generic {indexing_maps = [#map, #map1], iterator_types = ["parallel", "reduction"]} ins(%arg5 : tensor<1x768xf32>) outs(%29 : tensor<1xf32>) {
        ^bb0(%in: f32, %out: f32):
          %130 = arith.mulf %in, %in : f32
          %131 = arith.addf %out, %130 : f32
          linalg.yield %131 : f32
        } -> tensor<1xf32>
        %c1_31 = arith.constant 1 : index
        %dim_32 = tensor.dim %arg5, %c1_31 : tensor<1x768xf32>
        %31 = arith.index_cast %dim_32 : index to i64
        %32 = arith.uitofp %31 : i64 to f32
        %cst_33 = arith.constant 9.99999974E-6 : f32
        %33 = tensor.empty() : tensor<1xf32>
        %34 = linalg.generic {indexing_maps = [#map2, #map2], iterator_types = ["parallel"]} ins(%30 : tensor<1xf32>) outs(%33 : tensor<1xf32>) {
        ^bb0(%in: f32, %out: f32):
          %130 = arith.divf %in, %32 : f32
          %131 = arith.addf %130, %cst_33 : f32
          %132 = math.rsqrt %131 : f32
          linalg.yield %132 : f32
        } -> tensor<1xf32>
        %35 = tensor.empty() : tensor<1x768xf32>
        %36 = linalg.generic {indexing_maps = [#map, #map1, #map3, #map], iterator_types = ["parallel", "parallel"]} ins(%arg5, %34, %reshape_29 : tensor<1x768xf32>, tensor<1xf32>, tensor<768xf32>) outs(%35 : tensor<1x768xf32>) {
        ^bb0(%in: f32, %in_169: f32, %in_170: f32, %out: f32):
          %130 = arith.mulf %in, %in_169 : f32
          %131 = arith.mulf %130, %in_170 : f32
          linalg.yield %131 : f32
        } -> tensor<1x768xf32>
        %37 = arith.index_cast %25 : i64 to index
        %38 = arith.index_cast %c0_i64_13 : i64 to index
        %39 = arith.index_cast %c0_i64_13 : i64 to index
        %extracted_slice_34 = tensor.extract_slice %cst_1[%37, %38, %39] [1, 768, 768] [1, 1, 1] : tensor<12x768x768xf32> to tensor<1x768x768xf32>
        %c768_i64_35 = arith.constant 768 : i64
        %c768_i64_36 = arith.constant 768 : i64
        %from_elements_37 = tensor.from_elements %c768_i64_35, %c768_i64_36 : tensor<2xi64>
        %reshape_38 = tensor.reshape %extracted_slice_34(%from_elements_37) : (tensor<1x768x768xf32>, tensor<2xi64>) -> tensor<768x768xf32>
        %40 = arith.index_cast %25 : i64 to index
        %41 = arith.index_cast %c0_i64_13 : i64 to index
        %42 = arith.index_cast %c0_i64_13 : i64 to index
        %extracted_slice_39 = tensor.extract_slice %cst_2[%40, %41, %42] [1, 768, 768] [1, 1, 1] : tensor<12x768x768xf32> to tensor<1x768x768xf32>
        %c768_i64_40 = arith.constant 768 : i64
        %c768_i64_41 = arith.constant 768 : i64
        %from_elements_42 = tensor.from_elements %c768_i64_40, %c768_i64_41 : tensor<2xi64>
        %reshape_43 = tensor.reshape %extracted_slice_39(%from_elements_42) : (tensor<1x768x768xf32>, tensor<2xi64>) -> tensor<768x768xf32>
        %43 = arith.index_cast %25 : i64 to index
        %44 = arith.index_cast %c0_i64_13 : i64 to index
        %45 = arith.index_cast %c0_i64_13 : i64 to index
        %extracted_slice_44 = tensor.extract_slice %cst_3[%43, %44, %45] [1, 768, 768] [1, 1, 1] : tensor<12x768x768xf32> to tensor<1x768x768xf32>
        %c768_i64_45 = arith.constant 768 : i64
        %c768_i64_46 = arith.constant 768 : i64
        %from_elements_47 = tensor.from_elements %c768_i64_45, %c768_i64_46 : tensor<2xi64>
        %reshape_48 = tensor.reshape %extracted_slice_44(%from_elements_47) : (tensor<1x768x768xf32>, tensor<2xi64>) -> tensor<768x768xf32>
        %46 = tensor.empty() : tensor<1x768xf32>
        %cst_49 = arith.constant 0.000000e+00 : f32
        %47 = linalg.fill ins(%cst_49 : f32) outs(%46 : tensor<1x768xf32>) -> tensor<1x768xf32>
        %48 = linalg.generic {indexing_maps = [#map4, #map5, #map6], iterator_types = ["parallel", "parallel", "reduction"]} ins(%36, %reshape_38 : tensor<1x768xf32>, tensor<768x768xf32>) outs(%47 : tensor<1x768xf32>) {
        ^bb0(%in: f32, %in_169: f32, %out: f32):
          %130 = arith.mulf %in, %in_169 : f32
          %131 = arith.addf %out, %130 : f32
          linalg.yield %131 : f32
        } -> tensor<1x768xf32>
        %49 = tensor.empty() : tensor<1x768xf32>
        %cst_50 = arith.constant 0.000000e+00 : f32
        %50 = linalg.fill ins(%cst_50 : f32) outs(%49 : tensor<1x768xf32>) -> tensor<1x768xf32>
        %51 = linalg.generic {indexing_maps = [#map4, #map5, #map6], iterator_types = ["parallel", "parallel", "reduction"]} ins(%36, %reshape_43 : tensor<1x768xf32>, tensor<768x768xf32>) outs(%50 : tensor<1x768xf32>) {
        ^bb0(%in: f32, %in_169: f32, %out: f32):
          %130 = arith.mulf %in, %in_169 : f32
          %131 = arith.addf %out, %130 : f32
          linalg.yield %131 : f32
        } -> tensor<1x768xf32>
        %52 = tensor.empty() : tensor<1x768xf32>
        %cst_51 = arith.constant 0.000000e+00 : f32
        %53 = linalg.fill ins(%cst_51 : f32) outs(%52 : tensor<1x768xf32>) -> tensor<1x768xf32>
        %54 = linalg.generic {indexing_maps = [#map4, #map5, #map6], iterator_types = ["parallel", "parallel", "reduction"]} ins(%36, %reshape_48 : tensor<1x768xf32>, tensor<768x768xf32>) outs(%53 : tensor<1x768xf32>) {
        ^bb0(%in: f32, %in_169: f32, %out: f32):
          %130 = arith.mulf %in, %in_169 : f32
          %131 = arith.addf %out, %130 : f32
          linalg.yield %131 : f32
        } -> tensor<1x768xf32>
        %c1_i64_52 = arith.constant 1 : i64
        %c12_i64_53 = arith.constant 12 : i64
        %c64_i64_54 = arith.constant 64 : i64
        %from_elements_55 = tensor.from_elements %c1_i64_52, %c12_i64_53, %c64_i64_54 : tensor<3xi64>
        %reshape_56 = tensor.reshape %48(%from_elements_55) : (tensor<1x768xf32>, tensor<3xi64>) -> tensor<1x12x64xf32>
        %55 = tensor.empty() : tensor<32xf32>
        %56 = tensor.empty() : tensor<32xf32>
        %57 = arith.uitofp %arg1 : i64 to f32
        %58:2 = linalg.generic {indexing_maps = [#map2, #map2], iterator_types = ["parallel"]} outs(%55, %56 : tensor<32xf32>, tensor<32xf32>) {
        ^bb0(%out: f32, %out_169: f32):
          %130 = linalg.index 0 : index
          %131 = arith.index_cast %130 : index to i64
          %132 = arith.uitofp %131 : i64 to f32
          %cst_170 = arith.constant 1.000000e+04 : f32
          %cst_171 = arith.constant 6.400000e+01 : f32
          %cst_172 = arith.constant -2.000000e+00 : f32
          %133 = arith.mulf %cst_172, %132 : f32
          %134 = arith.divf %133, %cst_171 : f32
          %135 = math.powf %cst_170, %134 : f32
          %136 = arith.mulf %57, %135 : f32
          %137 = math.cos %136 : f32
          %138 = math.sin %136 : f32
          linalg.yield %137, %138 : f32, f32
        } -> (tensor<32xf32>, tensor<32xf32>)
        %expanded = tensor.expand_shape %reshape_56 [[0], [1], [2, 3]] output_shape [1, 12, 32, 2] : tensor<1x12x64xf32> into tensor<1x12x32x2xf32>
        %extracted_slice_57 = tensor.extract_slice %expanded[0, 0, 0, 0] [1, 12, 32, 1] [1, 1, 1, 1] : tensor<1x12x32x2xf32> to tensor<1x12x32x1xf32>
        %collapsed = tensor.collapse_shape %extracted_slice_57 [[0], [1], [2, 3]] : tensor<1x12x32x1xf32> into tensor<1x12x32xf32>
        %extracted_slice_58 = tensor.extract_slice %expanded[0, 0, 0, 1] [1, 12, 32, 1] [1, 1, 1, 1] : tensor<1x12x32x2xf32> to tensor<1x12x32x1xf32>
        %collapsed_59 = tensor.collapse_shape %extracted_slice_58 [[0], [1], [2, 3]] : tensor<1x12x32x1xf32> into tensor<1x12x32xf32>
        %59 = tensor.empty() : tensor<1x12x32xf32>
        %60:2 = linalg.generic {indexing_maps = [#map7, #map7, #map8, #map8, #map7, #map7], iterator_types = ["parallel", "parallel", "parallel"]} ins(%collapsed, %collapsed_59, %58#0, %58#1 : tensor<1x12x32xf32>, tensor<1x12x32xf32>, tensor<32xf32>, tensor<32xf32>) outs(%59, %59 : tensor<1x12x32xf32>, tensor<1x12x32xf32>) {
        ^bb0(%in: f32, %in_169: f32, %in_170: f32, %in_171: f32, %out: f32, %out_172: f32):
          %130 = arith.mulf %in, %in_170 : f32
          %131 = arith.mulf %in_169, %in_171 : f32
          %132 = arith.subf %130, %131 : f32
          %133 = arith.mulf %in_169, %in_170 : f32
          %134 = arith.mulf %in, %in_171 : f32
          %135 = arith.addf %133, %134 : f32
          linalg.yield %132, %135 : f32, f32
        } -> (tensor<1x12x32xf32>, tensor<1x12x32xf32>)
        %expanded_60 = tensor.expand_shape %60#0 [[0], [1], [2, 3]] output_shape [1, 12, 32, 1] : tensor<1x12x32xf32> into tensor<1x12x32x1xf32>
        %expanded_61 = tensor.expand_shape %60#1 [[0], [1], [2, 3]] output_shape [1, 12, 32, 1] : tensor<1x12x32xf32> into tensor<1x12x32x1xf32>
        %61 = tensor.empty() : tensor<1x12x32x2xf32>
        %inserted_slice = tensor.insert_slice %expanded_60 into %61[0, 0, 0, 0] [1, 12, 32, 1] [1, 1, 1, 1] : tensor<1x12x32x1xf32> into tensor<1x12x32x2xf32>
        %inserted_slice_62 = tensor.insert_slice %expanded_61 into %inserted_slice[0, 0, 0, 1] [1, 12, 32, 1] [1, 1, 1, 1] : tensor<1x12x32x1xf32> into tensor<1x12x32x2xf32>
        %collapsed_63 = tensor.collapse_shape %inserted_slice_62 [[0], [1], [2, 3]] : tensor<1x12x32x2xf32> into tensor<1x12x64xf32>
        %c1_i64_64 = arith.constant 1 : i64
        %c768_i64_65 = arith.constant 768 : i64
        %from_elements_66 = tensor.from_elements %c1_i64_64, %c768_i64_65 : tensor<2xi64>
        %reshape_67 = tensor.reshape %collapsed_63(%from_elements_66) : (tensor<1x12x64xf32>, tensor<2xi64>) -> tensor<1x768xf32>
        %c1_i64_68 = arith.constant 1 : i64
        %c12_i64_69 = arith.constant 12 : i64
        %c64_i64_70 = arith.constant 64 : i64
        %from_elements_71 = tensor.from_elements %c1_i64_68, %c12_i64_69, %c64_i64_70 : tensor<3xi64>
        %reshape_72 = tensor.reshape %51(%from_elements_71) : (tensor<1x768xf32>, tensor<3xi64>) -> tensor<1x12x64xf32>
        %62 = tensor.empty() : tensor<32xf32>
        %63 = tensor.empty() : tensor<32xf32>
        %64 = arith.uitofp %arg1 : i64 to f32
        %65:2 = linalg.generic {indexing_maps = [#map2, #map2], iterator_types = ["parallel"]} outs(%62, %63 : tensor<32xf32>, tensor<32xf32>) {
        ^bb0(%out: f32, %out_169: f32):
          %130 = linalg.index 0 : index
          %131 = arith.index_cast %130 : index to i64
          %132 = arith.uitofp %131 : i64 to f32
          %cst_170 = arith.constant 1.000000e+04 : f32
          %cst_171 = arith.constant 6.400000e+01 : f32
          %cst_172 = arith.constant -2.000000e+00 : f32
          %133 = arith.mulf %cst_172, %132 : f32
          %134 = arith.divf %133, %cst_171 : f32
          %135 = math.powf %cst_170, %134 : f32
          %136 = arith.mulf %64, %135 : f32
          %137 = math.cos %136 : f32
          %138 = math.sin %136 : f32
          linalg.yield %137, %138 : f32, f32
        } -> (tensor<32xf32>, tensor<32xf32>)
        %expanded_73 = tensor.expand_shape %reshape_72 [[0], [1], [2, 3]] output_shape [1, 12, 32, 2] : tensor<1x12x64xf32> into tensor<1x12x32x2xf32>
        %extracted_slice_74 = tensor.extract_slice %expanded_73[0, 0, 0, 0] [1, 12, 32, 1] [1, 1, 1, 1] : tensor<1x12x32x2xf32> to tensor<1x12x32x1xf32>
        %collapsed_75 = tensor.collapse_shape %extracted_slice_74 [[0], [1], [2, 3]] : tensor<1x12x32x1xf32> into tensor<1x12x32xf32>
        %extracted_slice_76 = tensor.extract_slice %expanded_73[0, 0, 0, 1] [1, 12, 32, 1] [1, 1, 1, 1] : tensor<1x12x32x2xf32> to tensor<1x12x32x1xf32>
        %collapsed_77 = tensor.collapse_shape %extracted_slice_76 [[0], [1], [2, 3]] : tensor<1x12x32x1xf32> into tensor<1x12x32xf32>
        %66 = tensor.empty() : tensor<1x12x32xf32>
        %67:2 = linalg.generic {indexing_maps = [#map7, #map7, #map8, #map8, #map7, #map7], iterator_types = ["parallel", "parallel", "parallel"]} ins(%collapsed_75, %collapsed_77, %65#0, %65#1 : tensor<1x12x32xf32>, tensor<1x12x32xf32>, tensor<32xf32>, tensor<32xf32>) outs(%66, %66 : tensor<1x12x32xf32>, tensor<1x12x32xf32>) {
        ^bb0(%in: f32, %in_169: f32, %in_170: f32, %in_171: f32, %out: f32, %out_172: f32):
          %130 = arith.mulf %in, %in_170 : f32
          %131 = arith.mulf %in_169, %in_171 : f32
          %132 = arith.subf %130, %131 : f32
          %133 = arith.mulf %in_169, %in_170 : f32
          %134 = arith.mulf %in, %in_171 : f32
          %135 = arith.addf %133, %134 : f32
          linalg.yield %132, %135 : f32, f32
        } -> (tensor<1x12x32xf32>, tensor<1x12x32xf32>)
        %expanded_78 = tensor.expand_shape %67#0 [[0], [1], [2, 3]] output_shape [1, 12, 32, 1] : tensor<1x12x32xf32> into tensor<1x12x32x1xf32>
        %expanded_79 = tensor.expand_shape %67#1 [[0], [1], [2, 3]] output_shape [1, 12, 32, 1] : tensor<1x12x32xf32> into tensor<1x12x32x1xf32>
        %68 = tensor.empty() : tensor<1x12x32x2xf32>
        %inserted_slice_80 = tensor.insert_slice %expanded_78 into %68[0, 0, 0, 0] [1, 12, 32, 1] [1, 1, 1, 1] : tensor<1x12x32x1xf32> into tensor<1x12x32x2xf32>
        %inserted_slice_81 = tensor.insert_slice %expanded_79 into %inserted_slice_80[0, 0, 0, 1] [1, 12, 32, 1] [1, 1, 1, 1] : tensor<1x12x32x1xf32> into tensor<1x12x32x2xf32>
        %collapsed_82 = tensor.collapse_shape %inserted_slice_81 [[0], [1], [2, 3]] : tensor<1x12x32x2xf32> into tensor<1x12x64xf32>
        %c1_i64_83 = arith.constant 1 : i64
        %c768_i64_84 = arith.constant 768 : i64
        %from_elements_85 = tensor.from_elements %c1_i64_83, %c768_i64_84 : tensor<2xi64>
        %reshape_86 = tensor.reshape %collapsed_82(%from_elements_85) : (tensor<1x12x64xf32>, tensor<2xi64>) -> tensor<1x768xf32>
        %c1_i64_87 = arith.constant 1 : i64
        %c12_i64_88 = arith.constant 12 : i64
        %c64_i64_89 = arith.constant 64 : i64
        %from_elements_90 = tensor.from_elements %c1_i64_87, %c12_i64_88, %c64_i64_89 : tensor<3xi64>
        %reshape_91 = tensor.reshape %54(%from_elements_90) : (tensor<1x768xf32>, tensor<3xi64>) -> tensor<1x12x64xf32>
        %69 = tensor.empty() : tensor<32xf32>
        %70 = tensor.empty() : tensor<32xf32>
        %71 = arith.uitofp %arg1 : i64 to f32
        %72:2 = linalg.generic {indexing_maps = [#map2, #map2], iterator_types = ["parallel"]} outs(%69, %70 : tensor<32xf32>, tensor<32xf32>) {
        ^bb0(%out: f32, %out_169: f32):
          %130 = linalg.index 0 : index
          %131 = arith.index_cast %130 : index to i64
          %132 = arith.uitofp %131 : i64 to f32
          %cst_170 = arith.constant 1.000000e+04 : f32
          %cst_171 = arith.constant 6.400000e+01 : f32
          %cst_172 = arith.constant -2.000000e+00 : f32
          %133 = arith.mulf %cst_172, %132 : f32
          %134 = arith.divf %133, %cst_171 : f32
          %135 = math.powf %cst_170, %134 : f32
          %136 = arith.mulf %71, %135 : f32
          %137 = math.cos %136 : f32
          %138 = math.sin %136 : f32
          linalg.yield %137, %138 : f32, f32
        } -> (tensor<32xf32>, tensor<32xf32>)
        %expanded_92 = tensor.expand_shape %reshape_91 [[0], [1], [2, 3]] output_shape [1, 12, 32, 2] : tensor<1x12x64xf32> into tensor<1x12x32x2xf32>
        %extracted_slice_93 = tensor.extract_slice %expanded_92[0, 0, 0, 0] [1, 12, 32, 1] [1, 1, 1, 1] : tensor<1x12x32x2xf32> to tensor<1x12x32x1xf32>
        %collapsed_94 = tensor.collapse_shape %extracted_slice_93 [[0], [1], [2, 3]] : tensor<1x12x32x1xf32> into tensor<1x12x32xf32>
        %extracted_slice_95 = tensor.extract_slice %expanded_92[0, 0, 0, 1] [1, 12, 32, 1] [1, 1, 1, 1] : tensor<1x12x32x2xf32> to tensor<1x12x32x1xf32>
        %collapsed_96 = tensor.collapse_shape %extracted_slice_95 [[0], [1], [2, 3]] : tensor<1x12x32x1xf32> into tensor<1x12x32xf32>
        %73 = tensor.empty() : tensor<1x12x32xf32>
        %74:2 = linalg.generic {indexing_maps = [#map7, #map7, #map8, #map8, #map7, #map7], iterator_types = ["parallel", "parallel", "parallel"]} ins(%collapsed_94, %collapsed_96, %72#0, %72#1 : tensor<1x12x32xf32>, tensor<1x12x32xf32>, tensor<32xf32>, tensor<32xf32>) outs(%73, %73 : tensor<1x12x32xf32>, tensor<1x12x32xf32>) {
        ^bb0(%in: f32, %in_169: f32, %in_170: f32, %in_171: f32, %out: f32, %out_172: f32):
          %130 = arith.mulf %in, %in_170 : f32
          %131 = arith.mulf %in_169, %in_171 : f32
          %132 = arith.subf %130, %131 : f32
          %133 = arith.mulf %in_169, %in_170 : f32
          %134 = arith.mulf %in, %in_171 : f32
          %135 = arith.addf %133, %134 : f32
          linalg.yield %132, %135 : f32, f32
        } -> (tensor<1x12x32xf32>, tensor<1x12x32xf32>)
        %expanded_97 = tensor.expand_shape %74#0 [[0], [1], [2, 3]] output_shape [1, 12, 32, 1] : tensor<1x12x32xf32> into tensor<1x12x32x1xf32>
        %expanded_98 = tensor.expand_shape %74#1 [[0], [1], [2, 3]] output_shape [1, 12, 32, 1] : tensor<1x12x32xf32> into tensor<1x12x32x1xf32>
        %75 = tensor.empty() : tensor<1x12x32x2xf32>
        %inserted_slice_99 = tensor.insert_slice %expanded_97 into %75[0, 0, 0, 0] [1, 12, 32, 1] [1, 1, 1, 1] : tensor<1x12x32x1xf32> into tensor<1x12x32x2xf32>
        %inserted_slice_100 = tensor.insert_slice %expanded_98 into %inserted_slice_99[0, 0, 0, 1] [1, 12, 32, 1] [1, 1, 1, 1] : tensor<1x12x32x1xf32> into tensor<1x12x32x2xf32>
        %collapsed_101 = tensor.collapse_shape %inserted_slice_100 [[0], [1], [2, 3]] : tensor<1x12x32x2xf32> into tensor<1x12x64xf32>
        %c1_i64_102 = arith.constant 1 : i64
        %c768_i64_103 = arith.constant 768 : i64
        %from_elements_104 = tensor.from_elements %c1_i64_102, %c768_i64_103 : tensor<2xi64>
        %reshape_105 = tensor.reshape %collapsed_101(%from_elements_104) : (tensor<1x12x64xf32>, tensor<2xi64>) -> tensor<1x768xf32>
        %c1_i64_106 = arith.constant 1 : i64
        %c1_i64_107 = arith.constant 1 : i64
        %c768_i64_108 = arith.constant 768 : i64
        %from_elements_109 = tensor.from_elements %c1_i64_106, %c1_i64_107, %c768_i64_108 : tensor<3xi64>
        %reshape_110 = tensor.reshape %reshape_86(%from_elements_109) : (tensor<1x768xf32>, tensor<3xi64>) -> tensor<1x1x768xf32>
        %c0_111 = arith.constant 0 : index
        %c1_112 = arith.constant 1 : index
        %76 = arith.index_cast %25 : i64 to index
        %77 = arith.index_cast %arg1 : i64 to index
        %inserted_slice_113 = tensor.insert_slice %reshape_110 into %arg6[%76, %77, 0] [1, 1, 768] [1, 1, 1] : tensor<1x1x768xf32> into tensor<12x1024x768xf32>
        %c1_i64_114 = arith.constant 1 : i64
        %c1_i64_115 = arith.constant 1 : i64
        %c768_i64_116 = arith.constant 768 : i64
        %from_elements_117 = tensor.from_elements %c1_i64_114, %c1_i64_115, %c768_i64_116 : tensor<3xi64>
        %reshape_118 = tensor.reshape %reshape_105(%from_elements_117) : (tensor<1x768xf32>, tensor<3xi64>) -> tensor<1x1x768xf32>
        %c0_119 = arith.constant 0 : index
        %c1_120 = arith.constant 1 : index
        %78 = arith.index_cast %25 : i64 to index
        %79 = arith.index_cast %arg1 : i64 to index
        %inserted_slice_121 = tensor.insert_slice %reshape_118 into %arg7[%78, %79, 0] [1, 1, 768] [1, 1, 1] : tensor<1x1x768xf32> into tensor<12x1024x768xf32>
        %80 = arith.index_cast %25 : i64 to index
        %81 = arith.index_cast %c0_i64_13 : i64 to index
        %82 = arith.index_cast %c0_i64_13 : i64 to index
        %extracted_slice_122 = tensor.extract_slice %inserted_slice_113[%80, %81, %82] [1, 1024, 768] [1, 1, 1] : tensor<12x1024x768xf32> to tensor<1x1024x768xf32>
        %c1024_i64_123 = arith.constant 1024 : i64
        %c768_i64_124 = arith.constant 768 : i64
        %from_elements_125 = tensor.from_elements %c1024_i64_123, %c768_i64_124 : tensor<2xi64>
        %reshape_126 = tensor.reshape %extracted_slice_122(%from_elements_125) : (tensor<1x1024x768xf32>, tensor<2xi64>) -> tensor<1024x768xf32>
        %83 = arith.index_cast %25 : i64 to index
        %84 = arith.index_cast %c0_i64_13 : i64 to index
        %85 = arith.index_cast %c0_i64_13 : i64 to index
        %extracted_slice_127 = tensor.extract_slice %inserted_slice_121[%83, %84, %85] [1, 1024, 768] [1, 1, 1] : tensor<12x1024x768xf32> to tensor<1x1024x768xf32>
        %c1024_i64_128 = arith.constant 1024 : i64
        %c768_i64_129 = arith.constant 768 : i64
        %from_elements_130 = tensor.from_elements %c1024_i64_128, %c768_i64_129 : tensor<2xi64>
        %reshape_131 = tensor.reshape %extracted_slice_127(%from_elements_130) : (tensor<1x1024x768xf32>, tensor<2xi64>) -> tensor<1024x768xf32>
        %cst_132 = arith.constant dense<0.000000e+00> : tensor<1x12x64xf32>
        %86 = scf.for %arg8 = %c0 to %c12 step %c1 iter_args(%arg9 = %cst_132) -> (tensor<1x12x64xf32>) {
          %130 = arith.index_cast %arg8 : index to i64
          %131 = arith.muli %130, %c64_i64 : i64
          %132 = arith.index_cast %c0_i64_13 : i64 to index
          %133 = arith.index_cast %131 : i64 to index
          %extracted_slice_169 = tensor.extract_slice %reshape_67[%132, %133] [1, 64] [1, 1] : tensor<1x768xf32> to tensor<1x64xf32>
          %134 = arith.index_cast %c0_i64_13 : i64 to index
          %135 = arith.index_cast %131 : i64 to index
          %extracted_slice_170 = tensor.extract_slice %reshape_126[%134, %135] [1024, 64] [1, 1] : tensor<1024x768xf32> to tensor<1024x64xf32>
          %136 = tensor.empty() : tensor<64x1024xf32>
          %transposed = linalg.transpose ins(%extracted_slice_170 : tensor<1024x64xf32>) outs(%136 : tensor<64x1024xf32>) permutation = [1, 0] 
          %137 = tensor.empty() : tensor<1x1024xf32>
          %cst_171 = arith.constant 0.000000e+00 : f32
          %138 = linalg.fill ins(%cst_171 : f32) outs(%137 : tensor<1x1024xf32>) -> tensor<1x1024xf32>
          %139 = linalg.generic {indexing_maps = [#map4, #map5, #map6, #map6], iterator_types = ["parallel", "parallel", "reduction"]} ins(%extracted_slice_169, %transposed, %2 : tensor<1x64xf32>, tensor<64x1024xf32>, tensor<1x1024xf32>) outs(%138 : tensor<1x1024xf32>) {
          ^bb0(%in: f32, %in_184: f32, %in_185: f32, %out: f32):
            %159 = arith.mulf %in, %in_184 : f32
            %160 = arith.addf %out, %159 : f32
            %cst_186 = arith.constant -1.000000e+09 : f32
            %cst_187 = arith.constant 5.000000e-01 : f32
            %161 = arith.cmpf ugt, %in_185, %cst_187 : f32
            %162 = arith.select %161, %160, %cst_186 : f32
            linalg.yield %162 : f32
          } -> tensor<1x1024xf32>
          %140 = tensor.empty() : tensor<1x1024xf32>
          %141 = linalg.generic {indexing_maps = [#map, #map], iterator_types = ["parallel", "parallel"]} ins(%139 : tensor<1x1024xf32>) outs(%140 : tensor<1x1024xf32>) {
          ^bb0(%in: f32, %out: f32):
            %159 = arith.mulf %in, %cst_15 : f32
            linalg.yield %159 : f32
          } -> tensor<1x1024xf32>
          %142 = tensor.empty() : tensor<1xf32>
          %cst_172 = arith.constant 0xFF800000 : f32
          %143 = linalg.fill ins(%cst_172 : f32) outs(%142 : tensor<1xf32>) -> tensor<1xf32>
          %144 = linalg.generic {indexing_maps = [#map, #map1], iterator_types = ["parallel", "reduction"]} ins(%141 : tensor<1x1024xf32>) outs(%143 : tensor<1xf32>) {
          ^bb0(%in: f32, %out: f32):
            %159 = arith.maxnumf %in, %out : f32
            linalg.yield %159 : f32
          } -> tensor<1xf32>
          %145 = tensor.empty() : tensor<1x1024xf32>
          %146 = linalg.generic {indexing_maps = [#map, #map1, #map], iterator_types = ["parallel", "parallel"]} ins(%141, %144 : tensor<1x1024xf32>, tensor<1xf32>) outs(%145 : tensor<1x1024xf32>) {
          ^bb0(%in: f32, %in_184: f32, %out: f32):
            %159 = arith.subf %in, %in_184 : f32
            %160 = math.exp %159 : f32
            linalg.yield %160 : f32
          } -> tensor<1x1024xf32>
          %147 = tensor.empty() : tensor<1xf32>
          %cst_173 = arith.constant 0.000000e+00 : f32
          %148 = linalg.fill ins(%cst_173 : f32) outs(%147 : tensor<1xf32>) -> tensor<1xf32>
          %149 = linalg.generic {indexing_maps = [#map, #map1], iterator_types = ["parallel", "parallel"]} ins(%146 : tensor<1x1024xf32>) outs(%148 : tensor<1xf32>) {
          ^bb0(%in: f32, %out: f32):
            %159 = arith.addf %in, %out : f32
            linalg.yield %159 : f32
          } -> tensor<1xf32>
          %150 = tensor.empty() : tensor<1x1024xf32>
          %151 = linalg.generic {indexing_maps = [#map, #map1, #map], iterator_types = ["parallel", "parallel"]} ins(%146, %149 : tensor<1x1024xf32>, tensor<1xf32>) outs(%150 : tensor<1x1024xf32>) {
          ^bb0(%in: f32, %in_184: f32, %out: f32):
            %159 = arith.divf %in, %in_184 : f32
            linalg.yield %159 : f32
          } -> tensor<1x1024xf32>
          %152 = arith.index_cast %c0_i64_13 : i64 to index
          %153 = arith.index_cast %131 : i64 to index
          %extracted_slice_174 = tensor.extract_slice %reshape_131[%152, %153] [1024, 64] [1, 1] : tensor<1024x768xf32> to tensor<1024x64xf32>
          %154 = tensor.empty() : tensor<1x64xf32>
          %cst_175 = arith.constant 0.000000e+00 : f32
          %155 = linalg.fill ins(%cst_175 : f32) outs(%154 : tensor<1x64xf32>) -> tensor<1x64xf32>
          %156 = linalg.generic {indexing_maps = [#map4, #map5, #map6], iterator_types = ["parallel", "parallel", "reduction"]} ins(%151, %extracted_slice_174 : tensor<1x1024xf32>, tensor<1024x64xf32>) outs(%155 : tensor<1x64xf32>) {
          ^bb0(%in: f32, %in_184: f32, %out: f32):
            %159 = arith.mulf %in, %in_184 : f32
            %160 = arith.addf %out, %159 : f32
            linalg.yield %160 : f32
          } -> tensor<1x64xf32>
          %c1_i64_176 = arith.constant 1 : i64
          %c1_i64_177 = arith.constant 1 : i64
          %c64_i64_178 = arith.constant 64 : i64
          %from_elements_179 = tensor.from_elements %c1_i64_176, %c1_i64_177, %c64_i64_178 : tensor<3xi64>
          %reshape_180 = tensor.reshape %156(%from_elements_179) : (tensor<1x64xf32>, tensor<3xi64>) -> tensor<1x1x64xf32>
          %c0_181 = arith.constant 0 : index
          %c1_182 = arith.constant 1 : index
          %157 = arith.index_cast %c0_i64_13 : i64 to index
          %158 = arith.index_cast %130 : i64 to index
          %inserted_slice_183 = tensor.insert_slice %reshape_180 into %arg9[%157, %158, 0] [1, 1, 64] [1, 1, 1] : tensor<1x1x64xf32> into tensor<1x12x64xf32>
          scf.yield %inserted_slice_183 : tensor<1x12x64xf32>
        }
        %c1_i64_133 = arith.constant 1 : i64
        %c768_i64_134 = arith.constant 768 : i64
        %from_elements_135 = tensor.from_elements %c1_i64_133, %c768_i64_134 : tensor<2xi64>
        %reshape_136 = tensor.reshape %86(%from_elements_135) : (tensor<1x12x64xf32>, tensor<2xi64>) -> tensor<1x768xf32>
        %87 = arith.index_cast %25 : i64 to index
        %88 = arith.index_cast %c0_i64_13 : i64 to index
        %89 = arith.index_cast %c0_i64_13 : i64 to index
        %extracted_slice_137 = tensor.extract_slice %cst_4[%87, %88, %89] [1, 768, 768] [1, 1, 1] : tensor<12x768x768xf32> to tensor<1x768x768xf32>
        %c768_i64_138 = arith.constant 768 : i64
        %c768_i64_139 = arith.constant 768 : i64
        %from_elements_140 = tensor.from_elements %c768_i64_138, %c768_i64_139 : tensor<2xi64>
        %reshape_141 = tensor.reshape %extracted_slice_137(%from_elements_140) : (tensor<1x768x768xf32>, tensor<2xi64>) -> tensor<768x768xf32>
        %90 = tensor.empty() : tensor<1x768xf32>
        %cst_142 = arith.constant 0.000000e+00 : f32
        %91 = linalg.fill ins(%cst_142 : f32) outs(%90 : tensor<1x768xf32>) -> tensor<1x768xf32>
        %92 = linalg.generic {indexing_maps = [#map4, #map5, #map6], iterator_types = ["parallel", "parallel", "reduction"]} ins(%reshape_136, %reshape_141 : tensor<1x768xf32>, tensor<768x768xf32>) outs(%91 : tensor<1x768xf32>) {
        ^bb0(%in: f32, %in_169: f32, %out: f32):
          %130 = arith.mulf %in, %in_169 : f32
          %131 = arith.addf %out, %130 : f32
          linalg.yield %131 : f32
        } -> tensor<1x768xf32>
        %93 = tensor.empty() : tensor<1x768xf32>
        %94 = linalg.add ins(%arg5, %92 : tensor<1x768xf32>, tensor<1x768xf32>) outs(%93 : tensor<1x768xf32>) -> tensor<1x768xf32>
        %95 = arith.index_cast %25 : i64 to index
        %96 = arith.index_cast %c0_i64_13 : i64 to index
        %extracted_slice_143 = tensor.extract_slice %cst_5[%95, %96] [1, 768] [1, 1] : tensor<12x768xf32> to tensor<1x768xf32>
        %c768_i64_144 = arith.constant 768 : i64
        %from_elements_145 = tensor.from_elements %c768_i64_144 : tensor<1xi64>
        %reshape_146 = tensor.reshape %extracted_slice_143(%from_elements_145) : (tensor<1x768xf32>, tensor<1xi64>) -> tensor<768xf32>
        %97 = tensor.empty() : tensor<1xf32>
        %cst_147 = arith.constant 0.000000e+00 : f32
        %98 = linalg.fill ins(%cst_147 : f32) outs(%97 : tensor<1xf32>) -> tensor<1xf32>
        %99 = linalg.generic {indexing_maps = [#map, #map1], iterator_types = ["parallel", "reduction"]} ins(%94 : tensor<1x768xf32>) outs(%98 : tensor<1xf32>) {
        ^bb0(%in: f32, %out: f32):
          %130 = arith.mulf %in, %in : f32
          %131 = arith.addf %out, %130 : f32
          linalg.yield %131 : f32
        } -> tensor<1xf32>
        %c1_148 = arith.constant 1 : index
        %dim_149 = tensor.dim %94, %c1_148 : tensor<1x768xf32>
        %100 = arith.index_cast %dim_149 : index to i64
        %101 = arith.uitofp %100 : i64 to f32
        %cst_150 = arith.constant 9.99999974E-6 : f32
        %102 = tensor.empty() : tensor<1xf32>
        %103 = linalg.generic {indexing_maps = [#map2, #map2], iterator_types = ["parallel"]} ins(%99 : tensor<1xf32>) outs(%102 : tensor<1xf32>) {
        ^bb0(%in: f32, %out: f32):
          %130 = arith.divf %in, %101 : f32
          %131 = arith.addf %130, %cst_150 : f32
          %132 = math.rsqrt %131 : f32
          linalg.yield %132 : f32
        } -> tensor<1xf32>
        %104 = tensor.empty() : tensor<1x768xf32>
        %105 = linalg.generic {indexing_maps = [#map, #map1, #map3, #map], iterator_types = ["parallel", "parallel"]} ins(%94, %103, %reshape_146 : tensor<1x768xf32>, tensor<1xf32>, tensor<768xf32>) outs(%104 : tensor<1x768xf32>) {
        ^bb0(%in: f32, %in_169: f32, %in_170: f32, %out: f32):
          %130 = arith.mulf %in, %in_169 : f32
          %131 = arith.mulf %130, %in_170 : f32
          linalg.yield %131 : f32
        } -> tensor<1x768xf32>
        %106 = arith.index_cast %25 : i64 to index
        %107 = arith.index_cast %c0_i64_13 : i64 to index
        %108 = arith.index_cast %c0_i64_13 : i64 to index
        %extracted_slice_151 = tensor.extract_slice %cst_6[%106, %107, %108] [1, 768, 2048] [1, 1, 1] : tensor<12x768x2048xf32> to tensor<1x768x2048xf32>
        %c768_i64_152 = arith.constant 768 : i64
        %c2048_i64_153 = arith.constant 2048 : i64
        %from_elements_154 = tensor.from_elements %c768_i64_152, %c2048_i64_153 : tensor<2xi64>
        %reshape_155 = tensor.reshape %extracted_slice_151(%from_elements_154) : (tensor<1x768x2048xf32>, tensor<2xi64>) -> tensor<768x2048xf32>
        %109 = arith.index_cast %25 : i64 to index
        %110 = arith.index_cast %c0_i64_13 : i64 to index
        %111 = arith.index_cast %c0_i64_13 : i64 to index
        %extracted_slice_156 = tensor.extract_slice %cst_8[%109, %110, %111] [1, 768, 2048] [1, 1, 1] : tensor<12x768x2048xf32> to tensor<1x768x2048xf32>
        %c768_i64_157 = arith.constant 768 : i64
        %c2048_i64_158 = arith.constant 2048 : i64
        %from_elements_159 = tensor.from_elements %c768_i64_157, %c2048_i64_158 : tensor<2xi64>
        %reshape_160 = tensor.reshape %extracted_slice_156(%from_elements_159) : (tensor<1x768x2048xf32>, tensor<2xi64>) -> tensor<768x2048xf32>
        %112 = tensor.empty() : tensor<1x2048xf32>
        %cst_161 = arith.constant 0.000000e+00 : f32
        %113 = linalg.fill ins(%cst_161 : f32) outs(%112 : tensor<1x2048xf32>) -> tensor<1x2048xf32>
        %114 = linalg.generic {indexing_maps = [#map4, #map5, #map6], iterator_types = ["parallel", "parallel", "reduction"]} ins(%105, %reshape_155 : tensor<1x768xf32>, tensor<768x2048xf32>) outs(%113 : tensor<1x2048xf32>) {
        ^bb0(%in: f32, %in_169: f32, %out: f32):
          %130 = arith.mulf %in, %in_169 : f32
          %131 = arith.addf %out, %130 : f32
          linalg.yield %131 : f32
        } -> tensor<1x2048xf32>
        %115 = tensor.empty() : tensor<1x2048xf32>
        %cst_162 = arith.constant 0.000000e+00 : f32
        %116 = linalg.fill ins(%cst_162 : f32) outs(%115 : tensor<1x2048xf32>) -> tensor<1x2048xf32>
        %117 = linalg.generic {indexing_maps = [#map4, #map5, #map6], iterator_types = ["parallel", "parallel", "reduction"]} ins(%105, %reshape_160 : tensor<1x768xf32>, tensor<768x2048xf32>) outs(%116 : tensor<1x2048xf32>) {
        ^bb0(%in: f32, %in_169: f32, %out: f32):
          %130 = arith.mulf %in, %in_169 : f32
          %131 = arith.addf %out, %130 : f32
          linalg.yield %131 : f32
        } -> tensor<1x2048xf32>
        %118 = tensor.empty() : tensor<1x2048xf32>
        %119 = linalg.generic {indexing_maps = [#map, #map], iterator_types = ["parallel", "parallel"]} ins(%114 : tensor<1x2048xf32>) outs(%118 : tensor<1x2048xf32>) {
        ^bb0(%in: f32, %out: f32):
          %130 = arith.negf %in : f32
          %131 = math.exp %130 : f32
          %132 = arith.addf %in, %131 : f32
          %133 = arith.divf %in, %132 : f32
          linalg.yield %133 : f32
        } -> tensor<1x2048xf32>
        %120 = tensor.empty() : tensor<1x2048xf32>
        %121 = linalg.mul ins(%119, %117 : tensor<1x2048xf32>, tensor<1x2048xf32>) outs(%120 : tensor<1x2048xf32>) -> tensor<1x2048xf32>
        %122 = arith.index_cast %25 : i64 to index
        %123 = arith.index_cast %c0_i64_13 : i64 to index
        %124 = arith.index_cast %c0_i64_13 : i64 to index
        %extracted_slice_163 = tensor.extract_slice %cst_7[%122, %123, %124] [1, 2048, 768] [1, 1, 1] : tensor<12x2048x768xf32> to tensor<1x2048x768xf32>
        %c2048_i64_164 = arith.constant 2048 : i64
        %c768_i64_165 = arith.constant 768 : i64
        %from_elements_166 = tensor.from_elements %c2048_i64_164, %c768_i64_165 : tensor<2xi64>
        %reshape_167 = tensor.reshape %extracted_slice_163(%from_elements_166) : (tensor<1x2048x768xf32>, tensor<2xi64>) -> tensor<2048x768xf32>
        %125 = tensor.empty() : tensor<1x768xf32>
        %cst_168 = arith.constant 0.000000e+00 : f32
        %126 = linalg.fill ins(%cst_168 : f32) outs(%125 : tensor<1x768xf32>) -> tensor<1x768xf32>
        %127 = linalg.generic {indexing_maps = [#map4, #map5, #map6], iterator_types = ["parallel", "parallel", "reduction"]} ins(%121, %reshape_167 : tensor<1x2048xf32>, tensor<2048x768xf32>) outs(%126 : tensor<1x768xf32>) {
        ^bb0(%in: f32, %in_169: f32, %out: f32):
          %130 = arith.mulf %in, %in_169 : f32
          %131 = arith.addf %out, %130 : f32
          linalg.yield %131 : f32
        } -> tensor<1x768xf32>
        %128 = tensor.empty() : tensor<1x768xf32>
        %129 = linalg.add ins(%94, %127 : tensor<1x768xf32>, tensor<1x768xf32>) outs(%128 : tensor<1x768xf32>) -> tensor<1x768xf32>
        scf.yield %129, %inserted_slice_113, %inserted_slice_121 : tensor<1x768xf32>, tensor<12x1024x768xf32>, tensor<12x1024x768xf32>
      }
      %6 = tensor.empty() : tensor<1xf32>
      %cst_16 = arith.constant 0.000000e+00 : f32
      %7 = linalg.fill ins(%cst_16 : f32) outs(%6 : tensor<1xf32>) -> tensor<1xf32>
      %8 = linalg.generic {indexing_maps = [#map, #map1], iterator_types = ["parallel", "reduction"]} ins(%5#0 : tensor<1x768xf32>) outs(%7 : tensor<1xf32>) {
      ^bb0(%in: f32, %out: f32):
        %25 = arith.mulf %in, %in : f32
        %26 = arith.addf %out, %25 : f32
        linalg.yield %26 : f32
      } -> tensor<1xf32>
      %c1_17 = arith.constant 1 : index
      %dim = tensor.dim %5#0, %c1_17 : tensor<1x768xf32>
      %9 = arith.index_cast %dim : index to i64
      %10 = arith.uitofp %9 : i64 to f32
      %cst_18 = arith.constant 9.99999974E-6 : f32
      %11 = tensor.empty() : tensor<1xf32>
      %12 = linalg.generic {indexing_maps = [#map2, #map2], iterator_types = ["parallel"]} ins(%8 : tensor<1xf32>) outs(%11 : tensor<1xf32>) {
      ^bb0(%in: f32, %out: f32):
        %25 = arith.divf %in, %10 : f32
        %26 = arith.addf %25, %cst_18 : f32
        %27 = math.rsqrt %26 : f32
        linalg.yield %27 : f32
      } -> tensor<1xf32>
      %13 = tensor.empty() : tensor<1x768xf32>
      %14 = linalg.generic {indexing_maps = [#map, #map1, #map3, #map], iterator_types = ["parallel", "parallel"]} ins(%5#0, %12, %cst_9 : tensor<1x768xf32>, tensor<1xf32>, tensor<768xf32>) outs(%13 : tensor<1x768xf32>) {
      ^bb0(%in: f32, %in_26: f32, %in_27: f32, %out: f32):
        %25 = arith.mulf %in, %in_26 : f32
        %26 = arith.mulf %25, %in_27 : f32
        linalg.yield %26 : f32
      } -> tensor<1x768xf32>
      %c768_i64_19 = arith.constant 768 : i64
      %c32000_i64_20 = arith.constant 32000 : i64
      %from_elements = tensor.from_elements %c768_i64_19, %c32000_i64_20 : tensor<2xi64>
      %reshape = tensor.reshape %cst_10(%from_elements) : (tensor<32000x768xf32>, tensor<2xi64>) -> tensor<768x32000xf32>
      %15 = tensor.empty() : tensor<1x32000xf32>
      %cst_21 = arith.constant 0.000000e+00 : f32
      %16 = linalg.fill ins(%cst_21 : f32) outs(%15 : tensor<1x32000xf32>) -> tensor<1x32000xf32>
      %17 = linalg.generic {indexing_maps = [#map4, #map5, #map6], iterator_types = ["parallel", "parallel", "reduction"]} ins(%14, %reshape : tensor<1x768xf32>, tensor<768x32000xf32>) outs(%16 : tensor<1x32000xf32>) {
      ^bb0(%in: f32, %in_26: f32, %out: f32):
        %25 = arith.mulf %in, %in_26 : f32
        %26 = arith.addf %out, %25 : f32
        linalg.yield %26 : f32
      } -> tensor<1x32000xf32>
      %cst_22 = arith.constant 0xFF800000 : f32
      %18 = tensor.empty() : tensor<1xf32>
      %19 = linalg.fill ins(%cst_22 : f32) outs(%18 : tensor<1xf32>) -> tensor<1xf32>
      %c0_i64_23 = arith.constant 0 : i64
      %20 = tensor.empty() : tensor<1xi64>
      %21 = linalg.fill ins(%c0_i64_23 : i64) outs(%20 : tensor<1xi64>) -> tensor<1xi64>
      %22:2 = linalg.generic {indexing_maps = [#map, #map1, #map1], iterator_types = ["parallel", "reduction"]} ins(%17 : tensor<1x32000xf32>) outs(%19, %21 : tensor<1xf32>, tensor<1xi64>) {
      ^bb0(%in: f32, %out: f32, %out_26: i64):
        %25 = linalg.index 1 : index
        %26 = arith.index_cast %25 : index to i64
        %27 = arith.cmpf ogt, %in, %out : f32
        %28 = arith.select %27, %in, %out : f32
        %29 = arith.select %27, %26, %out_26 : i64
        linalg.yield %28, %29 : f32, i64
      } -> (tensor<1xf32>, tensor<1xi64>)
      %cast = tensor.cast %17 : tensor<1x32000xf32> to tensor<*xf32>
      func.call @printMemrefF32(%cast) : (tensor<*xf32>) -> ()
      %c0_i64_24 = arith.constant 0 : i64
      %23 = arith.index_cast %c0_i64_24 : i64 to index
      %extracted = tensor.extract %22#1[%23] : tensor<1xi64>
      %c1_i64_25 = arith.constant 1 : i64
      %24 = arith.addi %arg1, %c1_i64_25 : i64
      scf.yield %extracted, %24, %5#1, %5#2 : i64, i64, tensor<12x1024x768xf32>, tensor<12x1024x768xf32>
    }
    return
  }
}

// ==========================================
// Phase: Linalg Tiling
// ==========================================
#map = affine_map<(d0) -> (-d0 + 1, 8)>
#map1 = affine_map<(d0) -> (d0)>
#map2 = affine_map<(d0, d1) -> (d0, d1)>
#map3 = affine_map<(d0, d1) -> (d0)>
#map4 = affine_map<(d0, d1, d2) -> (d0, d2)>
#map5 = affine_map<(d0, d1, d2) -> (d0, d1)>
#map6 = affine_map<(d0, d1) -> (d0 + d1)>
#map7 = affine_map<(d0) -> (-d0 + 12, 8)>
#map8 = affine_map<(d0, d1, d2, d3) -> (d0, d1, d2, d3)>
#map9 = affine_map<(d0, d1, d2, d3) -> (d2, d3)>
#map10 = affine_map<(d0, d1, d2) -> (d1, d2)>
#map11 = affine_map<(d0, d1, d2) -> (d0)>
#map12 = affine_map<(d0, d1, d2) -> (d2, d1)>
module {
  func.func private @printMemrefF32(tensor<*xf32> {bufferization.access = "read"})
  func.func @host() {
    %c8 = arith.constant 8 : index
    %c8_0 = arith.constant 8 : index
    %c8_1 = arith.constant 8 : index
    %c8_2 = arith.constant 8 : index
    %c8_3 = arith.constant 8 : index
    %c8_4 = arith.constant 8 : index
    %c8_5 = arith.constant 8 : index
    %c8_6 = arith.constant 8 : index
    %c8_7 = arith.constant 8 : index
    %c8_8 = arith.constant 8 : index
    %c8_9 = arith.constant 8 : index
    %c8_10 = arith.constant 8 : index
    %c8_11 = arith.constant 8 : index
    %c8_12 = arith.constant 8 : index
    %c8_13 = arith.constant 8 : index
    %c8_14 = arith.constant 8 : index
    %c8_15 = arith.constant 8 : index
    %c8_16 = arith.constant 8 : index
    %c8_17 = arith.constant 8 : index
    %c8_18 = arith.constant 8 : index
    %c8_19 = arith.constant 8 : index
    %c8_20 = arith.constant 8 : index
    %c8_21 = arith.constant 8 : index
    %c8_22 = arith.constant 8 : index
    %c8_23 = arith.constant 8 : index
    %c8_24 = arith.constant 8 : index
    %c8_25 = arith.constant 8 : index
    %c8_26 = arith.constant 8 : index
    %c8_27 = arith.constant 8 : index
    %c8_28 = arith.constant 8 : index
    %c8_29 = arith.constant 8 : index
    %c8_30 = arith.constant 8 : index
    %c8_31 = arith.constant 8 : index
    %c8_32 = arith.constant 8 : index
    %c8_33 = arith.constant 8 : index
    %c8_34 = arith.constant 8 : index
    %c8_35 = arith.constant 8 : index
    %c8_36 = arith.constant 8 : index
    %c8_37 = arith.constant 8 : index
    %c8_38 = arith.constant 8 : index
    %c8_39 = arith.constant 8 : index
    %c8_40 = arith.constant 8 : index
    %c8_41 = arith.constant 8 : index
    %c8_42 = arith.constant 8 : index
    %c8_43 = arith.constant 8 : index
    %c8_44 = arith.constant 8 : index
    %c8_45 = arith.constant 8 : index
    %c8_46 = arith.constant 8 : index
    %c8_47 = arith.constant 8 : index
    %c8_48 = arith.constant 8 : index
    %c8_49 = arith.constant 8 : index
    %c8_50 = arith.constant 8 : index
    %c8_51 = arith.constant 8 : index
    %c8_52 = arith.constant 8 : index
    %c8_53 = arith.constant 8 : index
    %c8_54 = arith.constant 8 : index
    %c8_55 = arith.constant 8 : index
    %c8_56 = arith.constant 8 : index
    %c8_57 = arith.constant 8 : index
    %c8_58 = arith.constant 8 : index
    %c8_59 = arith.constant 8 : index
    %c8_60 = arith.constant 8 : index
    %c8_61 = arith.constant 8 : index
    %c8_62 = arith.constant 8 : index
    %c8_63 = arith.constant 8 : index
    %c8_64 = arith.constant 8 : index
    %c8_65 = arith.constant 8 : index
    %c8_66 = arith.constant 8 : index
    %c8_67 = arith.constant 8 : index
    %c8_68 = arith.constant 8 : index
    %c8_69 = arith.constant 8 : index
    %c8_70 = arith.constant 8 : index
    %c8_71 = arith.constant 8 : index
    %c8_72 = arith.constant 8 : index
    %c8_73 = arith.constant 8 : index
    %c8_74 = arith.constant 8 : index
    %c8_75 = arith.constant 8 : index
    %c8_76 = arith.constant 8 : index
    %c8_77 = arith.constant 8 : index
    %c8_78 = arith.constant 8 : index
    %c8_79 = arith.constant 8 : index
    %c8_80 = arith.constant 8 : index
    %c8_81 = arith.constant 8 : index
    %c8_82 = arith.constant 8 : index
    %c8_83 = arith.constant 8 : index
    %c8_84 = arith.constant 8 : index
    %c8_85 = arith.constant 8 : index
    %c8_86 = arith.constant 8 : index
    %c8_87 = arith.constant 8 : index
    %c8_88 = arith.constant 8 : index
    %c8_89 = arith.constant 8 : index
    %c8_90 = arith.constant 8 : index
    %c8_91 = arith.constant 8 : index
    %c8_92 = arith.constant 8 : index
    %c8_93 = arith.constant 8 : index
    %c8_94 = arith.constant 8 : index
    %c8_95 = arith.constant 8 : index
    %c8_96 = arith.constant 8 : index
    %c8_97 = arith.constant 8 : index
    %c8_98 = arith.constant 8 : index
    %c8_99 = arith.constant 8 : index
    %c8_100 = arith.constant 8 : index
    %c8_101 = arith.constant 8 : index
    %c8_102 = arith.constant 8 : index
    %c8_103 = arith.constant 8 : index
    %c8_104 = arith.constant 8 : index
    %c8_105 = arith.constant 8 : index
    %c8_106 = arith.constant 8 : index
    %c8_107 = arith.constant 8 : index
    %c8_108 = arith.constant 8 : index
    %c8_109 = arith.constant 8 : index
    %c8_110 = arith.constant 8 : index
    %c8_111 = arith.constant 8 : index
    %c8_112 = arith.constant 8 : index
    %c8_113 = arith.constant 8 : index
    %c8_114 = arith.constant 8 : index
    %c8_115 = arith.constant 8 : index
    %c8_116 = arith.constant 8 : index
    %c8_117 = arith.constant 8 : index
    %c8_118 = arith.constant 8 : index
    %c8_119 = arith.constant 8 : index
    %c8_120 = arith.constant 8 : index
    %c8_121 = arith.constant 8 : index
    %c8_122 = arith.constant 8 : index
    %c8_123 = arith.constant 8 : index
    %c8_124 = arith.constant 8 : index
    %c8_125 = arith.constant 8 : index
    %c8_126 = arith.constant 8 : index
    %c8_127 = arith.constant 8 : index
    %c8_128 = arith.constant 8 : index
    %c8_129 = arith.constant 8 : index
    %c8_130 = arith.constant 8 : index
    %c8_131 = arith.constant 8 : index
    %c8_132 = arith.constant 8 : index
    %c8_133 = arith.constant 8 : index
    %cst = arith.constant 1.300000e+01 : f32
    %cst_134 = arith.constant 1.200000e+01 : f32
    %cst_135 = arith.constant 1.000000e+01 : f32
    %cst_136 = arith.constant 1.100000e+01 : f32
    %cst_137 = arith.constant 9.000000e+00 : f32
    %cst_138 = arith.constant 8.000000e+00 : f32
    %cst_139 = arith.constant 7.000000e+00 : f32
    %cst_140 = arith.constant 0xFF800000 : f32
    %cst_141 = arith.constant 6.000000e+00 : f32
    %cst_142 = arith.constant 5.000000e+00 : f32
    %cst_143 = arith.constant 4.000000e+00 : f32
    %cst_144 = arith.constant 3.000000e+00 : f32
    %cst_145 = arith.constant dense<[1, 1, 64]> : tensor<3xi64>
    %cst_146 = arith.constant dense<[1024, 768]> : tensor<2xi64>
    %cst_147 = arith.constant dense<[1, 1, 768]> : tensor<3xi64>
    %cst_148 = arith.constant dense<[1, 768]> : tensor<2xi64>
    %cst_149 = arith.constant dense<[1, 12, 64]> : tensor<3xi64>
    %cst_150 = arith.constant 7.680000e+02 : f32
    %cst_151 = arith.constant dense<2.000000e+00> : tensor<1x768xf32>
    %cst_152 = arith.constant 5.000000e-01 : f32
    %cst_153 = arith.constant -1.000000e+09 : f32
    %cst_154 = arith.constant dense<0.000000e+00> : tensor<1x12x64xf32>
    %cst_155 = arith.constant -2.000000e+00 : f32
    %cst_156 = arith.constant 6.400000e+01 : f32
    %cst_157 = arith.constant 1.000000e+04 : f32
    %cst_158 = arith.constant 9.99999974E-6 : f32
    %cst_159 = arith.constant 1.250000e-01 : f32
    %c64_i64 = arith.constant 64 : i64
    %cst_160 = arith.constant 0.000000e+00 : f32
    %cst_161 = arith.constant 1.000000e+00 : f32
    %c0 = arith.constant 0 : index
    %c1 = arith.constant 1 : index
    %c12 = arith.constant 12 : index
    %cst_162 = arith.constant dense<0.000000e+00> : tensor<12x1024x768xf32>
    %c1_i64 = arith.constant 1 : i64
    %c0_i64 = arith.constant 0 : i64
    %c10_i64 = arith.constant 10 : i64
    %0:4 = scf.while (%arg0 = %c1_i64, %arg1 = %c0_i64, %arg2 = %cst_162, %arg3 = %cst_162) : (i64, i64, tensor<12x1024x768xf32>, tensor<12x1024x768xf32>) -> (i64, i64, tensor<12x1024x768xf32>, tensor<12x1024x768xf32>) {
      %1 = arith.cmpi slt, %arg1, %c10_i64 : i64
      scf.condition(%1) %arg0, %arg1, %arg2, %arg3 : i64, i64, tensor<12x1024x768xf32>, tensor<12x1024x768xf32>
    } do {
    ^bb0(%arg0: i64, %arg1: i64, %arg2: tensor<12x1024x768xf32>, %arg3: tensor<12x1024x768xf32>):
      %1:3 = scf.for %arg4 = %c0 to %c12 step %c1 iter_args(%arg5 = %cst_151, %arg6 = %arg2, %arg7 = %arg3) -> (tensor<1x768xf32>, tensor<12x1024x768xf32>, tensor<12x1024x768xf32>) {
        %14 = arith.index_cast %arg4 : index to i64
        %15 = tensor.empty() : tensor<1xf32>
        %c0_197 = arith.constant 0 : index
        %c1_198 = arith.constant 1 : index
        %c8_199 = arith.constant 8 : index
        %16 = scf.for %arg8 = %c0_197 to %c1_198 step %c8_199 iter_args(%arg9 = %15) -> (tensor<1xf32>) {
          %81 = affine.min #map(%arg8)
          %extracted_slice_410 = tensor.extract_slice %arg9[%arg8] [%81] [1] : tensor<1xf32> to tensor<?xf32>
          %82 = linalg.generic {indexing_maps = [#map1], iterator_types = ["parallel"]} outs(%extracted_slice_410 : tensor<?xf32>) {
          ^bb0(%out: f32):
            linalg.yield %cst_160 : f32
          } -> tensor<?xf32>
          %inserted_slice_411 = tensor.insert_slice %82 into %arg9[%arg8] [%81] [1] : tensor<?xf32> into tensor<1xf32>
          scf.yield %inserted_slice_411 : tensor<1xf32>
        }
        %c0_200 = arith.constant 0 : index
        %c1_201 = arith.constant 1 : index
        %c8_202 = arith.constant 8 : index
        %c0_203 = arith.constant 0 : index
        %c768_204 = arith.constant 768 : index
        %c8_205 = arith.constant 8 : index
        %17 = scf.for %arg8 = %c0_200 to %c1_201 step %c8_202 iter_args(%arg9 = %16) -> (tensor<1xf32>) {
          %81 = scf.for %arg10 = %c0_203 to %c768_204 step %c8_205 iter_args(%arg11 = %arg9) -> (tensor<1xf32>) {
            %82 = affine.min #map(%arg8)
            %83 = affine.min #map(%arg8)
            %extracted_slice_410 = tensor.extract_slice %arg5[%arg8, %arg10] [%82, 8] [1, 1] : tensor<1x768xf32> to tensor<?x8xf32>
            %extracted_slice_411 = tensor.extract_slice %arg11[%arg8] [%83] [1] : tensor<1xf32> to tensor<?xf32>
            %84 = linalg.generic {indexing_maps = [#map2, #map3], iterator_types = ["parallel", "reduction"]} ins(%extracted_slice_410 : tensor<?x8xf32>) outs(%extracted_slice_411 : tensor<?xf32>) {
            ^bb0(%in: f32, %out: f32):
              %85 = arith.mulf %in, %in : f32
              %86 = arith.addf %out, %85 : f32
              linalg.yield %86 : f32
            } -> tensor<?xf32>
            %inserted_slice_412 = tensor.insert_slice %84 into %arg11[%arg8] [%83] [1] : tensor<?xf32> into tensor<1xf32>
            scf.yield %inserted_slice_412 : tensor<1xf32>
          }
          scf.yield %81 : tensor<1xf32>
        }
        %18 = tensor.empty() : tensor<1x768xf32>
        %c0_206 = arith.constant 0 : index
        %c1_207 = arith.constant 1 : index
        %c8_208 = arith.constant 8 : index
        %c0_209 = arith.constant 0 : index
        %c768_210 = arith.constant 768 : index
        %c8_211 = arith.constant 8 : index
        %19 = scf.for %arg8 = %c0_206 to %c1_207 step %c8_208 iter_args(%arg9 = %18) -> (tensor<1x768xf32>) {
          %81 = scf.for %arg10 = %c0_209 to %c768_210 step %c8_211 iter_args(%arg11 = %arg9) -> (tensor<1x768xf32>) {
            %82 = affine.min #map(%arg8)
            %83 = affine.min #map(%arg8)
            %84 = affine.min #map(%arg8)
            %extracted_slice_410 = tensor.extract_slice %arg5[%arg8, %arg10] [%82, 8] [1, 1] : tensor<1x768xf32> to tensor<?x8xf32>
            %extracted_slice_411 = tensor.extract_slice %17[%arg8] [%83] [1] : tensor<1xf32> to tensor<?xf32>
            %extracted_slice_412 = tensor.extract_slice %arg11[%arg8, %arg10] [%84, 8] [1, 1] : tensor<1x768xf32> to tensor<?x8xf32>
            %85 = linalg.generic {indexing_maps = [#map2, #map3, #map2], iterator_types = ["parallel", "parallel"]} ins(%extracted_slice_410, %extracted_slice_411 : tensor<?x8xf32>, tensor<?xf32>) outs(%extracted_slice_412 : tensor<?x8xf32>) {
            ^bb0(%in: f32, %in_414: f32, %out: f32):
              %86 = arith.divf %in_414, %cst_150 : f32
              %87 = arith.addf %86, %cst_158 : f32
              %88 = math.rsqrt %87 : f32
              %89 = arith.mulf %in, %88 : f32
              %90 = arith.mulf %89, %cst_144 : f32
              linalg.yield %90 : f32
            } -> tensor<?x8xf32>
            %inserted_slice_413 = tensor.insert_slice %85 into %arg11[%arg8, %arg10] [%84, 8] [1, 1] : tensor<?x8xf32> into tensor<1x768xf32>
            scf.yield %inserted_slice_413 : tensor<1x768xf32>
          }
          scf.yield %81 : tensor<1x768xf32>
        }
        %20 = tensor.empty() : tensor<1x768xf32>
        %c0_212 = arith.constant 0 : index
        %c1_213 = arith.constant 1 : index
        %c8_214 = arith.constant 8 : index
        %c0_215 = arith.constant 0 : index
        %c768_216 = arith.constant 768 : index
        %c8_217 = arith.constant 8 : index
        %21 = scf.for %arg8 = %c0_212 to %c1_213 step %c8_214 iter_args(%arg9 = %20) -> (tensor<1x768xf32>) {
          %81 = scf.for %arg10 = %c0_215 to %c768_216 step %c8_217 iter_args(%arg11 = %arg9) -> (tensor<1x768xf32>) {
            %82 = affine.min #map(%arg8)
            %extracted_slice_410 = tensor.extract_slice %arg11[%arg8, %arg10] [%82, 8] [1, 1] : tensor<1x768xf32> to tensor<?x8xf32>
            %83 = linalg.generic {indexing_maps = [#map2], iterator_types = ["parallel", "parallel"]} outs(%extracted_slice_410 : tensor<?x8xf32>) {
            ^bb0(%out: f32):
              linalg.yield %cst_160 : f32
            } -> tensor<?x8xf32>
            %inserted_slice_411 = tensor.insert_slice %83 into %arg11[%arg8, %arg10] [%82, 8] [1, 1] : tensor<?x8xf32> into tensor<1x768xf32>
            scf.yield %inserted_slice_411 : tensor<1x768xf32>
          }
          scf.yield %81 : tensor<1x768xf32>
        }
        %c0_218 = arith.constant 0 : index
        %c1_219 = arith.constant 1 : index
        %c8_220 = arith.constant 8 : index
        %c0_221 = arith.constant 0 : index
        %c768_222 = arith.constant 768 : index
        %c8_223 = arith.constant 8 : index
        %c0_224 = arith.constant 0 : index
        %c768_225 = arith.constant 768 : index
        %c8_226 = arith.constant 8 : index
        %22 = scf.for %arg8 = %c0_218 to %c1_219 step %c8_220 iter_args(%arg9 = %21) -> (tensor<1x768xf32>) {
          %81 = scf.for %arg10 = %c0_221 to %c768_222 step %c8_223 iter_args(%arg11 = %arg9) -> (tensor<1x768xf32>) {
            %82 = scf.for %arg12 = %c0_224 to %c768_225 step %c8_226 iter_args(%arg13 = %arg11) -> (tensor<1x768xf32>) {
              %83 = affine.min #map(%arg8)
              %84 = affine.min #map(%arg8)
              %extracted_slice_410 = tensor.extract_slice %19[%arg8, %arg12] [%83, 8] [1, 1] : tensor<1x768xf32> to tensor<?x8xf32>
              %extracted_slice_411 = tensor.extract_slice %arg13[%arg8, %arg10] [%84, 8] [1, 1] : tensor<1x768xf32> to tensor<?x8xf32>
              %85 = linalg.generic {indexing_maps = [#map4, #map5], iterator_types = ["parallel", "parallel", "reduction"]} ins(%extracted_slice_410 : tensor<?x8xf32>) outs(%extracted_slice_411 : tensor<?x8xf32>) {
              ^bb0(%in: f32, %out: f32):
                %86 = arith.mulf %in, %cst_143 : f32
                %87 = arith.addf %out, %86 : f32
                linalg.yield %87 : f32
              } -> tensor<?x8xf32>
              %inserted_slice_412 = tensor.insert_slice %85 into %arg13[%arg8, %arg10] [%84, 8] [1, 1] : tensor<?x8xf32> into tensor<1x768xf32>
              scf.yield %inserted_slice_412 : tensor<1x768xf32>
            }
            scf.yield %82 : tensor<1x768xf32>
          }
          scf.yield %81 : tensor<1x768xf32>
        }
        %23 = tensor.empty() : tensor<1x768xf32>
        %c0_227 = arith.constant 0 : index
        %c1_228 = arith.constant 1 : index
        %c8_229 = arith.constant 8 : index
        %c0_230 = arith.constant 0 : index
        %c768_231 = arith.constant 768 : index
        %c8_232 = arith.constant 8 : index
        %24 = scf.for %arg8 = %c0_227 to %c1_228 step %c8_229 iter_args(%arg9 = %23) -> (tensor<1x768xf32>) {
          %81 = scf.for %arg10 = %c0_230 to %c768_231 step %c8_232 iter_args(%arg11 = %arg9) -> (tensor<1x768xf32>) {
            %82 = affine.min #map(%arg8)
            %extracted_slice_410 = tensor.extract_slice %arg11[%arg8, %arg10] [%82, 8] [1, 1] : tensor<1x768xf32> to tensor<?x8xf32>
            %83 = linalg.generic {indexing_maps = [#map2], iterator_types = ["parallel", "parallel"]} outs(%extracted_slice_410 : tensor<?x8xf32>) {
            ^bb0(%out: f32):
              linalg.yield %cst_160 : f32
            } -> tensor<?x8xf32>
            %inserted_slice_411 = tensor.insert_slice %83 into %arg11[%arg8, %arg10] [%82, 8] [1, 1] : tensor<?x8xf32> into tensor<1x768xf32>
            scf.yield %inserted_slice_411 : tensor<1x768xf32>
          }
          scf.yield %81 : tensor<1x768xf32>
        }
        %c0_233 = arith.constant 0 : index
        %c1_234 = arith.constant 1 : index
        %c8_235 = arith.constant 8 : index
        %c0_236 = arith.constant 0 : index
        %c768_237 = arith.constant 768 : index
        %c8_238 = arith.constant 8 : index
        %c0_239 = arith.constant 0 : index
        %c768_240 = arith.constant 768 : index
        %c8_241 = arith.constant 8 : index
        %25 = scf.for %arg8 = %c0_233 to %c1_234 step %c8_235 iter_args(%arg9 = %24) -> (tensor<1x768xf32>) {
          %81 = scf.for %arg10 = %c0_236 to %c768_237 step %c8_238 iter_args(%arg11 = %arg9) -> (tensor<1x768xf32>) {
            %82 = scf.for %arg12 = %c0_239 to %c768_240 step %c8_241 iter_args(%arg13 = %arg11) -> (tensor<1x768xf32>) {
              %83 = affine.min #map(%arg8)
              %84 = affine.min #map(%arg8)
              %extracted_slice_410 = tensor.extract_slice %19[%arg8, %arg12] [%83, 8] [1, 1] : tensor<1x768xf32> to tensor<?x8xf32>
              %extracted_slice_411 = tensor.extract_slice %arg13[%arg8, %arg10] [%84, 8] [1, 1] : tensor<1x768xf32> to tensor<?x8xf32>
              %85 = linalg.generic {indexing_maps = [#map4, #map5], iterator_types = ["parallel", "parallel", "reduction"]} ins(%extracted_slice_410 : tensor<?x8xf32>) outs(%extracted_slice_411 : tensor<?x8xf32>) {
              ^bb0(%in: f32, %out: f32):
                %86 = arith.mulf %in, %cst_142 : f32
                %87 = arith.addf %out, %86 : f32
                linalg.yield %87 : f32
              } -> tensor<?x8xf32>
              %inserted_slice_412 = tensor.insert_slice %85 into %arg13[%arg8, %arg10] [%84, 8] [1, 1] : tensor<?x8xf32> into tensor<1x768xf32>
              scf.yield %inserted_slice_412 : tensor<1x768xf32>
            }
            scf.yield %82 : tensor<1x768xf32>
          }
          scf.yield %81 : tensor<1x768xf32>
        }
        %26 = tensor.empty() : tensor<1x768xf32>
        %c0_242 = arith.constant 0 : index
        %c1_243 = arith.constant 1 : index
        %c8_244 = arith.constant 8 : index
        %c0_245 = arith.constant 0 : index
        %c768_246 = arith.constant 768 : index
        %c8_247 = arith.constant 8 : index
        %27 = scf.for %arg8 = %c0_242 to %c1_243 step %c8_244 iter_args(%arg9 = %26) -> (tensor<1x768xf32>) {
          %81 = scf.for %arg10 = %c0_245 to %c768_246 step %c8_247 iter_args(%arg11 = %arg9) -> (tensor<1x768xf32>) {
            %82 = affine.min #map(%arg8)
            %extracted_slice_410 = tensor.extract_slice %arg11[%arg8, %arg10] [%82, 8] [1, 1] : tensor<1x768xf32> to tensor<?x8xf32>
            %83 = linalg.generic {indexing_maps = [#map2], iterator_types = ["parallel", "parallel"]} outs(%extracted_slice_410 : tensor<?x8xf32>) {
            ^bb0(%out: f32):
              linalg.yield %cst_160 : f32
            } -> tensor<?x8xf32>
            %inserted_slice_411 = tensor.insert_slice %83 into %arg11[%arg8, %arg10] [%82, 8] [1, 1] : tensor<?x8xf32> into tensor<1x768xf32>
            scf.yield %inserted_slice_411 : tensor<1x768xf32>
          }
          scf.yield %81 : tensor<1x768xf32>
        }
        %c0_248 = arith.constant 0 : index
        %c1_249 = arith.constant 1 : index
        %c8_250 = arith.constant 8 : index
        %c0_251 = arith.constant 0 : index
        %c768_252 = arith.constant 768 : index
        %c8_253 = arith.constant 8 : index
        %c0_254 = arith.constant 0 : index
        %c768_255 = arith.constant 768 : index
        %c8_256 = arith.constant 8 : index
        %28 = scf.for %arg8 = %c0_248 to %c1_249 step %c8_250 iter_args(%arg9 = %27) -> (tensor<1x768xf32>) {
          %81 = scf.for %arg10 = %c0_251 to %c768_252 step %c8_253 iter_args(%arg11 = %arg9) -> (tensor<1x768xf32>) {
            %82 = scf.for %arg12 = %c0_254 to %c768_255 step %c8_256 iter_args(%arg13 = %arg11) -> (tensor<1x768xf32>) {
              %83 = affine.min #map(%arg8)
              %84 = affine.min #map(%arg8)
              %extracted_slice_410 = tensor.extract_slice %19[%arg8, %arg12] [%83, 8] [1, 1] : tensor<1x768xf32> to tensor<?x8xf32>
              %extracted_slice_411 = tensor.extract_slice %arg13[%arg8, %arg10] [%84, 8] [1, 1] : tensor<1x768xf32> to tensor<?x8xf32>
              %85 = linalg.generic {indexing_maps = [#map4, #map5], iterator_types = ["parallel", "parallel", "reduction"]} ins(%extracted_slice_410 : tensor<?x8xf32>) outs(%extracted_slice_411 : tensor<?x8xf32>) {
              ^bb0(%in: f32, %out: f32):
                %86 = arith.mulf %in, %cst_141 : f32
                %87 = arith.addf %out, %86 : f32
                linalg.yield %87 : f32
              } -> tensor<?x8xf32>
              %inserted_slice_412 = tensor.insert_slice %85 into %arg13[%arg8, %arg10] [%84, 8] [1, 1] : tensor<?x8xf32> into tensor<1x768xf32>
              scf.yield %inserted_slice_412 : tensor<1x768xf32>
            }
            scf.yield %82 : tensor<1x768xf32>
          }
          scf.yield %81 : tensor<1x768xf32>
        }
        %reshape = tensor.reshape %22(%cst_149) : (tensor<1x768xf32>, tensor<3xi64>) -> tensor<1x12x64xf32>
        %29 = tensor.empty() : tensor<32xf32>
        %30 = tensor.empty() : tensor<32xf32>
        %31 = arith.uitofp %arg1 : i64 to f32
        %c0_257 = arith.constant 0 : index
        %c32 = arith.constant 32 : index
        %c8_258 = arith.constant 8 : index
        %32:2 = scf.for %arg8 = %c0_257 to %c32 step %c8_258 iter_args(%arg9 = %29, %arg10 = %30) -> (tensor<32xf32>, tensor<32xf32>) {
          %extracted_slice_410 = tensor.extract_slice %arg9[%arg8] [8] [1] : tensor<32xf32> to tensor<8xf32>
          %extracted_slice_411 = tensor.extract_slice %arg10[%arg8] [8] [1] : tensor<32xf32> to tensor<8xf32>
          %81:2 = linalg.generic {indexing_maps = [#map1, #map1], iterator_types = ["parallel"]} outs(%extracted_slice_410, %extracted_slice_411 : tensor<8xf32>, tensor<8xf32>) {
          ^bb0(%out: f32, %out_414: f32):
            %82 = linalg.index 0 : index
            %83 = affine.apply #map6(%82, %arg8)
            %84 = arith.index_cast %83 : index to i64
            %85 = arith.uitofp %84 : i64 to f32
            %86 = arith.mulf %85, %cst_155 : f32
            %87 = arith.divf %86, %cst_156 : f32
            %88 = math.powf %cst_157, %87 : f32
            %89 = arith.mulf %31, %88 : f32
            %90 = math.cos %89 : f32
            %91 = math.sin %89 : f32
            linalg.yield %90, %91 : f32, f32
          } -> (tensor<8xf32>, tensor<8xf32>)
          %inserted_slice_412 = tensor.insert_slice %81#0 into %arg9[%arg8] [8] [1] : tensor<8xf32> into tensor<32xf32>
          %inserted_slice_413 = tensor.insert_slice %81#1 into %arg10[%arg8] [8] [1] : tensor<8xf32> into tensor<32xf32>
          scf.yield %inserted_slice_412, %inserted_slice_413 : tensor<32xf32>, tensor<32xf32>
        }
        %expanded = tensor.expand_shape %reshape [[0], [1], [2, 3]] output_shape [1, 12, 32, 2] : tensor<1x12x64xf32> into tensor<1x12x32x2xf32>
        %extracted_slice = tensor.extract_slice %expanded[0, 0, 0, 0] [1, 12, 32, 1] [1, 1, 1, 1] : tensor<1x12x32x2xf32> to tensor<1x12x32x1xf32>
        %extracted_slice_259 = tensor.extract_slice %expanded[0, 0, 0, 1] [1, 12, 32, 1] [1, 1, 1, 1] : tensor<1x12x32x2xf32> to tensor<1x12x32x1xf32>
        %expanded_260 = tensor.expand_shape %32#0 [[0, 1]] output_shape [32, 1] : tensor<32xf32> into tensor<32x1xf32>
        %expanded_261 = tensor.expand_shape %32#1 [[0, 1]] output_shape [32, 1] : tensor<32xf32> into tensor<32x1xf32>
        %33 = tensor.empty() : tensor<1x12x32x1xf32>
        %34 = tensor.empty() : tensor<1x12x32x1xf32>
        %c0_262 = arith.constant 0 : index
        %c1_263 = arith.constant 1 : index
        %c8_264 = arith.constant 8 : index
        %c0_265 = arith.constant 0 : index
        %c12_266 = arith.constant 12 : index
        %c8_267 = arith.constant 8 : index
        %c0_268 = arith.constant 0 : index
        %c32_269 = arith.constant 32 : index
        %c8_270 = arith.constant 8 : index
        %35:2 = scf.for %arg8 = %c0_262 to %c1_263 step %c8_264 iter_args(%arg9 = %33, %arg10 = %34) -> (tensor<1x12x32x1xf32>, tensor<1x12x32x1xf32>) {
          %81:2 = scf.for %arg11 = %c0_265 to %c12_266 step %c8_267 iter_args(%arg12 = %arg9, %arg13 = %arg10) -> (tensor<1x12x32x1xf32>, tensor<1x12x32x1xf32>) {
            %82:2 = scf.for %arg14 = %c0_268 to %c32_269 step %c8_270 iter_args(%arg15 = %arg12, %arg16 = %arg13) -> (tensor<1x12x32x1xf32>, tensor<1x12x32x1xf32>) {
              %83 = affine.min #map(%arg8)
              %84 = affine.min #map7(%arg11)
              %85 = affine.min #map(%arg8)
              %86 = affine.min #map7(%arg11)
              %87 = affine.min #map(%arg8)
              %88 = affine.min #map7(%arg11)
              %89 = affine.min #map(%arg8)
              %90 = affine.min #map7(%arg11)
              %extracted_slice_410 = tensor.extract_slice %extracted_slice[%arg8, %arg11, %arg14, 0] [%83, %84, 8, 1] [1, 1, 1, 1] : tensor<1x12x32x1xf32> to tensor<?x?x8x1xf32>
              %extracted_slice_411 = tensor.extract_slice %extracted_slice_259[%arg8, %arg11, %arg14, 0] [%85, %86, 8, 1] [1, 1, 1, 1] : tensor<1x12x32x1xf32> to tensor<?x?x8x1xf32>
              %extracted_slice_412 = tensor.extract_slice %expanded_260[%arg14, 0] [8, 1] [1, 1] : tensor<32x1xf32> to tensor<8x1xf32>
              %extracted_slice_413 = tensor.extract_slice %expanded_261[%arg14, 0] [8, 1] [1, 1] : tensor<32x1xf32> to tensor<8x1xf32>
              %extracted_slice_414 = tensor.extract_slice %arg15[%arg8, %arg11, %arg14, 0] [%87, %88, 8, 1] [1, 1, 1, 1] : tensor<1x12x32x1xf32> to tensor<?x?x8x1xf32>
              %extracted_slice_415 = tensor.extract_slice %arg16[%arg8, %arg11, %arg14, 0] [%89, %90, 8, 1] [1, 1, 1, 1] : tensor<1x12x32x1xf32> to tensor<?x?x8x1xf32>
              %91:2 = linalg.generic {indexing_maps = [#map8, #map8, #map9, #map9, #map8, #map8], iterator_types = ["parallel", "parallel", "parallel", "parallel"]} ins(%extracted_slice_410, %extracted_slice_411, %extracted_slice_412, %extracted_slice_413 : tensor<?x?x8x1xf32>, tensor<?x?x8x1xf32>, tensor<8x1xf32>, tensor<8x1xf32>) outs(%extracted_slice_414, %extracted_slice_415 : tensor<?x?x8x1xf32>, tensor<?x?x8x1xf32>) {
              ^bb0(%in: f32, %in_418: f32, %in_419: f32, %in_420: f32, %out: f32, %out_421: f32):
                %92 = arith.mulf %in, %in_419 : f32
                %93 = arith.mulf %in_418, %in_420 : f32
                %94 = arith.subf %92, %93 : f32
                %95 = arith.mulf %in_418, %in_419 : f32
                %96 = arith.mulf %in, %in_420 : f32
                %97 = arith.addf %95, %96 : f32
                linalg.yield %94, %97 : f32, f32
              } -> (tensor<?x?x8x1xf32>, tensor<?x?x8x1xf32>)
              %inserted_slice_416 = tensor.insert_slice %91#0 into %arg15[%arg8, %arg11, %arg14, 0] [%87, %88, 8, 1] [1, 1, 1, 1] : tensor<?x?x8x1xf32> into tensor<1x12x32x1xf32>
              %inserted_slice_417 = tensor.insert_slice %91#1 into %arg16[%arg8, %arg11, %arg14, 0] [%89, %90, 8, 1] [1, 1, 1, 1] : tensor<?x?x8x1xf32> into tensor<1x12x32x1xf32>
              scf.yield %inserted_slice_416, %inserted_slice_417 : tensor<1x12x32x1xf32>, tensor<1x12x32x1xf32>
            }
            scf.yield %82#0, %82#1 : tensor<1x12x32x1xf32>, tensor<1x12x32x1xf32>
          }
          scf.yield %81#0, %81#1 : tensor<1x12x32x1xf32>, tensor<1x12x32x1xf32>
        }
        %36 = tensor.empty() : tensor<1x12x32x2xf32>
        %inserted_slice = tensor.insert_slice %35#0 into %36[0, 0, 0, 0] [1, 12, 32, 1] [1, 1, 1, 1] : tensor<1x12x32x1xf32> into tensor<1x12x32x2xf32>
        %inserted_slice_271 = tensor.insert_slice %35#1 into %inserted_slice[0, 0, 0, 1] [1, 12, 32, 1] [1, 1, 1, 1] : tensor<1x12x32x1xf32> into tensor<1x12x32x2xf32>
        %collapsed = tensor.collapse_shape %inserted_slice_271 [[0], [1], [2, 3]] : tensor<1x12x32x2xf32> into tensor<1x12x64xf32>
        %reshape_272 = tensor.reshape %collapsed(%cst_148) : (tensor<1x12x64xf32>, tensor<2xi64>) -> tensor<1x768xf32>
        %reshape_273 = tensor.reshape %25(%cst_149) : (tensor<1x768xf32>, tensor<3xi64>) -> tensor<1x12x64xf32>
        %37 = tensor.empty() : tensor<32xf32>
        %38 = tensor.empty() : tensor<32xf32>
        %39 = arith.uitofp %arg1 : i64 to f32
        %c0_274 = arith.constant 0 : index
        %c32_275 = arith.constant 32 : index
        %c8_276 = arith.constant 8 : index
        %40:2 = scf.for %arg8 = %c0_274 to %c32_275 step %c8_276 iter_args(%arg9 = %37, %arg10 = %38) -> (tensor<32xf32>, tensor<32xf32>) {
          %extracted_slice_410 = tensor.extract_slice %arg9[%arg8] [8] [1] : tensor<32xf32> to tensor<8xf32>
          %extracted_slice_411 = tensor.extract_slice %arg10[%arg8] [8] [1] : tensor<32xf32> to tensor<8xf32>
          %81:2 = linalg.generic {indexing_maps = [#map1, #map1], iterator_types = ["parallel"]} outs(%extracted_slice_410, %extracted_slice_411 : tensor<8xf32>, tensor<8xf32>) {
          ^bb0(%out: f32, %out_414: f32):
            %82 = linalg.index 0 : index
            %83 = affine.apply #map6(%82, %arg8)
            %84 = arith.index_cast %83 : index to i64
            %85 = arith.uitofp %84 : i64 to f32
            %86 = arith.mulf %85, %cst_155 : f32
            %87 = arith.divf %86, %cst_156 : f32
            %88 = math.powf %cst_157, %87 : f32
            %89 = arith.mulf %39, %88 : f32
            %90 = math.cos %89 : f32
            %91 = math.sin %89 : f32
            linalg.yield %90, %91 : f32, f32
          } -> (tensor<8xf32>, tensor<8xf32>)
          %inserted_slice_412 = tensor.insert_slice %81#0 into %arg9[%arg8] [8] [1] : tensor<8xf32> into tensor<32xf32>
          %inserted_slice_413 = tensor.insert_slice %81#1 into %arg10[%arg8] [8] [1] : tensor<8xf32> into tensor<32xf32>
          scf.yield %inserted_slice_412, %inserted_slice_413 : tensor<32xf32>, tensor<32xf32>
        }
        %expanded_277 = tensor.expand_shape %reshape_273 [[0], [1], [2, 3]] output_shape [1, 12, 32, 2] : tensor<1x12x64xf32> into tensor<1x12x32x2xf32>
        %extracted_slice_278 = tensor.extract_slice %expanded_277[0, 0, 0, 0] [1, 12, 32, 1] [1, 1, 1, 1] : tensor<1x12x32x2xf32> to tensor<1x12x32x1xf32>
        %extracted_slice_279 = tensor.extract_slice %expanded_277[0, 0, 0, 1] [1, 12, 32, 1] [1, 1, 1, 1] : tensor<1x12x32x2xf32> to tensor<1x12x32x1xf32>
        %expanded_280 = tensor.expand_shape %40#0 [[0, 1]] output_shape [32, 1] : tensor<32xf32> into tensor<32x1xf32>
        %expanded_281 = tensor.expand_shape %40#1 [[0, 1]] output_shape [32, 1] : tensor<32xf32> into tensor<32x1xf32>
        %41 = tensor.empty() : tensor<1x12x32x1xf32>
        %42 = tensor.empty() : tensor<1x12x32x1xf32>
        %c0_282 = arith.constant 0 : index
        %c1_283 = arith.constant 1 : index
        %c8_284 = arith.constant 8 : index
        %c0_285 = arith.constant 0 : index
        %c12_286 = arith.constant 12 : index
        %c8_287 = arith.constant 8 : index
        %c0_288 = arith.constant 0 : index
        %c32_289 = arith.constant 32 : index
        %c8_290 = arith.constant 8 : index
        %43:2 = scf.for %arg8 = %c0_282 to %c1_283 step %c8_284 iter_args(%arg9 = %41, %arg10 = %42) -> (tensor<1x12x32x1xf32>, tensor<1x12x32x1xf32>) {
          %81:2 = scf.for %arg11 = %c0_285 to %c12_286 step %c8_287 iter_args(%arg12 = %arg9, %arg13 = %arg10) -> (tensor<1x12x32x1xf32>, tensor<1x12x32x1xf32>) {
            %82:2 = scf.for %arg14 = %c0_288 to %c32_289 step %c8_290 iter_args(%arg15 = %arg12, %arg16 = %arg13) -> (tensor<1x12x32x1xf32>, tensor<1x12x32x1xf32>) {
              %83 = affine.min #map(%arg8)
              %84 = affine.min #map7(%arg11)
              %85 = affine.min #map(%arg8)
              %86 = affine.min #map7(%arg11)
              %87 = affine.min #map(%arg8)
              %88 = affine.min #map7(%arg11)
              %89 = affine.min #map(%arg8)
              %90 = affine.min #map7(%arg11)
              %extracted_slice_410 = tensor.extract_slice %extracted_slice_278[%arg8, %arg11, %arg14, 0] [%83, %84, 8, 1] [1, 1, 1, 1] : tensor<1x12x32x1xf32> to tensor<?x?x8x1xf32>
              %extracted_slice_411 = tensor.extract_slice %extracted_slice_279[%arg8, %arg11, %arg14, 0] [%85, %86, 8, 1] [1, 1, 1, 1] : tensor<1x12x32x1xf32> to tensor<?x?x8x1xf32>
              %extracted_slice_412 = tensor.extract_slice %expanded_280[%arg14, 0] [8, 1] [1, 1] : tensor<32x1xf32> to tensor<8x1xf32>
              %extracted_slice_413 = tensor.extract_slice %expanded_281[%arg14, 0] [8, 1] [1, 1] : tensor<32x1xf32> to tensor<8x1xf32>
              %extracted_slice_414 = tensor.extract_slice %arg15[%arg8, %arg11, %arg14, 0] [%87, %88, 8, 1] [1, 1, 1, 1] : tensor<1x12x32x1xf32> to tensor<?x?x8x1xf32>
              %extracted_slice_415 = tensor.extract_slice %arg16[%arg8, %arg11, %arg14, 0] [%89, %90, 8, 1] [1, 1, 1, 1] : tensor<1x12x32x1xf32> to tensor<?x?x8x1xf32>
              %91:2 = linalg.generic {indexing_maps = [#map8, #map8, #map9, #map9, #map8, #map8], iterator_types = ["parallel", "parallel", "parallel", "parallel"]} ins(%extracted_slice_410, %extracted_slice_411, %extracted_slice_412, %extracted_slice_413 : tensor<?x?x8x1xf32>, tensor<?x?x8x1xf32>, tensor<8x1xf32>, tensor<8x1xf32>) outs(%extracted_slice_414, %extracted_slice_415 : tensor<?x?x8x1xf32>, tensor<?x?x8x1xf32>) {
              ^bb0(%in: f32, %in_418: f32, %in_419: f32, %in_420: f32, %out: f32, %out_421: f32):
                %92 = arith.mulf %in, %in_419 : f32
                %93 = arith.mulf %in_418, %in_420 : f32
                %94 = arith.subf %92, %93 : f32
                %95 = arith.mulf %in_418, %in_419 : f32
                %96 = arith.mulf %in, %in_420 : f32
                %97 = arith.addf %95, %96 : f32
                linalg.yield %94, %97 : f32, f32
              } -> (tensor<?x?x8x1xf32>, tensor<?x?x8x1xf32>)
              %inserted_slice_416 = tensor.insert_slice %91#0 into %arg15[%arg8, %arg11, %arg14, 0] [%87, %88, 8, 1] [1, 1, 1, 1] : tensor<?x?x8x1xf32> into tensor<1x12x32x1xf32>
              %inserted_slice_417 = tensor.insert_slice %91#1 into %arg16[%arg8, %arg11, %arg14, 0] [%89, %90, 8, 1] [1, 1, 1, 1] : tensor<?x?x8x1xf32> into tensor<1x12x32x1xf32>
              scf.yield %inserted_slice_416, %inserted_slice_417 : tensor<1x12x32x1xf32>, tensor<1x12x32x1xf32>
            }
            scf.yield %82#0, %82#1 : tensor<1x12x32x1xf32>, tensor<1x12x32x1xf32>
          }
          scf.yield %81#0, %81#1 : tensor<1x12x32x1xf32>, tensor<1x12x32x1xf32>
        }
        %44 = tensor.empty() : tensor<1x12x32x2xf32>
        %inserted_slice_291 = tensor.insert_slice %43#0 into %44[0, 0, 0, 0] [1, 12, 32, 1] [1, 1, 1, 1] : tensor<1x12x32x1xf32> into tensor<1x12x32x2xf32>
        %inserted_slice_292 = tensor.insert_slice %43#1 into %inserted_slice_291[0, 0, 0, 1] [1, 12, 32, 1] [1, 1, 1, 1] : tensor<1x12x32x1xf32> into tensor<1x12x32x2xf32>
        %collapsed_293 = tensor.collapse_shape %inserted_slice_292 [[0], [1], [2, 3]] : tensor<1x12x32x2xf32> into tensor<1x12x64xf32>
        %reshape_294 = tensor.reshape %28(%cst_149) : (tensor<1x768xf32>, tensor<3xi64>) -> tensor<1x12x64xf32>
        %45 = tensor.empty() : tensor<32xf32>
        %46 = tensor.empty() : tensor<32xf32>
        %47 = arith.uitofp %arg1 : i64 to f32
        %c0_295 = arith.constant 0 : index
        %c32_296 = arith.constant 32 : index
        %c8_297 = arith.constant 8 : index
        %48:2 = scf.for %arg8 = %c0_295 to %c32_296 step %c8_297 iter_args(%arg9 = %45, %arg10 = %46) -> (tensor<32xf32>, tensor<32xf32>) {
          %extracted_slice_410 = tensor.extract_slice %arg9[%arg8] [8] [1] : tensor<32xf32> to tensor<8xf32>
          %extracted_slice_411 = tensor.extract_slice %arg10[%arg8] [8] [1] : tensor<32xf32> to tensor<8xf32>
          %81:2 = linalg.generic {indexing_maps = [#map1, #map1], iterator_types = ["parallel"]} outs(%extracted_slice_410, %extracted_slice_411 : tensor<8xf32>, tensor<8xf32>) {
          ^bb0(%out: f32, %out_414: f32):
            %82 = linalg.index 0 : index
            %83 = affine.apply #map6(%82, %arg8)
            %84 = arith.index_cast %83 : index to i64
            %85 = arith.uitofp %84 : i64 to f32
            %86 = arith.mulf %85, %cst_155 : f32
            %87 = arith.divf %86, %cst_156 : f32
            %88 = math.powf %cst_157, %87 : f32
            %89 = arith.mulf %47, %88 : f32
            %90 = math.cos %89 : f32
            %91 = math.sin %89 : f32
            linalg.yield %90, %91 : f32, f32
          } -> (tensor<8xf32>, tensor<8xf32>)
          %inserted_slice_412 = tensor.insert_slice %81#0 into %arg9[%arg8] [8] [1] : tensor<8xf32> into tensor<32xf32>
          %inserted_slice_413 = tensor.insert_slice %81#1 into %arg10[%arg8] [8] [1] : tensor<8xf32> into tensor<32xf32>
          scf.yield %inserted_slice_412, %inserted_slice_413 : tensor<32xf32>, tensor<32xf32>
        }
        %expanded_298 = tensor.expand_shape %reshape_294 [[0], [1], [2, 3]] output_shape [1, 12, 32, 2] : tensor<1x12x64xf32> into tensor<1x12x32x2xf32>
        %extracted_slice_299 = tensor.extract_slice %expanded_298[0, 0, 0, 0] [1, 12, 32, 1] [1, 1, 1, 1] : tensor<1x12x32x2xf32> to tensor<1x12x32x1xf32>
        %extracted_slice_300 = tensor.extract_slice %expanded_298[0, 0, 0, 1] [1, 12, 32, 1] [1, 1, 1, 1] : tensor<1x12x32x2xf32> to tensor<1x12x32x1xf32>
        %expanded_301 = tensor.expand_shape %48#0 [[0, 1]] output_shape [32, 1] : tensor<32xf32> into tensor<32x1xf32>
        %expanded_302 = tensor.expand_shape %48#1 [[0, 1]] output_shape [32, 1] : tensor<32xf32> into tensor<32x1xf32>
        %49 = tensor.empty() : tensor<1x12x32x1xf32>
        %50 = tensor.empty() : tensor<1x12x32x1xf32>
        %c0_303 = arith.constant 0 : index
        %c1_304 = arith.constant 1 : index
        %c8_305 = arith.constant 8 : index
        %c0_306 = arith.constant 0 : index
        %c12_307 = arith.constant 12 : index
        %c8_308 = arith.constant 8 : index
        %c0_309 = arith.constant 0 : index
        %c32_310 = arith.constant 32 : index
        %c8_311 = arith.constant 8 : index
        %51:2 = scf.for %arg8 = %c0_303 to %c1_304 step %c8_305 iter_args(%arg9 = %49, %arg10 = %50) -> (tensor<1x12x32x1xf32>, tensor<1x12x32x1xf32>) {
          %81:2 = scf.for %arg11 = %c0_306 to %c12_307 step %c8_308 iter_args(%arg12 = %arg9, %arg13 = %arg10) -> (tensor<1x12x32x1xf32>, tensor<1x12x32x1xf32>) {
            %82:2 = scf.for %arg14 = %c0_309 to %c32_310 step %c8_311 iter_args(%arg15 = %arg12, %arg16 = %arg13) -> (tensor<1x12x32x1xf32>, tensor<1x12x32x1xf32>) {
              %83 = affine.min #map(%arg8)
              %84 = affine.min #map7(%arg11)
              %85 = affine.min #map(%arg8)
              %86 = affine.min #map7(%arg11)
              %87 = affine.min #map(%arg8)
              %88 = affine.min #map7(%arg11)
              %89 = affine.min #map(%arg8)
              %90 = affine.min #map7(%arg11)
              %extracted_slice_410 = tensor.extract_slice %extracted_slice_299[%arg8, %arg11, %arg14, 0] [%83, %84, 8, 1] [1, 1, 1, 1] : tensor<1x12x32x1xf32> to tensor<?x?x8x1xf32>
              %extracted_slice_411 = tensor.extract_slice %extracted_slice_300[%arg8, %arg11, %arg14, 0] [%85, %86, 8, 1] [1, 1, 1, 1] : tensor<1x12x32x1xf32> to tensor<?x?x8x1xf32>
              %extracted_slice_412 = tensor.extract_slice %expanded_301[%arg14, 0] [8, 1] [1, 1] : tensor<32x1xf32> to tensor<8x1xf32>
              %extracted_slice_413 = tensor.extract_slice %expanded_302[%arg14, 0] [8, 1] [1, 1] : tensor<32x1xf32> to tensor<8x1xf32>
              %extracted_slice_414 = tensor.extract_slice %arg15[%arg8, %arg11, %arg14, 0] [%87, %88, 8, 1] [1, 1, 1, 1] : tensor<1x12x32x1xf32> to tensor<?x?x8x1xf32>
              %extracted_slice_415 = tensor.extract_slice %arg16[%arg8, %arg11, %arg14, 0] [%89, %90, 8, 1] [1, 1, 1, 1] : tensor<1x12x32x1xf32> to tensor<?x?x8x1xf32>
              %91:2 = linalg.generic {indexing_maps = [#map8, #map8, #map9, #map9, #map8, #map8], iterator_types = ["parallel", "parallel", "parallel", "parallel"]} ins(%extracted_slice_410, %extracted_slice_411, %extracted_slice_412, %extracted_slice_413 : tensor<?x?x8x1xf32>, tensor<?x?x8x1xf32>, tensor<8x1xf32>, tensor<8x1xf32>) outs(%extracted_slice_414, %extracted_slice_415 : tensor<?x?x8x1xf32>, tensor<?x?x8x1xf32>) {
              ^bb0(%in: f32, %in_418: f32, %in_419: f32, %in_420: f32, %out: f32, %out_421: f32):
                %92 = arith.mulf %in, %in_419 : f32
                %93 = arith.mulf %in_418, %in_420 : f32
                %94 = arith.subf %92, %93 : f32
                %95 = arith.mulf %in_418, %in_419 : f32
                %96 = arith.mulf %in, %in_420 : f32
                %97 = arith.addf %95, %96 : f32
                linalg.yield %94, %97 : f32, f32
              } -> (tensor<?x?x8x1xf32>, tensor<?x?x8x1xf32>)
              %inserted_slice_416 = tensor.insert_slice %91#0 into %arg15[%arg8, %arg11, %arg14, 0] [%87, %88, 8, 1] [1, 1, 1, 1] : tensor<?x?x8x1xf32> into tensor<1x12x32x1xf32>
              %inserted_slice_417 = tensor.insert_slice %91#1 into %arg16[%arg8, %arg11, %arg14, 0] [%89, %90, 8, 1] [1, 1, 1, 1] : tensor<?x?x8x1xf32> into tensor<1x12x32x1xf32>
              scf.yield %inserted_slice_416, %inserted_slice_417 : tensor<1x12x32x1xf32>, tensor<1x12x32x1xf32>
            }
            scf.yield %82#0, %82#1 : tensor<1x12x32x1xf32>, tensor<1x12x32x1xf32>
          }
          scf.yield %81#0, %81#1 : tensor<1x12x32x1xf32>, tensor<1x12x32x1xf32>
        }
        %52 = tensor.empty() : tensor<1x12x32x2xf32>
        %inserted_slice_312 = tensor.insert_slice %51#0 into %52[0, 0, 0, 0] [1, 12, 32, 1] [1, 1, 1, 1] : tensor<1x12x32x1xf32> into tensor<1x12x32x2xf32>
        %inserted_slice_313 = tensor.insert_slice %51#1 into %inserted_slice_312[0, 0, 0, 1] [1, 12, 32, 1] [1, 1, 1, 1] : tensor<1x12x32x1xf32> into tensor<1x12x32x2xf32>
        %collapsed_314 = tensor.collapse_shape %inserted_slice_313 [[0], [1], [2, 3]] : tensor<1x12x32x2xf32> into tensor<1x12x64xf32>
        %reshape_315 = tensor.reshape %collapsed_293(%cst_147) : (tensor<1x12x64xf32>, tensor<3xi64>) -> tensor<1x1x768xf32>
        %53 = arith.index_cast %14 : i64 to index
        %54 = arith.index_cast %arg1 : i64 to index
        %inserted_slice_316 = tensor.insert_slice %reshape_315 into %arg6[%53, %54, 0] [1, 1, 768] [1, 1, 1] : tensor<1x1x768xf32> into tensor<12x1024x768xf32>
        %reshape_317 = tensor.reshape %collapsed_314(%cst_147) : (tensor<1x12x64xf32>, tensor<3xi64>) -> tensor<1x1x768xf32>
        %55 = arith.index_cast %14 : i64 to index
        %56 = arith.index_cast %arg1 : i64 to index
        %inserted_slice_318 = tensor.insert_slice %reshape_317 into %arg7[%55, %56, 0] [1, 1, 768] [1, 1, 1] : tensor<1x1x768xf32> into tensor<12x1024x768xf32>
        %57 = arith.index_cast %14 : i64 to index
        %extracted_slice_319 = tensor.extract_slice %inserted_slice_316[%57, %c0, %c0] [1, 1024, 768] [1, 1, 1] : tensor<12x1024x768xf32> to tensor<1x1024x768xf32>
        %reshape_320 = tensor.reshape %extracted_slice_319(%cst_146) : (tensor<1x1024x768xf32>, tensor<2xi64>) -> tensor<1024x768xf32>
        %58 = arith.index_cast %14 : i64 to index
        %extracted_slice_321 = tensor.extract_slice %inserted_slice_318[%58, %c0, %c0] [1, 1024, 768] [1, 1, 1] : tensor<12x1024x768xf32> to tensor<1x1024x768xf32>
        %reshape_322 = tensor.reshape %extracted_slice_321(%cst_146) : (tensor<1x1024x768xf32>, tensor<2xi64>) -> tensor<1024x768xf32>
        %59 = scf.for %arg8 = %c0 to %c12 step %c1 iter_args(%arg9 = %cst_154) -> (tensor<1x12x64xf32>) {
          %81 = arith.index_cast %arg8 : index to i64
          %82 = arith.muli %81, %c64_i64 : i64
          %83 = arith.index_cast %82 : i64 to index
          %extracted_slice_410 = tensor.extract_slice %reshape_272[%c0, %83] [1, 64] [1, 1] : tensor<1x768xf32> to tensor<1x64xf32>
          %84 = arith.index_cast %82 : i64 to index
          %extracted_slice_411 = tensor.extract_slice %reshape_320[%c0, %84] [1024, 64] [1, 1] : tensor<1024x768xf32> to tensor<1024x64xf32>
          %85 = tensor.empty() : tensor<1x1024xf32>
          %c0_412 = arith.constant 0 : index
          %c1_413 = arith.constant 1 : index
          %c8_414 = arith.constant 8 : index
          %c0_415 = arith.constant 0 : index
          %c1024 = arith.constant 1024 : index
          %c8_416 = arith.constant 8 : index
          %86 = scf.for %arg10 = %c0_412 to %c1_413 step %c8_414 iter_args(%arg11 = %85) -> (tensor<1x1024xf32>) {
            %103 = scf.for %arg12 = %c0_415 to %c1024 step %c8_416 iter_args(%arg13 = %arg11) -> (tensor<1x1024xf32>) {
              %104 = affine.min #map(%arg10)
              %extracted_slice_473 = tensor.extract_slice %arg13[%arg10, %arg12] [%104, 8] [1, 1] : tensor<1x1024xf32> to tensor<?x8xf32>
              %105 = linalg.generic {indexing_maps = [#map2], iterator_types = ["parallel", "parallel"]} outs(%extracted_slice_473 : tensor<?x8xf32>) {
              ^bb0(%out: f32):
                linalg.yield %cst_160 : f32
              } -> tensor<?x8xf32>
              %inserted_slice_474 = tensor.insert_slice %105 into %arg13[%arg10, %arg12] [%104, 8] [1, 1] : tensor<?x8xf32> into tensor<1x1024xf32>
              scf.yield %inserted_slice_474 : tensor<1x1024xf32>
            }
            scf.yield %103 : tensor<1x1024xf32>
          }
          %c0_417 = arith.constant 0 : index
          %c1_418 = arith.constant 1 : index
          %c8_419 = arith.constant 8 : index
          %c0_420 = arith.constant 0 : index
          %c1024_421 = arith.constant 1024 : index
          %c8_422 = arith.constant 8 : index
          %c0_423 = arith.constant 0 : index
          %c64 = arith.constant 64 : index
          %c8_424 = arith.constant 8 : index
          %87 = scf.for %arg10 = %c0_417 to %c1_418 step %c8_419 iter_args(%arg11 = %86) -> (tensor<1x1024xf32>) {
            %103 = scf.for %arg12 = %c0_420 to %c1024_421 step %c8_422 iter_args(%arg13 = %arg11) -> (tensor<1x1024xf32>) {
              %104 = scf.for %arg14 = %c0_423 to %c64 step %c8_424 iter_args(%arg15 = %arg13) -> (tensor<1x1024xf32>) {
                %105 = affine.min #map(%arg10)
                %106 = affine.min #map(%arg10)
                %extracted_slice_473 = tensor.extract_slice %extracted_slice_410[%arg10, %arg14] [%105, 8] [1, 1] : tensor<1x64xf32> to tensor<?x8xf32>
                %extracted_slice_474 = tensor.extract_slice %extracted_slice_411[%arg12, %arg14] [8, 8] [1, 1] : tensor<1024x64xf32> to tensor<8x8xf32>
                %extracted_slice_475 = tensor.extract_slice %arg15[%arg10, %arg12] [%106, 8] [1, 1] : tensor<1x1024xf32> to tensor<?x8xf32>
                %107 = linalg.generic {indexing_maps = [#map4, #map10, #map5], iterator_types = ["parallel", "parallel", "reduction"]} ins(%extracted_slice_473, %extracted_slice_474 : tensor<?x8xf32>, tensor<8x8xf32>) outs(%extracted_slice_475 : tensor<?x8xf32>) {
                ^bb0(%in: f32, %in_477: f32, %out: f32):
                  %108 = linalg.index 1 : index
                  %109 = affine.apply #map6(%108, %arg12)
                  %110 = arith.index_cast %109 : index to i64
                  %111 = arith.cmpi sle, %110, %arg1 : i64
                  %112 = arith.select %111, %cst_161, %cst_160 : f32
                  %113 = arith.mulf %in, %in_477 : f32
                  %114 = arith.addf %out, %113 : f32
                  %115 = arith.cmpf ugt, %112, %cst_152 : f32
                  %116 = arith.select %115, %114, %cst_153 : f32
                  linalg.yield %116 : f32
                } -> tensor<?x8xf32>
                %inserted_slice_476 = tensor.insert_slice %107 into %arg15[%arg10, %arg12] [%106, 8] [1, 1] : tensor<?x8xf32> into tensor<1x1024xf32>
…
    llvm.cond_br %1252, ^bb222, ^bb223
  ^bb222:  // pred: ^bb221
    %1253 = llvm.getelementptr %1193[%1247] : (!llvm.ptr, i64) -> !llvm.ptr, f32
    %1254 = llvm.mul %1249, %32 : i64
    %1255 = llvm.add %1254, %1251 : i64
    %1256 = llvm.getelementptr %1253[%1255] : (!llvm.ptr, i64) -> !llvm.ptr, f32
    %1257 = llvm.load %1256 : !llvm.ptr -> f32
    %1258 = llvm.getelementptr %1219[%1249] : (!llvm.ptr, i64) -> !llvm.ptr, f32
    %1259 = llvm.load %1258 : !llvm.ptr -> f32
    %1260 = llvm.fsub %1257, %1259  : f32
    %1261 = llvm.intr.exp(%1260)  : (f32) -> f32
    %1262 = llvm.getelementptr %1246[%1247] : (!llvm.ptr, i64) -> !llvm.ptr, f32
    %1263 = llvm.getelementptr %1262[%1255] : (!llvm.ptr, i64) -> !llvm.ptr, f32
    llvm.store %1261, %1263 : f32, !llvm.ptr
    %1264 = llvm.add %1251, %16 : i64
    llvm.br ^bb221(%1264 : i64)
  ^bb223:  // pred: ^bb221
    %1265 = llvm.add %1249, %16 : i64
    llvm.br ^bb219(%1265 : i64)
  ^bb224:  // pred: ^bb219
    %1266 = llvm.mul %165, %35 : i64
    %1267 = llvm.mul %1266, %75 : i64
    %1268 = llvm.getelementptr %1246[%1247] : (!llvm.ptr, i64) -> !llvm.ptr, f32
    "llvm.intr.memcpy"(%1268, %1268, %1267) <{isVolatile = false}> : (!llvm.ptr, !llvm.ptr, i64) -> ()
    %1269 = llvm.add %1247, %35 : i64
    llvm.br ^bb217(%1269 : i64)
  ^bb225:  // pred: ^bb217
    %1270 = llvm.call @malloc(%173) : (i64) -> !llvm.ptr
    %1271 = llvm.ptrtoint %1270 : !llvm.ptr to i64
    %1272 = llvm.add %1271, %57 : i64
    %1273 = llvm.urem %1272, %31  : i64
    %1274 = llvm.sub %1272, %1273 : i64
    %1275 = llvm.inttoptr %1274 : i64 to !llvm.ptr
    llvm.br ^bb226(%17 : i64)
  ^bb226(%1276: i64):  // 2 preds: ^bb225, ^bb227
    %1277 = llvm.icmp "slt" %1276, %16 : i64
    llvm.cond_br %1277, ^bb227, ^bb228
  ^bb227:  // pred: ^bb226
    %1278 = llvm.getelementptr %1275[%1276] : (!llvm.ptr, i64) -> !llvm.ptr, f32
    llvm.store %19, %1278 : f32, !llvm.ptr
    %1279 = llvm.add %1276, %16 : i64
    llvm.br ^bb226(%1279 : i64)
  ^bb228:  // pred: ^bb226
    llvm.br ^bb229(%17 : i64)
  ^bb229(%1280: i64):  // 2 preds: ^bb228, ^bb236
    %1281 = llvm.icmp "slt" %1280, %32 : i64
    llvm.cond_br %1281, ^bb230, ^bb237
  ^bb230:  // pred: ^bb229
    llvm.br ^bb231(%17 : i64)
  ^bb231(%1282: i64):  // 2 preds: ^bb230, ^bb235
    %1283 = llvm.icmp "slt" %1282, %16 : i64
    llvm.cond_br %1283, ^bb232, ^bb236
  ^bb232:  // pred: ^bb231
    llvm.br ^bb233(%17 : i64)
  ^bb233(%1284: i64):  // 2 preds: ^bb232, ^bb234
    %1285 = llvm.icmp "slt" %1284, %35 : i64
    llvm.cond_br %1285, ^bb234, ^bb235
  ^bb234:  // pred: ^bb233
    %1286 = llvm.getelementptr %1246[%1280] : (!llvm.ptr, i64) -> !llvm.ptr, f32
    %1287 = llvm.mul %1282, %32 : i64
    %1288 = llvm.add %1287, %1284 : i64
    %1289 = llvm.getelementptr %1286[%1288] : (!llvm.ptr, i64) -> !llvm.ptr, f32
    %1290 = llvm.load %1289 : !llvm.ptr -> f32
    %1291 = llvm.getelementptr %1275[%1282] : (!llvm.ptr, i64) -> !llvm.ptr, f32
    %1292 = llvm.load %1291 : !llvm.ptr -> f32
    %1293 = llvm.fadd %1290, %1292  : f32
    llvm.store %1293, %1291 : f32, !llvm.ptr
    %1294 = llvm.add %1284, %16 : i64
    llvm.br ^bb233(%1294 : i64)
  ^bb235:  // pred: ^bb233
    %1295 = llvm.add %1282, %16 : i64
    llvm.br ^bb231(%1295 : i64)
  ^bb236:  // pred: ^bb231
    %1296 = llvm.add %1280, %35 : i64
    llvm.br ^bb229(%1296 : i64)
  ^bb237:  // pred: ^bb229
    %1297 = llvm.getelementptr %48[64] : (!llvm.ptr) -> !llvm.ptr, f32
    %1298 = llvm.ptrtoint %1297 : !llvm.ptr to i64
    %1299 = llvm.add %1298, %31 : i64
    %1300 = llvm.call @malloc(%1299) : (i64) -> !llvm.ptr
    %1301 = llvm.ptrtoint %1300 : !llvm.ptr to i64
    %1302 = llvm.add %1301, %57 : i64
    %1303 = llvm.urem %1302, %31  : i64
    %1304 = llvm.sub %1302, %1303 : i64
    %1305 = llvm.inttoptr %1304 : i64 to !llvm.ptr
    llvm.br ^bb238(%17 : i64)
  ^bb238(%1306: i64):  // 2 preds: ^bb237, ^bb245
    %1307 = llvm.icmp "slt" %1306, %31 : i64
    llvm.cond_br %1307, ^bb239, ^bb246
  ^bb239:  // pred: ^bb238
    llvm.br ^bb240(%17 : i64)
  ^bb240(%1308: i64):  // 2 preds: ^bb239, ^bb244
    %1309 = llvm.icmp "slt" %1308, %16 : i64
    llvm.cond_br %1309, ^bb241, ^bb245
  ^bb241:  // pred: ^bb240
    llvm.br ^bb242(%17 : i64)
  ^bb242(%1310: i64):  // 2 preds: ^bb241, ^bb243
    %1311 = llvm.icmp "slt" %1310, %35 : i64
    llvm.cond_br %1311, ^bb243, ^bb244
  ^bb243:  // pred: ^bb242
    %1312 = llvm.getelementptr %1305[%1306] : (!llvm.ptr, i64) -> !llvm.ptr, f32
    %1313 = llvm.mul %1308, %31 : i64
    %1314 = llvm.add %1313, %1310 : i64
    %1315 = llvm.getelementptr %1312[%1314] : (!llvm.ptr, i64) -> !llvm.ptr, f32
    llvm.store %19, %1315 : f32, !llvm.ptr
    %1316 = llvm.add %1310, %16 : i64
    llvm.br ^bb242(%1316 : i64)
  ^bb244:  // pred: ^bb242
    %1317 = llvm.add %1308, %16 : i64
    llvm.br ^bb240(%1317 : i64)
  ^bb245:  // pred: ^bb240
    %1318 = llvm.mul %165, %35 : i64
    %1319 = llvm.mul %1318, %75 : i64
    %1320 = llvm.getelementptr %1305[%1306] : (!llvm.ptr, i64) -> !llvm.ptr, f32
    "llvm.intr.memcpy"(%1320, %1320, %1319) <{isVolatile = false}> : (!llvm.ptr, !llvm.ptr, i64) -> ()
    %1321 = llvm.add %1306, %35 : i64
    llvm.br ^bb238(%1321 : i64)
  ^bb246:  // pred: ^bb238
    %1322 = llvm.call @malloc(%1299) : (i64) -> !llvm.ptr
    %1323 = llvm.ptrtoint %1322 : !llvm.ptr to i64
    %1324 = llvm.add %1323, %57 : i64
    %1325 = llvm.urem %1324, %31  : i64
    %1326 = llvm.sub %1324, %1325 : i64
    %1327 = llvm.inttoptr %1326 : i64 to !llvm.ptr
    %1328 = llvm.mul %165, %31 : i64
    %1329 = llvm.mul %1328, %75 : i64
    "llvm.intr.memcpy"(%1327, %1305, %1329) <{isVolatile = false}> : (!llvm.ptr, !llvm.ptr, i64) -> ()
    llvm.br ^bb247(%17 : i64)
  ^bb247(%1330: i64):  // 2 preds: ^bb246, ^bb260
    %1331 = llvm.icmp "slt" %1330, %31 : i64
    llvm.cond_br %1331, ^bb248, ^bb261
  ^bb248:  // pred: ^bb247
    llvm.br ^bb249(%17 : i64)
  ^bb249(%1332: i64):  // 2 preds: ^bb248, ^bb259
    %1333 = llvm.icmp "slt" %1332, %32 : i64
    llvm.cond_br %1333, ^bb250, ^bb260
  ^bb250:  // pred: ^bb249
    %1334 = llvm.mul %1332, %34 : i64
    %1335 = llvm.add %1118, %1334 : i64
    %1336 = llvm.add %1335, %1330 : i64
    llvm.br ^bb251(%17 : i64)
  ^bb251(%1337: i64):  // 2 preds: ^bb250, ^bb258
    %1338 = llvm.icmp "slt" %1337, %16 : i64
    llvm.cond_br %1338, ^bb252, ^bb259
  ^bb252:  // pred: ^bb251
    llvm.br ^bb253(%17 : i64)
  ^bb253(%1339: i64):  // 2 preds: ^bb252, ^bb257
    %1340 = llvm.icmp "slt" %1339, %35 : i64
    llvm.cond_br %1340, ^bb254, ^bb258
  ^bb254:  // pred: ^bb253
    llvm.br ^bb255(%17 : i64)
  ^bb255(%1341: i64):  // 2 preds: ^bb254, ^bb256
    %1342 = llvm.icmp "slt" %1341, %35 : i64
    llvm.cond_br %1342, ^bb256, ^bb257
  ^bb256:  // pred: ^bb255
    %1343 = llvm.getelementptr %1246[%1332] : (!llvm.ptr, i64) -> !llvm.ptr, f32
    %1344 = llvm.mul %1337, %32 : i64
    %1345 = llvm.add %1344, %1341 : i64
    %1346 = llvm.getelementptr %1343[%1345] : (!llvm.ptr, i64) -> !llvm.ptr, f32
    %1347 = llvm.load %1346 : !llvm.ptr -> f32
    %1348 = llvm.getelementptr %1275[%1337] : (!llvm.ptr, i64) -> !llvm.ptr, f32
    %1349 = llvm.load %1348 : !llvm.ptr -> f32
    %1350 = llvm.getelementptr %1106[%1336] : (!llvm.ptr, i64) -> !llvm.ptr, f32
    %1351 = llvm.mul %1341, %34 : i64
    %1352 = llvm.add %1351, %1339 : i64
    %1353 = llvm.getelementptr %1350[%1352] : (!llvm.ptr, i64) -> !llvm.ptr, f32
    %1354 = llvm.load %1353 : !llvm.ptr -> f32
    %1355 = llvm.getelementptr %1327[%1330] : (!llvm.ptr, i64) -> !llvm.ptr, f32
    %1356 = llvm.mul %1337, %31 : i64
    %1357 = llvm.add %1356, %1339 : i64
    %1358 = llvm.getelementptr %1355[%1357] : (!llvm.ptr, i64) -> !llvm.ptr, f32
    %1359 = llvm.load %1358 : !llvm.ptr -> f32
    %1360 = llvm.fdiv %1347, %1349  : f32
    %1361 = llvm.fmul %1360, %1354  : f32
    %1362 = llvm.fadd %1359, %1361  : f32
    llvm.store %1362, %1358 : f32, !llvm.ptr
    %1363 = llvm.add %1341, %16 : i64
    llvm.br ^bb255(%1363 : i64)
  ^bb257:  // pred: ^bb255
    %1364 = llvm.add %1339, %16 : i64
    llvm.br ^bb253(%1364 : i64)
  ^bb258:  // pred: ^bb253
    %1365 = llvm.add %1337, %16 : i64
    llvm.br ^bb251(%1365 : i64)
  ^bb259:  // pred: ^bb251
    %1366 = llvm.mul %165, %35 : i64
    %1367 = llvm.mul %1366, %75 : i64
    %1368 = llvm.getelementptr %1327[%1330] : (!llvm.ptr, i64) -> !llvm.ptr, f32
    "llvm.intr.memcpy"(%1368, %1368, %1367) <{isVolatile = false}> : (!llvm.ptr, !llvm.ptr, i64) -> ()
    %1369 = llvm.add %1332, %35 : i64
    llvm.br ^bb249(%1369 : i64)
  ^bb260:  // pred: ^bb249
    %1370 = llvm.add %1330, %35 : i64
    llvm.br ^bb247(%1370 : i64)
  ^bb261:  // pred: ^bb247
    %1371 = llvm.mul %1116, %31 : i64
    %1372 = llvm.mul %1067, %31 : i64
    %1373 = llvm.mul %1372, %75 : i64
    %1374 = llvm.getelementptr %1113[%1371] : (!llvm.ptr, i64) -> !llvm.ptr, f32
    "llvm.intr.memcpy"(%1374, %1327, %1373) <{isVolatile = false}> : (!llvm.ptr, !llvm.ptr, i64) -> ()
    %1375 = llvm.add %1116, %16 : i64
    llvm.br ^bb170(%1375 : i64)
  ^bb262:  // pred: ^bb170
    %1376 = llvm.call @malloc(%151) : (i64) -> !llvm.ptr
    %1377 = llvm.ptrtoint %1376 : !llvm.ptr to i64
    %1378 = llvm.add %1377, %57 : i64
    %1379 = llvm.urem %1378, %31  : i64
    %1380 = llvm.sub %1378, %1379 : i64
    %1381 = llvm.inttoptr %1380 : i64 to !llvm.ptr
    llvm.br ^bb263(%17 : i64)
  ^bb263(%1382: i64):  // 2 preds: ^bb262, ^bb270
    %1383 = llvm.icmp "slt" %1382, %34 : i64
    llvm.cond_br %1383, ^bb264, ^bb271
  ^bb264:  // pred: ^bb263
    llvm.br ^bb265(%17 : i64)
  ^bb265(%1384: i64):  // 2 preds: ^bb264, ^bb269
    %1385 = llvm.icmp "slt" %1384, %16 : i64
    llvm.cond_br %1385, ^bb266, ^bb270
  ^bb266:  // pred: ^bb265
    llvm.br ^bb267(%17 : i64)
  ^bb267(%1386: i64):  // 2 preds: ^bb266, ^bb268
    %1387 = llvm.icmp "slt" %1386, %35 : i64
    llvm.cond_br %1387, ^bb268, ^bb269
  ^bb268:  // pred: ^bb267
    %1388 = llvm.getelementptr %1381[%1382] : (!llvm.ptr, i64) -> !llvm.ptr, f32
    %1389 = llvm.mul %1384, %34 : i64
    %1390 = llvm.add %1389, %1386 : i64
    %1391 = llvm.getelementptr %1388[%1390] : (!llvm.ptr, i64) -> !llvm.ptr, f32
    llvm.store %19, %1391 : f32, !llvm.ptr
    %1392 = llvm.add %1386, %16 : i64
    llvm.br ^bb267(%1392 : i64)
  ^bb269:  // pred: ^bb267
    %1393 = llvm.add %1384, %16 : i64
    llvm.br ^bb265(%1393 : i64)
  ^bb270:  // pred: ^bb265
    %1394 = llvm.mul %165, %35 : i64
    %1395 = llvm.mul %1394, %75 : i64
    %1396 = llvm.getelementptr %1381[%1382] : (!llvm.ptr, i64) -> !llvm.ptr, f32
    "llvm.intr.memcpy"(%1396, %1396, %1395) <{isVolatile = false}> : (!llvm.ptr, !llvm.ptr, i64) -> ()
    %1397 = llvm.add %1382, %35 : i64
    llvm.br ^bb263(%1397 : i64)
  ^bb271:  // pred: ^bb263
    llvm.br ^bb272(%17 : i64)
  ^bb272(%1398: i64):  // 2 preds: ^bb271, ^bb285
    %1399 = llvm.icmp "slt" %1398, %34 : i64
    llvm.cond_br %1399, ^bb273, ^bb286
  ^bb273:  // pred: ^bb272
    llvm.br ^bb274(%17 : i64)
  ^bb274(%1400: i64):  // 2 preds: ^bb273, ^bb284
    %1401 = llvm.icmp "slt" %1400, %34 : i64
    llvm.cond_br %1401, ^bb275, ^bb285
  ^bb275:  // pred: ^bb274
    llvm.br ^bb276(%17 : i64)
  ^bb276(%1402: i64):  // 2 preds: ^bb275, ^bb283
    %1403 = llvm.icmp "slt" %1402, %16 : i64
    llvm.cond_br %1403, ^bb277, ^bb284
  ^bb277:  // pred: ^bb276
    llvm.br ^bb278(%17 : i64)
  ^bb278(%1404: i64):  // 2 preds: ^bb277, ^bb282
    %1405 = llvm.icmp "slt" %1404, %35 : i64
    llvm.cond_br %1405, ^bb279, ^bb283
  ^bb279:  // pred: ^bb278
    llvm.br ^bb280(%17 : i64)
  ^bb280(%1406: i64):  // 2 preds: ^bb279, ^bb281
    %1407 = llvm.icmp "slt" %1406, %35 : i64
    llvm.cond_br %1407, ^bb281, ^bb282
  ^bb281:  // pred: ^bb280
    %1408 = llvm.getelementptr %1113[%1400] : (!llvm.ptr, i64) -> !llvm.ptr, f32
    %1409 = llvm.mul %1402, %34 : i64
    %1410 = llvm.add %1409, %1406 : i64
    %1411 = llvm.getelementptr %1408[%1410] : (!llvm.ptr, i64) -> !llvm.ptr, f32
    %1412 = llvm.load %1411 : !llvm.ptr -> f32
    %1413 = llvm.getelementptr %1381[%1398] : (!llvm.ptr, i64) -> !llvm.ptr, f32
    %1414 = llvm.add %1409, %1404 : i64
    %1415 = llvm.getelementptr %1413[%1414] : (!llvm.ptr, i64) -> !llvm.ptr, f32
    %1416 = llvm.load %1415 : !llvm.ptr -> f32
    %1417 = llvm.fmul %1412, %42  : f32
    %1418 = llvm.fadd %1416, %1417  : f32
    llvm.store %1418, %1415 : f32, !llvm.ptr
    %1419 = llvm.add %1406, %16 : i64
    llvm.br ^bb280(%1419 : i64)
  ^bb282:  // pred: ^bb280
    %1420 = llvm.add %1404, %16 : i64
    llvm.br ^bb278(%1420 : i64)
  ^bb283:  // pred: ^bb278
    %1421 = llvm.add %1402, %16 : i64
    llvm.br ^bb276(%1421 : i64)
  ^bb284:  // pred: ^bb276
    %1422 = llvm.mul %165, %35 : i64
    %1423 = llvm.mul %1422, %75 : i64
    %1424 = llvm.getelementptr %1381[%1398] : (!llvm.ptr, i64) -> !llvm.ptr, f32
    "llvm.intr.memcpy"(%1424, %1424, %1423) <{isVolatile = false}> : (!llvm.ptr, !llvm.ptr, i64) -> ()
    %1425 = llvm.add %1400, %35 : i64
    llvm.br ^bb274(%1425 : i64)
  ^bb285:  // pred: ^bb274
    %1426 = llvm.add %1398, %35 : i64
    llvm.br ^bb272(%1426 : i64)
  ^bb286:  // pred: ^bb272
    %1427 = llvm.call @malloc(%151) : (i64) -> !llvm.ptr
    %1428 = llvm.ptrtoint %1427 : !llvm.ptr to i64
    %1429 = llvm.add %1428, %57 : i64
    %1430 = llvm.urem %1429, %31  : i64
    %1431 = llvm.sub %1429, %1430 : i64
    %1432 = llvm.inttoptr %1431 : i64 to !llvm.ptr
    llvm.br ^bb287(%17 : i64)
  ^bb287(%1433: i64):  // 2 preds: ^bb286, ^bb294
    %1434 = llvm.icmp "slt" %1433, %34 : i64
    llvm.cond_br %1434, ^bb288, ^bb295
  ^bb288:  // pred: ^bb287
    %1435 = llvm.extractvalue %169[1] : !llvm.struct<(ptr, ptr, i64, array<2 x i64>, array<2 x i64>)> 
    llvm.br ^bb289(%17 : i64)
  ^bb289(%1436: i64):  // 2 preds: ^bb288, ^bb293
    %1437 = llvm.icmp "slt" %1436, %16 : i64
    llvm.cond_br %1437, ^bb290, ^bb294
  ^bb290:  // pred: ^bb289
    llvm.br ^bb291(%17 : i64)
  ^bb291(%1438: i64):  // 2 preds: ^bb290, ^bb292
    %1439 = llvm.icmp "slt" %1438, %35 : i64
    llvm.cond_br %1439, ^bb292, ^bb293
  ^bb292:  // pred: ^bb291
    %1440 = llvm.getelementptr %1435[%1433] : (!llvm.ptr, i64) -> !llvm.ptr, f32
    %1441 = llvm.mul %1436, %34 : i64
    %1442 = llvm.add %1441, %1438 : i64
    %1443 = llvm.getelementptr %1440[%1442] : (!llvm.ptr, i64) -> !llvm.ptr, f32
    %1444 = llvm.load %1443 : !llvm.ptr -> f32
    %1445 = llvm.getelementptr %1381[%1433] : (!llvm.ptr, i64) -> !llvm.ptr, f32
    %1446 = llvm.getelementptr %1445[%1442] : (!llvm.ptr, i64) -> !llvm.ptr, f32
    %1447 = llvm.load %1446 : !llvm.ptr -> f32
    %1448 = llvm.fadd %1444, %1447  : f32
    %1449 = llvm.getelementptr %1432[%1433] : (!llvm.ptr, i64) -> !llvm.ptr, f32
    %1450 = llvm.getelementptr %1449[%1442] : (!llvm.ptr, i64) -> !llvm.ptr, f32
    llvm.store %1448, %1450 : f32, !llvm.ptr
    %1451 = llvm.add %1438, %16 : i64
    llvm.br ^bb291(%1451 : i64)
  ^bb293:  // pred: ^bb291
    %1452 = llvm.add %1436, %16 : i64
    llvm.br ^bb289(%1452 : i64)
  ^bb294:  // pred: ^bb289
    %1453 = llvm.mul %165, %35 : i64
    %1454 = llvm.mul %1453, %75 : i64
    %1455 = llvm.getelementptr %1432[%1433] : (!llvm.ptr, i64) -> !llvm.ptr, f32
    "llvm.intr.memcpy"(%1455, %1455, %1454) <{isVolatile = false}> : (!llvm.ptr, !llvm.ptr, i64) -> ()
    %1456 = llvm.add %1433, %35 : i64
    llvm.br ^bb287(%1456 : i64)
  ^bb295:  // pred: ^bb287
    %1457 = llvm.call @malloc(%173) : (i64) -> !llvm.ptr
    %1458 = llvm.ptrtoint %1457 : !llvm.ptr to i64
    %1459 = llvm.add %1458, %57 : i64
    %1460 = llvm.urem %1459, %31  : i64
    %1461 = llvm.sub %1459, %1460 : i64
    %1462 = llvm.inttoptr %1461 : i64 to !llvm.ptr
    llvm.br ^bb296(%17 : i64)
  ^bb296(%1463: i64):  // 2 preds: ^bb295, ^bb297
    %1464 = llvm.icmp "slt" %1463, %16 : i64
    llvm.cond_br %1464, ^bb297, ^bb298
  ^bb297:  // pred: ^bb296
    %1465 = llvm.getelementptr %1462[%1463] : (!llvm.ptr, i64) -> !llvm.ptr, f32
    llvm.store %19, %1465 : f32, !llvm.ptr
    %1466 = llvm.add %1463, %16 : i64
    llvm.br ^bb296(%1466 : i64)
  ^bb298:  // pred: ^bb296
    llvm.br ^bb299(%17 : i64)
  ^bb299(%1467: i64):  // 2 preds: ^bb298, ^bb306
    %1468 = llvm.icmp "slt" %1467, %34 : i64
    llvm.cond_br %1468, ^bb300, ^bb307
  ^bb300:  // pred: ^bb299
    llvm.br ^bb301(%17 : i64)
  ^bb301(%1469: i64):  // 2 preds: ^bb300, ^bb305
    %1470 = llvm.icmp "slt" %1469, %16 : i64
    llvm.cond_br %1470, ^bb302, ^bb306
  ^bb302:  // pred: ^bb301
    llvm.br ^bb303(%17 : i64)
  ^bb303(%1471: i64):  // 2 preds: ^bb302, ^bb304
    %1472 = llvm.icmp "slt" %1471, %35 : i64
    llvm.cond_br %1472, ^bb304, ^bb305
  ^bb304:  // pred: ^bb303
    %1473 = llvm.getelementptr %1432[%1467] : (!llvm.ptr, i64) -> !llvm.ptr, f32
    %1474 = llvm.mul %1469, %34 : i64
    %1475 = llvm.add %1474, %1471 : i64
    %1476 = llvm.getelementptr %1473[%1475] : (!llvm.ptr, i64) -> !llvm.ptr, f32
    %1477 = llvm.load %1476 : !llvm.ptr -> f32
    %1478 = llvm.getelementptr %1462[%1469] : (!llvm.ptr, i64) -> !llvm.ptr, f32
    %1479 = llvm.load %1478 : !llvm.ptr -> f32
    %1480 = llvm.fmul %1477, %1477  : f32
    %1481 = llvm.fadd %1479, %1480  : f32
    llvm.store %1481, %1478 : f32, !llvm.ptr
    %1482 = llvm.add %1471, %16 : i64
    llvm.br ^bb303(%1482 : i64)
  ^bb305:  // pred: ^bb303
    %1483 = llvm.add %1469, %16 : i64
    llvm.br ^bb301(%1483 : i64)
  ^bb306:  // pred: ^bb301
    %1484 = llvm.add %1467, %35 : i64
    llvm.br ^bb299(%1484 : i64)
  ^bb307:  // pred: ^bb299
    %1485 = llvm.call @malloc(%151) : (i64) -> !llvm.ptr
    %1486 = llvm.ptrtoint %1485 : !llvm.ptr to i64
    %1487 = llvm.add %1486, %57 : i64
    %1488 = llvm.urem %1487, %31  : i64
    %1489 = llvm.sub %1487, %1488 : i64
    %1490 = llvm.inttoptr %1489 : i64 to !llvm.ptr
    llvm.br ^bb308(%17 : i64)
  ^bb308(%1491: i64):  // 2 preds: ^bb307, ^bb315
    %1492 = llvm.icmp "slt" %1491, %34 : i64
    llvm.cond_br %1492, ^bb309, ^bb316
  ^bb309:  // pred: ^bb308
    llvm.br ^bb310(%17 : i64)
  ^bb310(%1493: i64):  // 2 preds: ^bb309, ^bb314
    %1494 = llvm.icmp "slt" %1493, %16 : i64
    llvm.cond_br %1494, ^bb311, ^bb315
  ^bb311:  // pred: ^bb310
    llvm.br ^bb312(%17 : i64)
  ^bb312(%1495: i64):  // 2 preds: ^bb311, ^bb313
    %1496 = llvm.icmp "slt" %1495, %35 : i64
    llvm.cond_br %1496, ^bb313, ^bb314
  ^bb313:  // pred: ^bb312
    %1497 = llvm.getelementptr %1432[%1491] : (!llvm.ptr, i64) -> !llvm.ptr, f32
    %1498 = llvm.mul %1493, %34 : i64
    %1499 = llvm.add %1498, %1495 : i64
    %1500 = llvm.getelementptr %1497[%1499] : (!llvm.ptr, i64) -> !llvm.ptr, f32
    %1501 = llvm.load %1500 : !llvm.ptr -> f32
    %1502 = llvm.getelementptr %1462[%1493] : (!llvm.ptr, i64) -> !llvm.ptr, f32
    %1503 = llvm.load %1502 : !llvm.ptr -> f32
    %1504 = llvm.fdiv %1503, %28  : f32
    %1505 = llvm.fadd %1504, %22  : f32
    %1506 = llvm.intr.sqrt(%1505)  : (f32) -> f32
    %1507 = llvm.fdiv %18, %1506  : f32
    %1508 = llvm.fmul %1501, %1507  : f32
    %1509 = llvm.fmul %1508, %41  : f32
    %1510 = llvm.getelementptr %1490[%1491] : (!llvm.ptr, i64) -> !llvm.ptr, f32
    %1511 = llvm.getelementptr %1510[%1499] : (!llvm.ptr, i64) -> !llvm.ptr, f32
    llvm.store %1509, %1511 : f32, !llvm.ptr
    %1512 = llvm.add %1495, %16 : i64
    llvm.br ^bb312(%1512 : i64)
  ^bb314:  // pred: ^bb312
    %1513 = llvm.add %1493, %16 : i64
    llvm.br ^bb310(%1513 : i64)
  ^bb315:  // pred: ^bb310
    %1514 = llvm.mul %165, %35 : i64
    %1515 = llvm.mul %1514, %75 : i64
    %1516 = llvm.getelementptr %1490[%1491] : (!llvm.ptr, i64) -> !llvm.ptr, f32
    "llvm.intr.memcpy"(%1516, %1516, %1515) <{isVolatile = false}> : (!llvm.ptr, !llvm.ptr, i64) -> ()
    %1517 = llvm.add %1491, %35 : i64
    llvm.br ^bb308(%1517 : i64)
  ^bb316:  // pred: ^bb308
    %1518 = llvm.getelementptr %48[2048] : (!llvm.ptr) -> !llvm.ptr, f32
    %1519 = llvm.ptrtoint %1518 : !llvm.ptr to i64
    %1520 = llvm.add %1519, %31 : i64
    %1521 = llvm.call @malloc(%1520) : (i64) -> !llvm.ptr
    %1522 = llvm.ptrtoint %1521 : !llvm.ptr to i64
    %1523 = llvm.add %1522, %57 : i64
    %1524 = llvm.urem %1523, %31  : i64
    %1525 = llvm.sub %1523, %1524 : i64
    %1526 = llvm.inttoptr %1525 : i64 to !llvm.ptr
    llvm.br ^bb317(%17 : i64)
  ^bb317(%1527: i64):  // 2 preds: ^bb316, ^bb324
    %1528 = llvm.icmp "slt" %1527, %30 : i64
    llvm.cond_br %1528, ^bb318, ^bb325
  ^bb318:  // pred: ^bb317
    llvm.br ^bb319(%17 : i64)
  ^bb319(%1529: i64):  // 2 preds: ^bb318, ^bb323
    %1530 = llvm.icmp "slt" %1529, %16 : i64
    llvm.cond_br %1530, ^bb320, ^bb324
  ^bb320:  // pred: ^bb319
    llvm.br ^bb321(%17 : i64)
  ^bb321(%1531: i64):  // 2 preds: ^bb320, ^bb322
    %1532 = llvm.icmp "slt" %1531, %35 : i64
    llvm.cond_br %1532, ^bb322, ^bb323
  ^bb322:  // pred: ^bb321
    %1533 = llvm.getelementptr %1526[%1527] : (!llvm.ptr, i64) -> !llvm.ptr, f32
    %1534 = llvm.mul %1529, %30 : i64
    %1535 = llvm.add %1534, %1531 : i64
    %1536 = llvm.getelementptr %1533[%1535] : (!llvm.ptr, i64) -> !llvm.ptr, f32
    llvm.store %19, %1536 : f32, !llvm.ptr
    %1537 = llvm.add %1531, %16 : i64
    llvm.br ^bb321(%1537 : i64)
  ^bb323:  // pred: ^bb321
    %1538 = llvm.add %1529, %16 : i64
    llvm.br ^bb319(%1538 : i64)
  ^bb324:  // pred: ^bb319
    %1539 = llvm.mul %165, %35 : i64
    %1540 = llvm.mul %1539, %75 : i64
    %1541 = llvm.getelementptr %1526[%1527] : (!llvm.ptr, i64) -> !llvm.ptr, f32
    "llvm.intr.memcpy"(%1541, %1541, %1540) <{isVolatile = false}> : (!llvm.ptr, !llvm.ptr, i64) -> ()
    %1542 = llvm.add %1527, %35 : i64
    llvm.br ^bb317(%1542 : i64)
  ^bb325:  // pred: ^bb317
    llvm.br ^bb326(%17 : i64)
  ^bb326(%1543: i64):  // 2 preds: ^bb325, ^bb339
    %1544 = llvm.icmp "slt" %1543, %30 : i64
    llvm.cond_br %1544, ^bb327, ^bb340
  ^bb327:  // pred: ^bb326
    llvm.br ^bb328(%17 : i64)
  ^bb328(%1545: i64):  // 2 preds: ^bb327, ^bb338
    %1546 = llvm.icmp "slt" %1545, %34 : i64
    llvm.cond_br %1546, ^bb329, ^bb339
  ^bb329:  // pred: ^bb328
    llvm.br ^bb330(%17 : i64)
  ^bb330(%1547: i64):  // 2 preds: ^bb329, ^bb337
    %1548 = llvm.icmp "slt" %1547, %16 : i64
    llvm.cond_br %1548, ^bb331, ^bb338
  ^bb331:  // pred: ^bb330
    llvm.br ^bb332(%17 : i64)
  ^bb332(%1549: i64):  // 2 preds: ^bb331, ^bb336
    %1550 = llvm.icmp "slt" %1549, %35 : i64
    llvm.cond_br %1550, ^bb333, ^bb337
  ^bb333:  // pred: ^bb332
    llvm.br ^bb334(%17 : i64)
  ^bb334(%1551: i64):  // 2 preds: ^bb333, ^bb335
    %1552 = llvm.icmp "slt" %1551, %35 : i64
    llvm.cond_br %1552, ^bb335, ^bb336
  ^bb335:  // pred: ^bb334
    %1553 = llvm.getelementptr %1490[%1545] : (!llvm.ptr, i64) -> !llvm.ptr, f32
    %1554 = llvm.mul %1547, %34 : i64
    %1555 = llvm.add %1554, %1551 : i64
    %1556 = llvm.getelementptr %1553[%1555] : (!llvm.ptr, i64) -> !llvm.ptr, f32
    %1557 = llvm.load %1556 : !llvm.ptr -> f32
    %1558 = llvm.getelementptr %1526[%1543] : (!llvm.ptr, i64) -> !llvm.ptr, f32
    %1559 = llvm.mul %1547, %30 : i64
    %1560 = llvm.add %1559, %1549 : i64
    %1561 = llvm.getelementptr %1558[%1560] : (!llvm.ptr, i64) -> !llvm.ptr, f32
    %1562 = llvm.load %1561 : !llvm.ptr -> f32
    %1563 = llvm.fmul %1557, %40  : f32
    %1564 = llvm.fadd %1562, %1563  : f32
    llvm.store %1564, %1561 : f32, !llvm.ptr
    %1565 = llvm.add %1551, %16 : i64
    llvm.br ^bb334(%1565 : i64)
  ^bb336:  // pred: ^bb334
    %1566 = llvm.add %1549, %16 : i64
    llvm.br ^bb332(%1566 : i64)
  ^bb337:  // pred: ^bb332
    %1567 = llvm.add %1547, %16 : i64
    llvm.br ^bb330(%1567 : i64)
  ^bb338:  // pred: ^bb330
    %1568 = llvm.mul %165, %35 : i64
    %1569 = llvm.mul %1568, %75 : i64
    %1570 = llvm.getelementptr %1526[%1543] : (!llvm.ptr, i64) -> !llvm.ptr, f32
    "llvm.intr.memcpy"(%1570, %1570, %1569) <{isVolatile = false}> : (!llvm.ptr, !llvm.ptr, i64) -> ()
    %1571 = llvm.add %1545, %35 : i64
    llvm.br ^bb328(%1571 : i64)
  ^bb339:  // pred: ^bb328
    %1572 = llvm.add %1543, %35 : i64
    llvm.br ^bb326(%1572 : i64)
  ^bb340:  // pred: ^bb326
    %1573 = llvm.call @malloc(%1520) : (i64) -> !llvm.ptr
    %1574 = llvm.ptrtoint %1573 : !llvm.ptr to i64
    %1575 = llvm.add %1574, %57 : i64
    %1576 = llvm.urem %1575, %31  : i64
    %1577 = llvm.sub %1575, %1576 : i64
    %1578 = llvm.inttoptr %1577 : i64 to !llvm.ptr
    llvm.br ^bb341(%17 : i64)
  ^bb341(%1579: i64):  // 2 preds: ^bb340, ^bb348
    %1580 = llvm.icmp "slt" %1579, %30 : i64
    llvm.cond_br %1580, ^bb342, ^bb349
  ^bb342:  // pred: ^bb341
    llvm.br ^bb343(%17 : i64)
  ^bb343(%1581: i64):  // 2 preds: ^bb342, ^bb347
    %1582 = llvm.icmp "slt" %1581, %16 : i64
    llvm.cond_br %1582, ^bb344, ^bb348
  ^bb344:  // pred: ^bb343
    llvm.br ^bb345(%17 : i64)
  ^bb345(%1583: i64):  // 2 preds: ^bb344, ^bb346
    %1584 = llvm.icmp "slt" %1583, %35 : i64
    llvm.cond_br %1584, ^bb346, ^bb347
  ^bb346:  // pred: ^bb345
    %1585 = llvm.getelementptr %1578[%1579] : (!llvm.ptr, i64) -> !llvm.ptr, f32
    %1586 = llvm.mul %1581, %30 : i64
    %1587 = llvm.add %1586, %1583 : i64
    %1588 = llvm.getelementptr %1585[%1587] : (!llvm.ptr, i64) -> !llvm.ptr, f32
    llvm.store %19, %1588 : f32, !llvm.ptr
    %1589 = llvm.add %1583, %16 : i64
    llvm.br ^bb345(%1589 : i64)
  ^bb347:  // pred: ^bb345
    %1590 = llvm.add %1581, %16 : i64
    llvm.br ^bb343(%1590 : i64)
  ^bb348:  // pred: ^bb343
    %1591 = llvm.mul %165, %35 : i64
    %1592 = llvm.mul %1591, %75 : i64
    %1593 = llvm.getelementptr %1578[%1579] : (!llvm.ptr, i64) -> !llvm.ptr, f32
    "llvm.intr.memcpy"(%1593, %1593, %1592) <{isVolatile = false}> : (!llvm.ptr, !llvm.ptr, i64) -> ()
    %1594 = llvm.add %1579, %35 : i64
    llvm.br ^bb341(%1594 : i64)
  ^bb349:  // pred: ^bb341
    llvm.br ^bb350(%17 : i64)
  ^bb350(%1595: i64):  // 2 preds: ^bb349, ^bb363
    %1596 = llvm.icmp "slt" %1595, %30 : i64
    llvm.cond_br %1596, ^bb351, ^bb364
  ^bb351:  // pred: ^bb350
    llvm.br ^bb352(%17 : i64)
  ^bb352(%1597: i64):  // 2 preds: ^bb351, ^bb362
    %1598 = llvm.icmp "slt" %1597, %34 : i64
    llvm.cond_br %1598, ^bb353, ^bb363
  ^bb353:  // pred: ^bb352
    llvm.br ^bb354(%17 : i64)
  ^bb354(%1599: i64):  // 2 preds: ^bb353, ^bb361
    %1600 = llvm.icmp "slt" %1599, %16 : i64
    llvm.cond_br %1600, ^bb355, ^bb362
  ^bb355:  // pred: ^bb354
    llvm.br ^bb356(%17 : i64)
  ^bb356(%1601: i64):  // 2 preds: ^bb355, ^bb360
    %1602 = llvm.icmp "slt" %1601, %35 : i64
    llvm.cond_br %1602, ^bb357, ^bb361
  ^bb357:  // pred: ^bb356
    llvm.br ^bb358(%17 : i64)
  ^bb358(%1603: i64):  // 2 preds: ^bb357, ^bb359
    %1604 = llvm.icmp "slt" %1603, %35 : i64
    llvm.cond_br %1604, ^bb359, ^bb360
  ^bb359:  // pred: ^bb358
    %1605 = llvm.getelementptr %1490[%1597] : (!llvm.ptr, i64) -> !llvm.ptr, f32
    %1606 = llvm.mul %1599, %34 : i64
    %1607 = llvm.add %1606, %1603 : i64
    %1608 = llvm.getelementptr %1605[%1607] : (!llvm.ptr, i64) -> !llvm.ptr, f32
    %1609 = llvm.load %1608 : !llvm.ptr -> f32
    %1610 = llvm.getelementptr %1578[%1595] : (!llvm.ptr, i64) -> !llvm.ptr, f32
    %1611 = llvm.mul %1599, %30 : i64
    %1612 = llvm.add %1611, %1601 : i64
    %1613 = llvm.getelementptr %1610[%1612] : (!llvm.ptr, i64) -> !llvm.ptr, f32
    %1614 = llvm.load %1613 : !llvm.ptr -> f32
    %1615 = llvm.fmul %1609, %39  : f32
    %1616 = llvm.fadd %1614, %1615  : f32
    llvm.store %1616, %1613 : f32, !llvm.ptr
    %1617 = llvm.add %1603, %16 : i64
    llvm.br ^bb358(%1617 : i64)
  ^bb360:  // pred: ^bb358
    %1618 = llvm.add %1601, %16 : i64
    llvm.br ^bb356(%1618 : i64)
  ^bb361:  // pred: ^bb356
    %1619 = llvm.add %1599, %16 : i64
    llvm.br ^bb354(%1619 : i64)
  ^bb362:  // pred: ^bb354
    %1620 = llvm.mul %165, %35 : i64
    %1621 = llvm.mul %1620, %75 : i64
    %1622 = llvm.getelementptr %1578[%1595] : (!llvm.ptr, i64) -> !llvm.ptr, f32
    "llvm.intr.memcpy"(%1622, %1622, %1621) <{isVolatile = false}> : (!llvm.ptr, !llvm.ptr, i64) -> ()
    %1623 = llvm.add %1597, %35 : i64
    llvm.br ^bb352(%1623 : i64)
  ^bb363:  // pred: ^bb352
    %1624 = llvm.add %1595, %35 : i64
    llvm.br ^bb350(%1624 : i64)
  ^bb364:  // pred: ^bb350
    %1625 = llvm.call @malloc(%151) : (i64) -> !llvm.ptr
    %1626 = llvm.ptrtoint %1625 : !llvm.ptr to i64
    %1627 = llvm.add %1626, %57 : i64
    %1628 = llvm.urem %1627, %31  : i64
    %1629 = llvm.sub %1627, %1628 : i64
    %1630 = llvm.inttoptr %1629 : i64 to !llvm.ptr
    llvm.br ^bb365(%17 : i64)
  ^bb365(%1631: i64):  // 2 preds: ^bb364, ^bb372
    %1632 = llvm.icmp "slt" %1631, %34 : i64
    llvm.cond_br %1632, ^bb366, ^bb373
  ^bb366:  // pred: ^bb365
    llvm.br ^bb367(%17 : i64)
  ^bb367(%1633: i64):  // 2 preds: ^bb366, ^bb371
    %1634 = llvm.icmp "slt" %1633, %16 : i64
    llvm.cond_br %1634, ^bb368, ^bb372
  ^bb368:  // pred: ^bb367
    llvm.br ^bb369(%17 : i64)
  ^bb369(%1635: i64):  // 2 preds: ^bb368, ^bb370
    %1636 = llvm.icmp "slt" %1635, %35 : i64
    llvm.cond_br %1636, ^bb370, ^bb371
  ^bb370:  // pred: ^bb369
    %1637 = llvm.getelementptr %1630[%1631] : (!llvm.ptr, i64) -> !llvm.ptr, f32
    %1638 = llvm.mul %1633, %34 : i64
    %1639 = llvm.add %1638, %1635 : i64
    %1640 = llvm.getelementptr %1637[%1639] : (!llvm.ptr, i64) -> !llvm.ptr, f32
    llvm.store %19, %1640 : f32, !llvm.ptr
    %1641 = llvm.add %1635, %16 : i64
    llvm.br ^bb369(%1641 : i64)
  ^bb371:  // pred: ^bb369
    %1642 = llvm.add %1633, %16 : i64
    llvm.br ^bb367(%1642 : i64)
  ^bb372:  // pred: ^bb367
    %1643 = llvm.mul %165, %35 : i64
    %1644 = llvm.mul %1643, %75 : i64
    %1645 = llvm.getelementptr %1630[%1631] : (!llvm.ptr, i64) -> !llvm.ptr, f32
    "llvm.intr.memcpy"(%1645, %1645, %1644) <{isVolatile = false}> : (!llvm.ptr, !llvm.ptr, i64) -> ()
    %1646 = llvm.add %1631, %35 : i64
    llvm.br ^bb365(%1646 : i64)
  ^bb373:  // pred: ^bb365
    llvm.br ^bb374(%17 : i64)
  ^bb374(%1647: i64):  // 2 preds: ^bb373, ^bb387
    %1648 = llvm.icmp "slt" %1647, %34 : i64
    llvm.cond_br %1648, ^bb375, ^bb388
  ^bb375:  // pred: ^bb374
    llvm.br ^bb376(%17 : i64)
  ^bb376(%1649: i64):  // 2 preds: ^bb375, ^bb386
    %1650 = llvm.icmp "slt" %1649, %30 : i64
    llvm.cond_br %1650, ^bb377, ^bb387
  ^bb377:  // pred: ^bb376
    llvm.br ^bb378(%17 : i64)
  ^bb378(%1651: i64):  // 2 preds: ^bb377, ^bb385
    %1652 = llvm.icmp "slt" %1651, %16 : i64
    llvm.cond_br %1652, ^bb379, ^bb386
  ^bb379:  // pred: ^bb378
    llvm.br ^bb380(%17 : i64)
  ^bb380(%1653: i64):  // 2 preds: ^bb379, ^bb384
    %1654 = llvm.icmp "slt" %1653, %35 : i64
    llvm.cond_br %1654, ^bb381, ^bb385
  ^bb381:  // pred: ^bb380
    llvm.br ^bb382(%17 : i64)
  ^bb382(%1655: i64):  // 2 preds: ^bb381, ^bb383
    %1656 = llvm.icmp "slt" %1655, %35 : i64
    llvm.cond_br %1656, ^bb383, ^bb384
  ^bb383:  // pred: ^bb382
    %1657 = llvm.getelementptr %1526[%1649] : (!llvm.ptr, i64) -> !llvm.ptr, f32
    %1658 = llvm.mul %1651, %30 : i64
    %1659 = llvm.add %1658, %1655 : i64
    %1660 = llvm.getelementptr %1657[%1659] : (!llvm.ptr, i64) -> !llvm.ptr, f32
    %1661 = llvm.load %1660 : !llvm.ptr -> f32
    %1662 = llvm.getelementptr %1578[%1649] : (!llvm.ptr, i64) -> !llvm.ptr, f32
    %1663 = llvm.getelementptr %1662[%1659] : (!llvm.ptr, i64) -> !llvm.ptr, f32
    %1664 = llvm.load %1663 : !llvm.ptr -> f32
    %1665 = llvm.getelementptr %1630[%1647] : (!llvm.ptr, i64) -> !llvm.ptr, f32
    %1666 = llvm.mul %1651, %34 : i64
    %1667 = llvm.add %1666, %1653 : i64
    %1668 = llvm.getelementptr %1665[%1667] : (!llvm.ptr, i64) -> !llvm.ptr, f32
    %1669 = llvm.load %1668 : !llvm.ptr -> f32
    %1670 = llvm.fneg %1661  : f32
    %1671 = llvm.intr.exp(%1670)  : (f32) -> f32
    %1672 = llvm.fadd %1661, %1671  : f32
    %1673 = llvm.fdiv %1661, %1672  : f32
    %1674 = llvm.fmul %1673, %1664  : f32
    %1675 = llvm.fmul %1674, %38  : f32
    %1676 = llvm.fadd %1669, %1675  : f32
    llvm.store %1676, %1668 : f32, !llvm.ptr
    %1677 = llvm.add %1655, %16 : i64
    llvm.br ^bb382(%1677 : i64)
  ^bb384:  // pred: ^bb382
    %1678 = llvm.add %1653, %16 : i64
    llvm.br ^bb380(%1678 : i64)
  ^bb385:  // pred: ^bb380
    %1679 = llvm.add %1651, %16 : i64
    llvm.br ^bb378(%1679 : i64)
  ^bb386:  // pred: ^bb378
    %1680 = llvm.mul %165, %35 : i64
    %1681 = llvm.mul %1680, %75 : i64
    %1682 = llvm.getelementptr %1630[%1647] : (!llvm.ptr, i64) -> !llvm.ptr, f32
    "llvm.intr.memcpy"(%1682, %1682, %1681) <{isVolatile = false}> : (!llvm.ptr, !llvm.ptr, i64) -> ()
    %1683 = llvm.add %1649, %35 : i64
    llvm.br ^bb376(%1683 : i64)
  ^bb387:  // pred: ^bb376
    %1684 = llvm.add %1647, %35 : i64
    llvm.br ^bb374(%1684 : i64)
  ^bb388:  // pred: ^bb374
    %1685 = llvm.call @malloc(%151) : (i64) -> !llvm.ptr
    %1686 = llvm.ptrtoint %1685 : !llvm.ptr to i64
    %1687 = llvm.add %1686, %57 : i64
    %1688 = llvm.urem %1687, %31  : i64
    %1689 = llvm.sub %1687, %1688 : i64
    %1690 = llvm.inttoptr %1689 : i64 to !llvm.ptr
    %1691 = llvm.insertvalue %1685, %9[0] : !llvm.struct<(ptr, ptr, i64, array<2 x i64>, array<2 x i64>)> 
    %1692 = llvm.insertvalue %1690, %1691[1] : !llvm.struct<(ptr, ptr, i64, array<2 x i64>, array<2 x i64>)> 
    %1693 = llvm.insertvalue %17, %1692[2] : !llvm.struct<(ptr, ptr, i64, array<2 x i64>, array<2 x i64>)> 
    %1694 = llvm.insertvalue %16, %1693[3, 0] : !llvm.struct<(ptr, ptr, i64, array<2 x i64>, array<2 x i64>)> 
    %1695 = llvm.insertvalue %34, %1694[3, 1] : !llvm.struct<(ptr, ptr, i64, array<2 x i64>, array<2 x i64>)> 
    %1696 = llvm.insertvalue %34, %1695[4, 0] : !llvm.struct<(ptr, ptr, i64, array<2 x i64>, array<2 x i64>)> 
    %1697 = llvm.insertvalue %16, %1696[4, 1] : !llvm.struct<(ptr, ptr, i64, array<2 x i64>, array<2 x i64>)> 
    llvm.br ^bb389(%17 : i64)
  ^bb389(%1698: i64):  // 2 preds: ^bb388, ^bb396
    %1699 = llvm.icmp "slt" %1698, %34 : i64
    llvm.cond_br %1699, ^bb390, ^bb397
  ^bb390:  // pred: ^bb389
    llvm.br ^bb391(%17 : i64)
  ^bb391(%1700: i64):  // 2 preds: ^bb390, ^bb395
    %1701 = llvm.icmp "slt" %1700, %16 : i64
    llvm.cond_br %1701, ^bb392, ^bb396
  ^bb392:  // pred: ^bb391
    llvm.br ^bb393(%17 : i64)
  ^bb393(%1702: i64):  // 2 preds: ^bb392, ^bb394
    %1703 = llvm.icmp "slt" %1702, %35 : i64
    llvm.cond_br %1703, ^bb394, ^bb395
  ^bb394:  // pred: ^bb393
    %1704 = llvm.getelementptr %1432[%1698] : (!llvm.ptr, i64) -> !llvm.ptr, f32
    %1705 = llvm.mul %1700, %34 : i64
    %1706 = llvm.add %1705, %1702 : i64
    %1707 = llvm.getelementptr %1704[%1706] : (!llvm.ptr, i64) -> !llvm.ptr, f32
    %1708 = llvm.load %1707 : !llvm.ptr -> f32
    %1709 = llvm.getelementptr %1630[%1698] : (!llvm.ptr, i64) -> !llvm.ptr, f32
    %1710 = llvm.getelementptr %1709[%1706] : (!llvm.ptr, i64) -> !llvm.ptr, f32
    %1711 = llvm.load %1710 : !llvm.ptr -> f32
    %1712 = llvm.fadd %1708, %1711  : f32
    %1713 = llvm.getelementptr %1690[%1698] : (!llvm.ptr, i64) -> !llvm.ptr, f32
    %1714 = llvm.getelementptr %1713[%1706] : (!llvm.ptr, i64) -> !llvm.ptr, f32
    llvm.store %1712, %1714 : f32, !llvm.ptr
    %1715 = llvm.add %1702, %16 : i64
    llvm.br ^bb393(%1715 : i64)
  ^bb395:  // pred: ^bb393
    %1716 = llvm.add %1700, %16 : i64
    llvm.br ^bb391(%1716 : i64)
  ^bb396:  // pred: ^bb391
    %1717 = llvm.mul %165, %35 : i64
    %1718 = llvm.mul %1717, %75 : i64
    %1719 = llvm.getelementptr %1690[%1698] : (!llvm.ptr, i64) -> !llvm.ptr, f32
    "llvm.intr.memcpy"(%1719, %1719, %1718) <{isVolatile = false}> : (!llvm.ptr, !llvm.ptr, i64) -> ()
    %1720 = llvm.add %1698, %35 : i64
    llvm.br ^bb389(%1720 : i64)
  ^bb397:  // pred: ^bb389
    %1721 = llvm.call @malloc(%54) : (i64) -> !llvm.ptr
    %1722 = llvm.ptrtoint %1721 : !llvm.ptr to i64
    %1723 = llvm.add %1722, %57 : i64
    %1724 = llvm.urem %1723, %31  : i64
    %1725 = llvm.sub %1723, %1724 : i64
    %1726 = llvm.inttoptr %1725 : i64 to !llvm.ptr
    %1727 = llvm.insertvalue %1721, %7[0] : !llvm.struct<(ptr, ptr, i64, array<3 x i64>, array<3 x i64>)> 
    %1728 = llvm.insertvalue %1726, %1727[1] : !llvm.struct<(ptr, ptr, i64, array<3 x i64>, array<3 x i64>)> 
    %1729 = llvm.insertvalue %17, %1728[2] : !llvm.struct<(ptr, ptr, i64, array<3 x i64>, array<3 x i64>)> 
    %1730 = llvm.insertvalue %15, %1729[3, 0] : !llvm.struct<(ptr, ptr, i64, array<3 x i64>, array<3 x i64>)> 
    %1731 = llvm.insertvalue %32, %1730[3, 1] : !llvm.struct<(ptr, ptr, i64, array<3 x i64>, array<3 x i64>)> 
    %1732 = llvm.insertvalue %34, %1731[3, 2] : !llvm.struct<(ptr, ptr, i64, array<3 x i64>, array<3 x i64>)> 
    %1733 = llvm.insertvalue %6, %1732[4, 0] : !llvm.struct<(ptr, ptr, i64, array<3 x i64>, array<3 x i64>)> 
    %1734 = llvm.insertvalue %34, %1733[4, 1] : !llvm.struct<(ptr, ptr, i64, array<3 x i64>, array<3 x i64>)> 
    %1735 = llvm.insertvalue %16, %1734[4, 2] : !llvm.struct<(ptr, ptr, i64, array<3 x i64>, array<3 x i64>)> 
    "llvm.intr.memcpy"(%1726, %1053, %76) <{isVolatile = false}> : (!llvm.ptr, !llvm.ptr, i64) -> ()
    %1736 = llvm.call @malloc(%54) : (i64) -> !llvm.ptr
    %1737 = llvm.ptrtoint %1736 : !llvm.ptr to i64
    %1738 = llvm.add %1737, %57 : i64
    %1739 = llvm.urem %1738, %31  : i64
    %1740 = llvm.sub %1738, %1739 : i64
    %1741 = llvm.inttoptr %1740 : i64 to !llvm.ptr
    %1742 = llvm.insertvalue %1736, %7[0] : !llvm.struct<(ptr, ptr, i64, array<3 x i64>, array<3 x i64>)> 
    %1743 = llvm.insertvalue %1741, %1742[1] : !llvm.struct<(ptr, ptr, i64, array<3 x i64>, array<3 x i64>)> 
    %1744 = llvm.insertvalue %17, %1743[2] : !llvm.struct<(ptr, ptr, i64, array<3 x i64>, array<3 x i64>)> 
    %1745 = llvm.insertvalue %15, %1744[3, 0] : !llvm.struct<(ptr, ptr, i64, array<3 x i64>, array<3 x i64>)> 
    %1746 = llvm.insertvalue %32, %1745[3, 1] : !llvm.struct<(ptr, ptr, i64, array<3 x i64>, array<3 x i64>)> 
    %1747 = llvm.insertvalue %34, %1746[3, 2] : !llvm.struct<(ptr, ptr, i64, array<3 x i64>, array<3 x i64>)> 
    %1748 = llvm.insertvalue %6, %1747[4, 0] : !llvm.struct<(ptr, ptr, i64, array<3 x i64>, array<3 x i64>)> 
    %1749 = llvm.insertvalue %34, %1748[4, 1] : !llvm.struct<(ptr, ptr, i64, array<3 x i64>, array<3 x i64>)> 
    %1750 = llvm.insertvalue %16, %1749[4, 2] : !llvm.struct<(ptr, ptr, i64, array<3 x i64>, array<3 x i64>)> 
    "llvm.intr.memcpy"(%1741, %1076, %76) <{isVolatile = false}> : (!llvm.ptr, !llvm.ptr, i64) -> ()
    %1751 = llvm.add %168, %16 : i64
    llvm.br ^bb3(%1751, %1697, %1735, %1750 : i64, !llvm.struct<(ptr, ptr, i64, array<2 x i64>, array<2 x i64>)>, !llvm.struct<(ptr, ptr, i64, array<3 x i64>, array<3 x i64>)>, !llvm.struct<(ptr, ptr, i64, array<3 x i64>, array<3 x i64>)>)
  ^bb398:  // pred: ^bb3
    %1752 = llvm.add %75, %31 : i64
    %1753 = llvm.call @malloc(%1752) : (i64) -> !llvm.ptr
    %1754 = llvm.ptrtoint %1753 : !llvm.ptr to i64
    %1755 = llvm.add %1754, %57 : i64
    %1756 = llvm.urem %1755, %31  : i64
    %1757 = llvm.sub %1755, %1756 : i64
    %1758 = llvm.inttoptr %1757 : i64 to !llvm.ptr
    llvm.br ^bb399(%17 : i64)
  ^bb399(%1759: i64):  // 2 preds: ^bb398, ^bb400
    %1760 = llvm.icmp "slt" %1759, %16 : i64
    llvm.cond_br %1760, ^bb400, ^bb401
  ^bb400:  // pred: ^bb399
    %1761 = llvm.getelementptr %1758[%1759] : (!llvm.ptr, i64) -> !llvm.ptr, f32
    llvm.store %19, %1761 : f32, !llvm.ptr
    %1762 = llvm.add %1759, %16 : i64
    llvm.br ^bb399(%1762 : i64)
  ^bb401:  // pred: ^bb399
    llvm.br ^bb402(%17 : i64)
  ^bb402(%1763: i64):  // 2 preds: ^bb401, ^bb409
    %1764 = llvm.icmp "slt" %1763, %34 : i64
    llvm.cond_br %1764, ^bb403, ^bb410
  ^bb403:  // pred: ^bb402
    %1765 = llvm.extractvalue %169[1] : !llvm.struct<(ptr, ptr, i64, array<2 x i64>, array<2 x i64>)> 
    llvm.br ^bb404(%17 : i64)
  ^bb404(%1766: i64):  // 2 preds: ^bb403, ^bb408
    %1767 = llvm.icmp "slt" %1766, %16 : i64
    llvm.cond_br %1767, ^bb405, ^bb409
  ^bb405:  // pred: ^bb404
    llvm.br ^bb406(%17 : i64)
  ^bb406(%1768: i64):  // 2 preds: ^bb405, ^bb407
    %1769 = llvm.icmp "slt" %1768, %35 : i64
    llvm.cond_br %1769, ^bb407, ^bb408
  ^bb407:  // pred: ^bb406
    %1770 = llvm.getelementptr %1765[%1763] : (!llvm.ptr, i64) -> !llvm.ptr, f32
    %1771 = llvm.mul %1766, %34 : i64
    %1772 = llvm.add %1771, %1768 : i64
    %1773 = llvm.getelementptr %1770[%1772] : (!llvm.ptr, i64) -> !llvm.ptr, f32
    %1774 = llvm.load %1773 : !llvm.ptr -> f32
    %1775 = llvm.getelementptr %1758[%1766] : (!llvm.ptr, i64) -> !llvm.ptr, f32
    %1776 = llvm.load %1775 : !llvm.ptr -> f32
    %1777 = llvm.fmul %1774, %1774  : f32
    %1778 = llvm.fadd %1776, %1777  : f32
    llvm.store %1778, %1775 : f32, !llvm.ptr
    %1779 = llvm.add %1768, %16 : i64
    llvm.br ^bb406(%1779 : i64)
  ^bb408:  // pred: ^bb406
    %1780 = llvm.add %1766, %16 : i64
    llvm.br ^bb404(%1780 : i64)
  ^bb409:  // pred: ^bb404
    %1781 = llvm.add %1763, %35 : i64
    llvm.br ^bb402(%1781 : i64)
  ^bb410:  // pred: ^bb402
    %1782 = llvm.getelementptr %48[32000] : (!llvm.ptr) -> !llvm.ptr, f32
    %1783 = llvm.ptrtoint %1782 : !llvm.ptr to i64
    %1784 = llvm.add %1783, %31 : i64
    %1785 = llvm.call @malloc(%1784) : (i64) -> !llvm.ptr
    %1786 = llvm.ptrtoint %1785 : !llvm.ptr to i64
    %1787 = llvm.add %1786, %57 : i64
    %1788 = llvm.urem %1787, %31  : i64
    %1789 = llvm.sub %1787, %1788 : i64
    %1790 = llvm.inttoptr %1789 : i64 to !llvm.ptr
    %1791 = llvm.insertvalue %1785, %9[0] : !llvm.struct<(ptr, ptr, i64, array<2 x i64>, array<2 x i64>)> 
    %1792 = llvm.insertvalue %1790, %1791[1] : !llvm.struct<(ptr, ptr, i64, array<2 x i64>, array<2 x i64>)> 
    %1793 = llvm.insertvalue %17, %1792[2] : !llvm.struct<(ptr, ptr, i64, array<2 x i64>, array<2 x i64>)> 
    %1794 = llvm.insertvalue %16, %1793[3, 0] : !llvm.struct<(ptr, ptr, i64, array<2 x i64>, array<2 x i64>)> 
    %1795 = llvm.insertvalue %29, %1794[3, 1] : !llvm.struct<(ptr, ptr, i64, array<2 x i64>, array<2 x i64>)> 
    %1796 = llvm.insertvalue %29, %1795[4, 0] : !llvm.struct<(ptr, ptr, i64, array<2 x i64>, array<2 x i64>)> 
    %1797 = llvm.insertvalue %16, %1796[4, 1] : !llvm.struct<(ptr, ptr, i64, array<2 x i64>, array<2 x i64>)> 
    llvm.br ^bb411(%17 : i64)
  ^bb411(%1798: i64):  // 2 preds: ^bb410, ^bb418
    %1799 = llvm.icmp "slt" %1798, %29 : i64
    llvm.cond_br %1799, ^bb412, ^bb419
  ^bb412:  // pred: ^bb411
    llvm.br ^bb413(%17 : i64)
  ^bb413(%1800: i64):  // 2 preds: ^bb412, ^bb417
    %1801 = llvm.icmp "slt" %1800, %16 : i64
    llvm.cond_br %1801, ^bb414, ^bb418
  ^bb414:  // pred: ^bb413
    llvm.br ^bb415(%17 : i64)
  ^bb415(%1802: i64):  // 2 preds: ^bb414, ^bb416
    %1803 = llvm.icmp "slt" %1802, %35 : i64
    llvm.cond_br %1803, ^bb416, ^bb417
  ^bb416:  // pred: ^bb415
    %1804 = llvm.getelementptr %1790[%1798] : (!llvm.ptr, i64) -> !llvm.ptr, f32
    %1805 = llvm.mul %1800, %29 : i64
    %1806 = llvm.add %1805, %1802 : i64
    %1807 = llvm.getelementptr %1804[%1806] : (!llvm.ptr, i64) -> !llvm.ptr, f32
    llvm.store %19, %1807 : f32, !llvm.ptr
    %1808 = llvm.add %1802, %16 : i64
    llvm.br ^bb415(%1808 : i64)
  ^bb417:  // pred: ^bb415
    %1809 = llvm.add %1800, %16 : i64
    llvm.br ^bb413(%1809 : i64)
  ^bb418:  // pred: ^bb413
    %1810 = llvm.mul %165, %35 : i64
    %1811 = llvm.mul %1810, %75 : i64
    %1812 = llvm.getelementptr %1790[%1798] : (!llvm.ptr, i64) -> !llvm.ptr, f32
    "llvm.intr.memcpy"(%1812, %1812, %1811) <{isVolatile = false}> : (!llvm.ptr, !llvm.ptr, i64) -> ()
    %1813 = llvm.add %1798, %35 : i64
    llvm.br ^bb411(%1813 : i64)
  ^bb419:  // pred: ^bb411
    llvm.br ^bb420(%17 : i64)
  ^bb420(%1814: i64):  // 2 preds: ^bb419, ^bb433
    %1815 = llvm.icmp "slt" %1814, %29 : i64
    llvm.cond_br %1815, ^bb421, ^bb434
  ^bb421:  // pred: ^bb420
    llvm.br ^bb422(%17 : i64)
  ^bb422(%1816: i64):  // 2 preds: ^bb421, ^bb432
    %1817 = llvm.icmp "slt" %1816, %34 : i64
    llvm.cond_br %1817, ^bb423, ^bb433
  ^bb423:  // pred: ^bb422
    %1818 = llvm.extractvalue %169[1] : !llvm.struct<(ptr, ptr, i64, array<2 x i64>, array<2 x i64>)> 
    llvm.br ^bb424(%17 : i64)
  ^bb424(%1819: i64):  // 2 preds: ^bb423, ^bb431
    %1820 = llvm.icmp "slt" %1819, %16 : i64
    llvm.cond_br %1820, ^bb425, ^bb432
  ^bb425:  // pred: ^bb424
    llvm.br ^bb426(%17 : i64)
  ^bb426(%1821: i64):  // 2 preds: ^bb425, ^bb430
    %1822 = llvm.icmp "slt" %1821, %35 : i64
    llvm.cond_br %1822, ^bb427, ^bb431
  ^bb427:  // pred: ^bb426
    llvm.br ^bb428(%17 : i64)
  ^bb428(%1823: i64):  // 2 preds: ^bb427, ^bb429
    %1824 = llvm.icmp "slt" %1823, %35 : i64
    llvm.cond_br %1824, ^bb429, ^bb430
  ^bb429:  // pred: ^bb428
    %1825 = llvm.getelementptr %1818[%1816] : (!llvm.ptr, i64) -> !llvm.ptr, f32
    %1826 = llvm.mul %1819, %34 : i64
    %1827 = llvm.add %1826, %1823 : i64
    %1828 = llvm.getelementptr %1825[%1827] : (!llvm.ptr, i64) -> !llvm.ptr, f32
    %1829 = llvm.load %1828 : !llvm.ptr -> f32
    %1830 = llvm.getelementptr %1758[%1819] : (!llvm.ptr, i64) -> !llvm.ptr, f32
    %1831 = llvm.load %1830 : !llvm.ptr -> f32
    %1832 = llvm.getelementptr %1790[%1814] : (!llvm.ptr, i64) -> !llvm.ptr, f32
    %1833 = llvm.mul %1819, %29 : i64
    %1834 = llvm.add %1833, %1821 : i64
    %1835 = llvm.getelementptr %1832[%1834] : (!llvm.ptr, i64) -> !llvm.ptr, f32
    %1836 = llvm.load %1835 : !llvm.ptr -> f32
    %1837 = llvm.fdiv %1831, %28  : f32
    %1838 = llvm.fadd %1837, %22  : f32
    %1839 = llvm.intr.sqrt(%1838)  : (f32) -> f32
    %1840 = llvm.fdiv %18, %1839  : f32
    %1841 = llvm.fmul %1829, %1840  : f32
    %1842 = llvm.fmul %1841, %37  : f32
    %1843 = llvm.fmul %1842, %36  : f32
    %1844 = llvm.fadd %1836, %1843  : f32
    llvm.store %1844, %1835 : f32, !llvm.ptr
    %1845 = llvm.add %1823, %16 : i64
    llvm.br ^bb428(%1845 : i64)
  ^bb430:  // pred: ^bb428
    %1846 = llvm.add %1821, %16 : i64
    llvm.br ^bb426(%1846 : i64)
  ^bb431:  // pred: ^bb426
    %1847 = llvm.add %1819, %16 : i64
    llvm.br ^bb424(%1847 : i64)
  ^bb432:  // pred: ^bb424
    %1848 = llvm.mul %165, %35 : i64
    %1849 = llvm.mul %1848, %75 : i64
    %1850 = llvm.getelementptr %1790[%1814] : (!llvm.ptr, i64) -> !llvm.ptr, f32
    "llvm.intr.memcpy"(%1850, %1850, %1849) <{isVolatile = false}> : (!llvm.ptr, !llvm.ptr, i64) -> ()
    %1851 = llvm.add %1816, %35 : i64
    llvm.br ^bb422(%1851 : i64)
  ^bb433:  // pred: ^bb422
    %1852 = llvm.add %1814, %35 : i64
    llvm.br ^bb420(%1852 : i64)
  ^bb434:  // pred: ^bb420
    %1853 = llvm.call @malloc(%1752) : (i64) -> !llvm.ptr
    %1854 = llvm.ptrtoint %1853 : !llvm.ptr to i64
    %1855 = llvm.add %1854, %57 : i64
    %1856 = llvm.urem %1855, %31  : i64
    %1857 = llvm.sub %1855, %1856 : i64
    %1858 = llvm.inttoptr %1857 : i64 to !llvm.ptr
    llvm.br ^bb435(%17 : i64)
  ^bb435(%1859: i64):  // 2 preds: ^bb434, ^bb436
    %1860 = llvm.icmp "slt" %1859, %16 : i64
    llvm.cond_br %1860, ^bb436, ^bb437
  ^bb436:  // pred: ^bb435
    %1861 = llvm.getelementptr %1858[%1859] : (!llvm.ptr, i64) -> !llvm.ptr, f32
    llvm.store %43, %1861 : f32, !llvm.ptr
    %1862 = llvm.add %1859, %16 : i64
    llvm.br ^bb435(%1862 : i64)
  ^bb437:  // pred: ^bb435
    %1863 = llvm.getelementptr %48[1] : (!llvm.ptr) -> !llvm.ptr, i64
    %1864 = llvm.ptrtoint %1863 : !llvm.ptr to i64
    %1865 = llvm.add %1864, %31 : i64
    %1866 = llvm.call @malloc(%1865) : (i64) -> !llvm.ptr
    %1867 = llvm.ptrtoint %1866 : !llvm.ptr to i64
    %1868 = llvm.add %1867, %57 : i64
    %1869 = llvm.urem %1868, %31  : i64
    %1870 = llvm.sub %1868, %1869 : i64
    %1871 = llvm.inttoptr %1870 : i64 to !llvm.ptr
    llvm.br ^bb438(%17 : i64)
  ^bb438(%1872: i64):  // 2 preds: ^bb437, ^bb439
    %1873 = llvm.icmp "slt" %1872, %16 : i64
    llvm.cond_br %1873, ^bb439, ^bb440
  ^bb439:  // pred: ^bb438
    %1874 = llvm.getelementptr %1871[%1872] : (!llvm.ptr, i64) -> !llvm.ptr, i64
    llvm.store %13, %1874 : i64, !llvm.ptr
    %1875 = llvm.add %1872, %16 : i64
    llvm.br ^bb438(%1875 : i64)
  ^bb440:  // pred: ^bb438
    llvm.br ^bb441(%17 : i64)
  ^bb441(%1876: i64):  // 2 preds: ^bb440, ^bb448
    %1877 = llvm.icmp "slt" %1876, %29 : i64
    llvm.cond_br %1877, ^bb442, ^bb449
  ^bb442:  // pred: ^bb441
    llvm.br ^bb443(%17 : i64)
  ^bb443(%1878: i64):  // 2 preds: ^bb442, ^bb447
    %1879 = llvm.icmp "slt" %1878, %16 : i64
    llvm.cond_br %1879, ^bb444, ^bb448
  ^bb444:  // pred: ^bb443
    llvm.br ^bb445(%17 : i64)
  ^bb445(%1880: i64):  // 2 preds: ^bb444, ^bb446
    %1881 = llvm.icmp "slt" %1880, %35 : i64
    llvm.cond_br %1881, ^bb446, ^bb447
  ^bb446:  // pred: ^bb445
    %1882 = llvm.getelementptr %1790[%1876] : (!llvm.ptr, i64) -> !llvm.ptr, f32
    %1883 = llvm.mul %1878, %29 : i64
    %1884 = llvm.add %1883, %1880 : i64
    %1885 = llvm.getelementptr %1882[%1884] : (!llvm.ptr, i64) -> !llvm.ptr, f32
    %1886 = llvm.load %1885 : !llvm.ptr -> f32
    %1887 = llvm.getelementptr %1858[%1878] : (!llvm.ptr, i64) -> !llvm.ptr, f32
    %1888 = llvm.load %1887 : !llvm.ptr -> f32
    %1889 = llvm.getelementptr %1871[%1878] : (!llvm.ptr, i64) -> !llvm.ptr, i64
    %1890 = llvm.load %1889 : !llvm.ptr -> i64
    %1891 = llvm.add %1880, %1876 : i64
    %1892 = llvm.fcmp "ogt" %1886, %1888 : f32
    %1893 = llvm.select %1892, %1886, %1888 : i1, f32
    %1894 = llvm.select %1892, %1891, %1890 : i1, i64
    llvm.store %1893, %1887 : f32, !llvm.ptr
    llvm.store %1894, %1889 : i64, !llvm.ptr
    %1895 = llvm.add %1880, %16 : i64
    llvm.br ^bb445(%1895 : i64)
  ^bb447:  // pred: ^bb445
    %1896 = llvm.add %1878, %16 : i64
    llvm.br ^bb443(%1896 : i64)
  ^bb448:  // pred: ^bb443
    %1897 = llvm.add %1876, %35 : i64
    llvm.br ^bb441(%1897 : i64)
  ^bb449:  // pred: ^bb441
    %1898 = llvm.alloca %16 x !llvm.struct<(ptr, ptr, i64, array<2 x i64>, array<2 x i64>)> : (i64) -> !llvm.ptr
    llvm.store %1797, %1898 : !llvm.struct<(ptr, ptr, i64, array<2 x i64>, array<2 x i64>)>, !llvm.ptr
    llvm.call @printMemrefF32(%11, %1898) : (i64, !llvm.ptr) -> ()
    %1899 = llvm.add %146, %14 : i64
    llvm.br ^bb1(%1899, %170, %171 : i64, !llvm.struct<(ptr, ptr, i64, array<3 x i64>, array<3 x i64>)>, !llvm.struct<(ptr, ptr, i64, array<3 x i64>, array<3 x i64>)>)
  ^bb450:  // pred: ^bb1
    llvm.return
  }
}
